277_best_MC_model.pth (torch, 287364 bytes, 6 tensors)

fc1.weight f4 [256, 16]
-0.0425597 -0.12770021 -0.07818327 0.0860053 0.07417331 0.09083094 -0.35616705 0.093216754
-0.04984344 0.035715226 -0.34680343 -0.066537715 -0.17999609 -0.09324631 -0.19488765 -0.23743892
-0.10392871 -0.10785494 -0.17816082 -0.34581748 -0.027315874 0.08463037 0.0059368573 0.0617229
-0.34448656 -0.30300543 -0.0474143 -0.06887742 -0.2692979 -0.21870202 0.019375265 -0.09110576
-0.0785113 -0.15638618 -0.25395694 0.06780367 -0.33728302 -0.13949558 -0.33536896 -0.12736669
0.027620774 -0.04553514 0.024043066 -0.33012715 -0.3428396 -0.2554745 -0.17413922 -0.22393133
-0.4208934 -0.1484102 -0.19763426 -0.2106096 0.014383217 -0.36037487 0.05112818 -0.20257524
-0.22317399 -0.3171949 -0.012365817 -0.11357115 -0.027309014 -0.18845278 -0.089776784 -0.3954158
-0.4199706 -0.26442057 0.06464064 0.06203879 -0.11761573 -0.32611656 -0.31655315 -0.41618827
-0.034104504 0.005121081 -0.05922735 0.016337529 -0.39119396 -0.38425392 -0.16902393 -0.15960868
-0.32653016 -0.32506093 0.036951937 -0.032329157 -0.33734888 -0.35673073 -0.16831909 -0.02112326
-0.17550755 -0.27334878 0.06479826 -0.008963103 -0.30456403 0.09676795 0.023416184 -0.30497715
0.051972434 -0.2567869 -0.1256284 0.07347672 -0.30366933 -0.20184189 -0.060806103 -0.3380391
-0.20360725 -0.24422584 -0.2435878 -0.05494783 0.061930846 -0.031698544 0.06271377 -0.10869497
-0.06288248 -0.07694477 -0.15120228 -0.23930486 -0.015577384 -0.03688535 -0.10811183 -0.42098975
-0.39941454 -0.33662197 -0.22350298 -0.062167753 -0.035643935 -0.12923901 -0.26864615 0.014444099
-0.11407583 -0.039979454 -0.38617888 -0.2538916 -0.36881316 -0.31911945 -0.08859805 -0.37545094
0.12086337 0.1179529 -0.12973899 -0.33861116 0.0036753542 -0.2911101 -0.42253223 -0.30172205
-0.2378853 -0.2886071 0.051013753 0.07743646 -0.36969966 0.07113386 -0.16493897 0.109339654
-0.1815452 -0.03683508 -0.0074760285 -0.34593293 -0.26503164 -0.269317 -0.01282766 -0.40047222
-0.00034685456 -0.19587386 0.01922878 -0.10577896 -0.40009937 -0.4008113 0.0026938037 -0.22417255
-0.05373151 -0.2591347 -0.054944858 -0.25081918 0.027768461 -0.27711108 0.009103192 -0.24647358
0.06885017 0.05897955 -0.25368705 -0.10523208 -0.33690727 0.041585084 -0.4043525 -0.046436716
0.017314056 -0.35255626 -0.004862395 0.021397527 -0.21553944 -0.29265428 -0.1640031 -0.14429949
-0.10164153 -0.10605564 0.06320974 -0.14985529 -0.37473696 -0.3266679 -0.014295913 -0.11432117
-0.4261385 -0.34768495 -0.31048727 -0.13067226 -0.22526263 0.01908228 -0.32264498 -0.39223862
-0.028749978 -0.0439901 -0.087134026 -0.030329878 -0.024039332 -0.09944995 -0.25894052 -0.22630793
-0.34935915 -0.2644827 0.12913798 -0.0025549487 -0.16527195 0.12715176 -0.079842314 0.028273316
-0.06963905 -0.030309495 -0.07859972 -0.2290616 -0.102427855 -0.30749574 -0.11548243 -0.044525374
-0.3688086 -0.28243878 -0.20158423 -0.36127576 -0.24372931 -0.1170432 -0.23444417 -0.4188846
-0.21447821 -0.050689977 -0.3518502 -0.35434982 0.0040910817 -0.1337476 -0.30365595 -0.112168066
-0.08254034 -0.109429985 0.018020477 -0.27761084 -0.032684747 -0.052030478 -0.21742131 -0.17723791
00000000: 1453 2ebd d8c3 02be 8d1e a0bd 8c23 b03d
00000010: 2de8 973d 9205 ba3d 875b b6be 6de8 be3d
00000020: a328 4cbd 214a 123d 3890 b1be ed44 88bd
00000030: e550 38be ecf7 bebd a190 47be 3023 73be
00000040: 93d8 d4bd 0de3 dcbd ca6f 36be fd0e b1be
00000050: 8ac5 dfbc b052 ad3d f889 c23b 27d1 7c3d
00000060: 8b60 b0be 8723 9bbe 7f35 42bd 9b0f 8dbd
00000070: 6ae1 89be 6cf3 5fbe e0b8 9e3c a895 babd
00000080: 88ca a0bd b323 20be a506 82be a7dc 8a3d
00000090: 5cb0 acbe eed7 0ebe 7bb5 abbe 6a6c 02be
000000a0: f644 e23c 0e83 3abd f7f5 c43c 6d06 a9be
000000b0: ac88 afbe 8ecd 82be 8d51 32be 414e 65be
000000c0: 577f d7be d8f8 17be a360 4abe 0baa 57be
000000d0: 96a7 6b3c 0e83 b8be c86b 513d e26f 4fbe
000000e0: b987 64be 5f67 a2be ff99 4abc fe97 e8bd
000000f0: 27b7 dfbc c4f9 40be e4dc b7bd f173 cabe
00000100: 6306 d7be 2262 87be 5062 843d 631c 7e3d
00000110: 84e0 f0bd c0f8 a6be 4113 a2be a116 d5be
00000120: 2ab1 0bbd bece a73b 6198 72bd 48d6 853c
00000130: 934a c8be eebc c4be 9c14 2dbe 7570 23be
00000140: f62e a7be 636e a6be ea5a 173d 946b 04bd
00000150: feb8 acbe 69a5 b6be d75b 2cbe b00a adbc
00000160: 40b8 33be 5ff4 8bbe f3b4 843d fbd9 12bc
00000170: d1ef 9bbe 462e c63d 4cd3 bf3c f725 9cbe
00000180: 0ce1 543d 9379 83be bba4 00be f67a 963d
00000190: 8c7a 9bbe a4af 4ebe d20f 79bd 7613 adbe
000001a0: 6b7e 50be 5716 7abe 156f 79be fa10 61bd
000001b0: 33ab 7d3d 55d6 01bd 1470 803d 789b debd
000001c0: 88c8 80bd 3895 9dbd c5d4 1abe 550c 75be
000001d0: 4938 7fbc 1815 17bd bc69 ddbd f88b d7be
000001e0: 1080 ccbe b759 acbe f7dd 64be 9da3 7ebd
000001f0: 60ff 11bd 3b57 04be fd8b 89be f1a6 6c3c
00000200: 97a0 e9bd 7fc1 23bd 3db9 c5be 14fe 81be
00000210: 14d5 bcbe a063 a3be e572 b5bd 1b3b c0be
00000220: 3787 f73d 4a91 f13d 4cda 04be 715e adbe
00000230: 36de 703b 620c 95be 2556 d8be 507b 9abe
00000240: 3498 73be 4fc4 93be ccf3 503d 0297 9e3d
00000250: 4649 bdbe a1ae 913d c3e5 28be 78ed df3d
00000260: fce6 39be 61e0 16bd 79f9 f4bb 1f1e b1be
00000270: 3ab2 87be ebe3 89be 1b2b 52bc b20a cdbe
00000280: 08da b5b9 2893 48be ad85 9d3c a4a2 d8bd
00000290: d3d9 ccbe 2437 cdbe 878a 303b 7d8d 65be
000002a0: 9215 5cbd 4ead 84be dc0d 61bd 5f6b 80be
000002b0: af7a e33c 81e1 8dbe 8e25 153c 9263 7cbe
000002c0: 5101 8d3d 8a94 713d 45e3 81be eb83 d7bd
000002d0: 1c7f acbe 1f55 2a3d 4a07 cfbe 6d34 3ebd
000002e0: 35d6 8d3c 4182 b4be ba54 9fbb de49 af3c
000002f0: 5fb6 5cbe c8d6 95be 6ef0 27be 3fc3 13be
00000300: 6f29 d0bd b333 d9bd 1c74 813d aa73 19be
00000310: 86dd bfbe 0441 a7be 6839 6abc 3821 eabd
00000320: d32e dabe c303 b2be 30f8 9ebe f3ce 05be
00000330: 3fab 66be 7152 9c3c b931 a5be 80d3 c8be
00000340: 1385 ebbc f72e 34bd 5373 b2bd 5d76 f8bc
00000350: 22ee c4bc 6aac cbbd da93 84be 44bd 67be
00000360: 34df b2be 476a 87be bf3c 043e ed70 27bb
00000370: 0d3d 29be 1234 023e 5e84 a3bd 719d e73c
00000380: eb9e 8ebd 9e4b f8bc e4f8 a0bd 208f 6abe
00000390: b2c5 d1bd 1570 9dbe 0d82 ecbd 3d60 36bd
000003a0: 7bd4 bcbe d19b 90be 196c 4ebe 23f9 b8be
000003b0: 2d94 79be 58b4 efbd 2212 70be 0b78 d6be
000003c0: 2da0 5bbe 4ba0 4fbd b625 b4be 576d b5be
000003d0: 7b0e 863b 21f5 08be cb78 9bbe 5fb8 e5bd
000003e0: e90a a9bd d41c e0bd ae9f 933c 0223 8ebe
000003f0: 71e0 05bd e91d 55bd b1a3 5ebe db7d 35be

fc1.bias f4 [256]
-0.0037457386 0.13102646 -0.3093167 -0.22887465 -0.26567453 -0.21693124 -0.058794044 0.024510013
-0.4136831 -0.17526609 0.06875944 0.037594225 -0.11396167 -0.05811804 -0.14020951 0.010926239
-0.36224988 0.03623247 -0.06596879 -0.1186208 -0.16580488 -0.110436685 -0.12605704 -0.365223
-0.2642087 -0.31604287 -0.276246 -0.06299479 -0.21661541 -0.26492226 0.062638015 0.050034538
-0.13318494 -0.07847715 -0.42237258 -0.056550886 -0.080356576 -0.2540209 -0.06920645 0.073973276
-0.082025096 -0.0951979 -0.37267876 0.056156605 0.04253862 -0.1897769 0.03072169 -0.21005122
-0.05188776 -0.4020255 -0.008075284 -0.24137105 -0.3926073 0.071413375 -0.02876968 0.021034708
-0.27308592 -0.07574342 -0.1864397 0.056501336 -0.0632301 -0.31276214 -0.14309715 -0.085159615
-0.2694744 -0.19337872 -0.33681452 -0.31703347 -0.28228778 -0.32455724 -0.22289413 0.052951094
-0.004290083 -0.26621962 -0.36023372 -0.20937772 -0.21301147 -0.026423069 -0.23148851 -0.047360532
-0.037648693 -0.41986662 -0.42719334 -0.39685154 -0.20576121 0.012185486 -0.14261249 -0.17951751
-0.40757045 -0.062321305 -0.05120209 -0.017645646 -0.096466124 -0.086070105 -0.13443932 0.040970862
0.017713204 -0.032194383 -0.20364961 -0.17438662 -0.24785997 0.051334165 -0.2199834 -0.11151061
-0.36483872 -0.3599128 0.044760734 -0.21197802 -0.2881687 -0.1997669 -0.38320318 -0.15763363
-0.21939822 -0.33913139 0.06313751 -0.09502247 -0.2359024 0.05926981 -0.32885572 0.004360111
-0.31669828 -0.036920603 -0.16991681 -0.3042433 -0.18404189 0.055736925 -0.21339789 0.0055327527
-0.0072184913 -0.3628437 0.029321391 0.0054614767 -0.11748463 -0.0037438548 -0.07692489 -0.35116357
0.005300871 -0.24664597 -0.2083163 -0.35195905 -0.15196505 -0.13986874 -0.14535156 -0.17626631
-0.12475894 -0.37076738 -0.002248041 -0.2929564 -0.10422269 -0.014463977 -0.19199884 -0.12683246
-0.16345601 0.023736779 -0.068280235 -0.047390286 -0.3512966 0.12636966 -0.118031524 -0.1901741
-0.2239125 -0.3049418 -0.33412904 -0.23403399 -0.004364714 -0.1497636 0.06381057 -0.3071375
-0.15480551 -0.04956246 -0.109215185 -0.26479125 -0.16685523 -0.41069934 0.0834685 -0.034537435
0.104574196 -0.2844091 -0.12611501 -0.03921052 -0.009227581 -0.005861111 -0.39511856 -0.35271516
-0.3550611 -0.42212334 -0.054643497 0.11584087 -0.025391974 0.019490713 -0.18680255 -0.07994899
-0.15012798 -0.026627017 0.09995508 -0.10187932 -0.41664055 -0.29472524 0.08759187 -0.21752618
0.06009385 -0.32132497 0.00043867016 -0.19182478 0.04843436 0.03403448 -0.28533298 -0.048078906
-0.14339018 0.12330176 -0.22642112 0.022552 -0.1878005 -0.10568932 0.09991451 -0.3883066
-0.3259663 -0.30209935 -0.3277821 -0.16357075 0.20883158 -0.18175127 -0.11864055 -0.09802554
-0.30644882 -0.13557488 -0.2065149 -0.23197371 -0.19245075 -0.23870905 -0.017878385 -0.175861
-0.118081175 0.024849163 -0.30012622 -0.1798146 -0.22090451 -0.060139406 0.016633585 -0.23562549
-0.049315106 -0.084146954 -0.026206939 -0.14732917 0.040376402 -0.26592383 -0.19574425 -0.023871511
-0.41608045 -0.24172975 0.11762893 -0.07824248 -0.3367401 0.061888855 -0.031291302 -0.035275318
00000000: 117b 75bb cd2b 063e c25e 9ebe 1e5e 6abe
00000010: 7e06 88be 3923 5ebe 06d2 70bd 39c9 c83c
00000020: 45ce d3be f478 33be c0d1 8c3d 67fc 193d
00000030: bc64 e9bd 2f0d 6ebd 1593 0fbe f803 333c
00000040: d178 b9be 8068 143d a51a 87bd 76ef f2bd
00000050: c1c8 29be a12c e2bd 1915 01be 82fe babe
00000060: 5d46 87be 5fd0 a1be 1e70 8dbe 6a03 81bd
00000070: 6ed0 5dbe e4a3 87be 5c48 803d 04f1 4c3d
00000080: a261 08be a1b8 a0bd 3841 d8be e7a1 67bd
00000090: fd91 a4bd 070f 82be 1cbc 8dbd 4d7f 973d
000000a0: c6fc a7bd 1ef7 c2bd c0cf bebe 7804 663d
000000b0: fa3c 2e3d e054 42be 0eac fb3c ab17 57be
000000c0: 4388 54bd 49d6 cdbe 324e 04bc f929 77be
000000d0: d303 c9be 2d41 923d 64ae ebbc fb50 ac3c
000000e0: ebd1 8bbe 5e1f 9bbd 0cea 3ebe f26d 673d
000000f0: c87e 81bd 5c22 a0be 0f88 12be 2a68 aebd
00000100: 8cf8 89be 1205 46be f472 acbe 3652 a2be
00000110: 0688 90be 5e2c a6be 5c3e 64be 3fe3 583d
00000120: d393 8cbb f04d 88be 8e70 b8be 1d67 56be
00000130: ae1f 5abe 3175 d8bc 530b 6dbe 1efd 41bd
00000140: 8435 1abd c2f8 d6be 16b9 dabe 2030 cbbe
00000150: 11b3 52be a2a5 473c 0209 12be 70d3 37be
00000160: 13ad d0be a044 7fbd 48b9 51bd 9a8d 90bc
00000170: 0890 c5bd 8645 b0bd 76aa 09be 10d1 273d
00000180: 481b 913c 42de 03bd 8689 50be 6892 32be
00000190: 01cf 7dbe c643 523d 5443 61be ad5f e4bd
000001a0: 24cc babe 7e46 b8be 0857 373d c410 59be
000001b0: d98a 93be b28f 4cbe 3533 c4be b66a 21be
000001c0: eda9 60be a1a2 adbe 3d4e 813d 249b c2bd
000001d0: 6690 71be e6c4 723d c75f a8be 43df 8e3b
000001e0: 4726 a2be 0f3a 17bd acfe 2dbe c7c5 9bbe
000001f0: 7a75 3cbe 674c 643d fa84 5abe 184c b53b
00000200: 1889 ecbb a6c6 b9be 6a33 f03c 30f6 b23b
00000210: c89b f0bd 765b 75bb cc8a 9dbd b6cb b3be
00000220: eeb2 ad3b c390 7cbe de50 55be fa33 b4be
00000230: ba9c 1bbe c039 0fbe 0ad7 14be 287f 34be
00000240: 9d81 ffbd 39d5 bdbe df53 13bb 62fe 95be
00000250: b572 d5bd 51fa 6cbc 589b 44be 5ee0 01be
00000260: 0361 27be a273 c23c 82d6 8bbd 511c 42bd
00000270: 26dd b3be 0c67 013e 83ba f1bd 00bd 42be
00000280: 5249 65be 5521 9cbe f612 abbe 9ba6 6fbe
00000290: e005 8fbb a15b 19be 1eaf 823d 2041 9dbe
000002a0: 5685 1ebe 0202 4bbd 36ac dfbd b892 87be
000002b0: 19dc 2abe 2f47 d2be 88f1 aa3d 2077 0dbd
000002c0: ff2a d63d 129e 91be 4b24 01be 369b 20bd
000002d0: 482f 17bc 900e c0bb fb4c cabe 1597 b4be
000002e0: 92ca b5be 8d20 d8be dcd1 5fbd fa3d ed3d
000002f0: d402 d0bc fdaa 9f3c 2b49 3fbe 4cbc a3bd
00000300: 26bb 19be e720 dabc 40b5 cc3d 1ba6 d0bd
00000310: e951 d5be 3ae6 96be 5e63 b33d 2fbf 5ebe
00000320: f824 763d b584 a4be 50fd e539 b76d 44be
00000330: 1c63 463d bd67 0b3d 2a17 92be 63ee 44bd
00000340: e0d4 12be a285 fc3d f0da 67be f9be b83c
00000350: c64e 40be a473 d8bd fb9f cc3d 1fd0 c6be
00000360: 0ee5 a6be c4ac 9abe 0ed3 a7be 177f 27be
00000370: f2d7 553e 011d 3abe d1f9 f2bd 9dc1 c8bd
00000380: dce6 9cbe 24d4 0abe a478 53be 848a 6dbe
00000390: cf11 45be 2570 74be b175 92bc e814 34be
000003a0: 8bd4 f1bd 7990 cb3c 25aa 99be 5221 38be
000003b0: cb34 62be bd54 76bd 2843 883c cf47 71be
000003c0: a3fe 49bd 3d55 acbd efaf d6bc 75dd 16be
000003d0: ba61 253d 2b27 88be 2e71 48be 308e c3bc
000003e0: 7f08 d5be 0188 77be 70e7 f03d 983d a0bd
000003f0: 3369 acbe 2b7f 7d3d 4f2b 00bd da7c 10bd

fc2.weight f4 [256, 256]
-0.16961029 -0.10718207 -0.107594274 -0.21561185 -0.14379504 -0.18795682 -0.13945813 -0.10071724
-0.19725189 -0.19682251 -0.16522653 -0.15351781 -0.17111094 -0.11937522 -0.14715487 -0.16021647
-0.17545813 -0.18590446 -0.16874592 -0.17511798 -0.20847636 -0.21849483 -0.16258126 -0.09699372
-0.14577658 -0.10993483 -0.12546402 -0.11181751 -0.09791757 -0.21035813 -0.17753346 -0.1553065
-0.21334708 -0.10169541 -0.21299976 -0.17576098 -0.12495446 0.16947185 -0.17968726 -0.21004246
-0.22146954 -0.19633767 -0.14439441 -0.21542951 -0.14019825 -0.13460644 -0.15544786 -0.09701679
-0.14743087 -0.09862952 -0.18357241 -0.1047939 -0.20591888 -0.1531365 -0.20875634 -0.1289597
-0.20598513 -0.21727817 -0.17180008 -0.18150188 -0.15352464 -0.12098941 -0.10157892 -0.18533175
-0.14184855 -0.19743365 -0.108439945 -0.16694249 -0.10265053 -0.112989366 -0.20246558 -0.15248016
-0.13580476 -0.13085367 -0.2181652 -0.14782074 -0.17456478 -0.20354845 -0.21673559 -0.11664456
-0.21583806 -0.15794334 -0.20536403 0.10246766 -0.113237016 -0.21539527 -0.20340125 -0.11398826
-0.16693865 -0.13021357 -0.21848784 -0.15498981 -0.112566896 -0.17400616 -0.2009418 -0.15363027
-0.1459124 -0.21138063 -0.13147058 -0.10282941 -0.1629032 -0.19079952 -0.14778389 0.17612556
-0.18868665 -0.21308452 -0.14246453 -0.16319878 -0.17590934 -0.17397146 -0.16662352 -0.20952576
-0.1676016 -0.12856588 -0.21271683 -0.21992756 -0.19923963 0.09983495 -0.10614856 -0.096791744
-0.20125446 -0.2007761 -0.15366739 -0.114572294 -0.2015418 -0.19206187 0.1262477 -0.1063562
-0.14372222 -0.09925092 -0.11218872 -0.102006935 -0.19367945 -0.19139607 -0.13008891 -0.1392132
-0.16109622 -0.21295696 -0.14484504 -0.17591865 -0.13099475 -0.111373655 -0.1168061 -0.10982537
-0.16110632 0.1527887 -0.20856458 -0.11674773 -0.16982526 -0.15082775 -0.14669938 -0.18959765
-0.2039134 -0.13542289 -0.173692 -0.12542409 -0.20192963 -0.1290585 -0.050134584 -0.12656136
-0.19393593 -0.21196695 -0.14706619 -0.16776572 -0.21047108 -0.18651876 0.10791016 -0.12745509
0.075115755 -0.2024898 -0.10250778 -0.13079806 -0.14661701 -0.11598978 -0.1673004 -0.178576
-0.15128525 -0.20419995 -0.18678124 -0.16066813 -0.18213272 -0.097677976 -0.21597604 -0.17632471
-0.1647948 -0.14952955 -0.12173876 -0.030714512 -0.12459136 -0.2010992 -0.1353238 -0.15966138
-0.12441957 -0.1060325 -0.13728079 -0.14323446 -0.11852916 -0.12146695 -0.20457596 -0.21443878
-0.11719171 -0.13367675 -0.19387455 -0.15693384 -0.1012321 -0.1585169 -0.09676688 -0.10864448
-0.15682217 -0.2208543 -0.19763342 -0.18984933 -0.11516153 -0.1002686 -0.20423615 -0.18669045
-0.17091173 -0.20140162 -0.10478886 -0.1877489 -0.041986343 -0.1496297 -0.21072568 0.18463229
0.1802079 -0.10135639 -0.10877497 -0.18519035 -0.12622425 -0.13295218 -0.15375967 -0.13041876
-0.2210608 -0.10664399 -0.19643067 -0.15050304 -0.16973399 -0.108865686 -0.17562245 -0.17543419
-0.16932037 -0.21282403 -0.20207319 -0.04893089 -0.10668424 -0.099936865 -0.1132784 -0.21742529
-0.102786265 -0.1416655 -0.14878123 -0.11485552 -0.17637251 -0.15230228 -0.1708464 -0.20784546
00000000: 52ae 2dbe 4682 dbbd 635a dcbd 5ac9 5cbe
00000010: 023f 13be c177 40be 1dce 0ebe d744 cebd
00000020: 66fc 49be d78b 49be 2531 29be c633 1dbe
00000030: b537 2fbe ff7a f4bd c4af 16be c90f 24be
00000040: 4cab 33be bd5d 3ebe bbcb 2cbe 2152 33be
00000050: d47a 55be 1cbd 5fbe b47b 26be a5a4 c6bd
00000060: 7546 15be 8325 e1bd a479 00be 9400 e5bd
00000070: 0289 c8bd 1f68 57be 55cb 35be ab08 1fbe
00000080: a877 5abe af45 d0bd 9c1c 5abe b0fa 33be
00000090: 20e8 ffbd 078a 2d3e f0ff 37be 5f15 57be
000000a0: e9c8 62be be0c 49be 21dc 13be 8e99 5cbe
000000b0: 2190 0fbe 45d6 09be b92d 1fbe bdb0 c6bd
000000c0: 1ef8 16be 46fe c9bd 68fa 3bbe 2f9e d6bd
000000d0: 66dc 52be d1cf 1cbe 39c4 55be 030e 04be
000000e0: c4ed 52be 2b7e 5ebe 5cec 2fbe a1db 39be
000000f0: 9035 1dbe 4cc9 f7bd 9c08 d0bd 9bc7 3dbe
00000100: bf40 11be 0c2c 4abe c315 debd f9f2 2abe
00000110: 713a d2bd f866 e7bd 2353 4fbe c223 1cbe
00000120: 6710 0bbe 81fe 05be b366 5fbe 525e 17be
00000130: 1cc1 32be 016f 50be efef 5dbe 58e3 eebd
00000140: a704 5dbe e6bb 21be f34a 52be 91da d13d
00000150: cfe8 e7bd 9490 5cbe 6b48 50be ad72 e9bd
00000160: f7f1 2abe b556 05be 47bb 5fbe a6b5 1ebe
00000170: 7989 e6bd ac2e 32be b0c3 4dbe 4151 1dbe
00000180: 0f6a 15be 2a74 58be 39a0 06be 3a98 d2bd
00000190: 19d0 26be f360 43be a954 17be 425a 343e
000001a0: 1337 41be d432 5abe 39e2 11be 951d 27be
000001b0: 9421 34be 9325 32be 5b9f 2abe ec8d 56be
000001c0: c19f 2bbe c6a6 03be 71d2 59be b134 61be
000001d0: 7905 4cbe 4476 cc3d 6b64 d9bd c03a c6bd
000001e0: a615 4ebe 4098 4dbe fc5a 1dbe e1a4 eabd
000001f0: f960 4ebe deab 44be 1447 013e 48d1 d9bd
00000200: eb2b 13be 1144 cbbd 33c3 e5bd 03e9 d0bd
00000210: e853 46be 55fd 43be 0736 05be e88d 0ebe
00000220: 68f6 24be 6411 5abe 4252 14be 0524 34be
00000230: 7d23 06be df17 e4bd 0938 efbd 20ec e0bd
00000240: 0ef9 24be a474 1c3e f491 55be 6f19 efbd
00000250: ace6 2dbe 9772 1abe 5d38 16be e325 42be
00000260: adce 50be 4cac 0abe 51dc 31be 2c6f 00be
00000270: a4c6 4ebe e927 04be ec59 4dbd 4d99 01be
00000280: 2497 46be dd0d 59be 8598 16be c7ca 2bbe
00000290: bb85 57be c6fe 3ebe 0100 dd3d 9683 02be
000002a0: 4ad6 993d 7c59 4fbe 99ef d1bd edef 05be
000002b0: c522 16be 0d8c edbd cc50 2bbe a0dc 36be
000002c0: 85ea 1abe cb19 51be 9543 3fbe 3086 24be
000002d0: 0081 3abe 640b c8bd d328 5dbe 778e 34be
000002e0: f8bf 28be 461e 19be 2c52 f9bd 009d fbbc
000002f0: c129 ffbd f3ec 4dbe 5292 0abe 467e 23be
00000300: b0cf febd 9127 d9bd 5693 0cbe 0eac 12be
00000310: 6bbf f2bd aac3 f8bd 5c7c 51be d795 5bbe
00000320: 3502 f0bd 8fe2 08be 0d87 46be 44b3 20be
00000330: c652 cfbd 4152 22be b72d c6bd ff80 debd
00000340: fe95 20be a127 62be 6a60 4abe dd67 42be
00000350: cfd9 ebbd a059 cdbd 4823 51be c82b 3fbe
00000360: 7c03 2fbe 3a3c 4ebe 8b9b d6bd 3f41 40be
00000370: dff9 2bbd 8738 19be 79c8 57be 3f10 3d3e
00000380: 6b88 383e f093 cfbd 69c5 debd 8aa2 3dbe
00000390: ee40 01be 9e24 08be 2d73 1dbe 7f8c 05be
000003a0: c35d 62be 2a68 dabd 1f25 49be 781d 1abe
000003b0: bfce 2dbe f9f4 debd 5fd6 33be 05a5 33be
000003c0: 5262 2dbe 8bee 59be 46ec 4ebe c26b 48bd
000003d0: 447d dabd b3ab ccbd 81fe e7bd bca4 5ebe
000003e0: 9b81 d2bd c310 11be 1b5a 18be 5f39 ebbd
000003f0: ff9a 34be 21f5 1bbe 5cf2 2ebe 71d5 54be

fc2.bias f4 [256]
-0.2778761 -0.2978741 -0.06552334 -0.19881769 -0.21557818 -0.06948411 -0.16930072 -0.17757957
-0.10717847 -0.048089765 -0.20353709 -0.2115011 -0.10124182 -0.12420386 -0.18198223 -0.17415711
-0.27617878 -0.15691894 -0.12987684 -0.12686509 -0.14448567 -0.1387153 -0.1400856 -0.12665096
-0.17069705 -0.16639721 -0.090627715 -0.3050798 -0.16964866 -0.11459108 -0.097073935 -0.36002165
-0.20308393 -0.30671775 -0.3012566 -0.14586505 -0.08552391 -0.17509696 -0.11721814 -0.12143009
-0.18980145 -0.12620331 -0.15169632 -0.060560074 -0.088784315 -0.21700145 -0.15693702 -0.15698767
-0.12275641 0.011717071 -0.1258518 -0.2209577 -0.10595716 -0.09190321 -0.1169471 -0.0674504
-0.15934008 -0.14279966 -0.12814736 -0.13625428 -0.088599585 -0.25996208 -0.097974665 -0.17448221
-0.3051815 -0.17346932 -0.091491185 -0.21504945 -0.07219989 -0.10789902 -0.16311173 -0.17971702
-0.17368639 -0.16660328 -0.22541362 -0.13649102 -0.054581147 -0.0768788 -0.2503139 -0.1341696
-0.14138673 0.12624834 -0.19448432 -0.31949776 -0.0676094 -0.1976849 -0.13725479 -0.1275193
-0.16100278 -0.13551424 -0.17325106 -0.112467915 -0.14151414 -0.18371317 -0.09081173 -0.16296938
-0.11935612 -0.16875193 -0.1472222 -0.13451377 -0.23269428 -0.13195275 -0.306206 -0.13029297
-0.12136301 -0.1708646 -0.13801944 -0.09834708 -0.2599471 -0.14485386 -0.068481304 -0.09397264
-0.11557309 -0.17091936 -0.23006447 -0.05572669 -0.21473122 -0.13321178 -0.2191728 -0.19097139
-0.06452242 -0.21551704 -0.14025252 -0.21290417 -0.12221821 -0.18522589 -0.06855294 -0.25411302
-0.13507955 -0.14520998 -0.121468455 -0.15606879 -0.2150721 -0.2163369 -0.17600164 -0.20884497
-0.12361258 -0.1529408 -0.112651505 -0.07212176 -0.054103922 -0.23604487 -0.16450815 -0.15355664
-0.13429554 -0.14608516 -0.22013651 -0.22114938 -0.12285815 -0.17777249 -0.15107617 -0.064079
-0.13242292 -0.13471146 -0.17310677 -0.12697242 -0.091914855 0.058036227 -0.12948956 -0.07111518
-0.23163182 -0.1917522 -0.21891372 -0.120634355 -0.1119694 -0.11220342 -0.20510867 -0.058967106
-0.052930404 -0.31498566 -0.0037535906 -0.1600864 -0.19303872 -0.09741773 -0.090757035 -0.12053947
-0.23712166 -0.10829306 -0.15384677 -0.11342956 -0.08605566 -0.28374633 -0.30165556 -0.16257577
-0.25741765 -0.09485404 -0.08410222 -0.1247761 -0.22141579 -0.12319275 -0.3030158 -0.14536162
-0.09371596 -0.11768613 -0.13255355 -0.17887941 -0.039966602 -0.10227906 -0.08859411 -0.11561324
-0.06828686 -0.07006184 -0.14601707 -0.16141939 -0.14899692 -0.09391917 -0.20088659 -0.18489741
-0.11750401 -0.22719929 -0.18254311 -0.14658952 -0.08989654 -0.15493618 -0.21990466 -0.10533659
-0.13006976 -0.20847794 -0.11137815 -0.1206627 -0.13979574 -0.10562342 -0.16327667 -0.15305826
-0.1750685 -0.29291597 -0.13237041 -0.18625684 -0.1593337 -0.22537945 -0.058902614 -0.09223927
-0.082391575 -0.07957436 -0.100347124 -0.21031696 -0.09615805 -0.06824575 -0.11396705 -0.1880759
-0.25842276 -0.07109368 -0.14051807 -0.17788844 -0.097850546 -0.08809763 -0.11303932 -0.091289975
-0.09852526 -0.16033892 -0.1218602 -0.12826137 -0.22768196 -0.2680943 -0.12553746 -0.1452956
00000000: c745 8ebe f482 98be 1a31 86bd dd96 4bbe
00000010: 87c0 5cbe af4d 8ebd 2b5d 2dbe 6bd7 35be
00000020: 6380 dbbd c6f9 44bd 076c 50be bf93 58be
00000030: df57 cfbd 985e febd 8d59 3abe 3e56 32be
00000040: 4e67 8dbe 5caf 20be 6ffe 04be ece8 01be
00000050: 0df4 13be 620b 0ebe 9972 0fbe cab0 01be
00000060: 35cb 2ebe 0864 2abe 069b b9bd 6b33 9cbe
00000070: 61b8 2dbe baae eabd b3ce c6bd c254 b8be
00000080: 3cf5 4fbe 1c0a 9dbe 4e3e 9abe a65d 15be
00000090: 2927 afbd 9e4c 33be 1010 f0bd 57b0 f8bd
000000a0: 505b 42be 713b 01be 4856 1bbe d70d 78bd
000000b0: 8dd4 b5bd a135 5ebe 19b4 20be 60c1 20be
000000c0: b667 fbbd f5f8 3f3c 4bdf 00be bc42 62be
000000d0: 1100 d9bd c037 bcbd f681 efbd 6f23 8abd
000000e0: 0c2a 23be 133a 12be 1039 03be 3e86 0bbe
000000f0: b373 b5bd c019 85be f1a6 c8bd 77ab 32be
00000100: c040 9cbe f1a1 31be bb5f bbbd ec35 5cbe
00000110: 89dd 93bd 29fa dcbd c306 27be bd07 38be
00000120: d8da 31be 0d9a 2abe d4d2 66be 4dc4 0bbe
00000130: 7b90 5fbd a272 9dbd 2529 80be c163 09be
00000140: afc7 10be 3f47 013e e626 47be 3695 a3be
00000150: cc76 8abd e96d 4abe 858c 0cbe 6b94 02be
00000160: eadd 24be 3fc4 0abe ba68 31be 9455 e6bd
00000170: 15e9 10be 4e1f 3cbe 80fb b9bd 72e1 26be
00000180: fb70 f4bd 4ecd 2cbe 6bc1 16be fabd 09be
00000190: 6947 6ebe 9f1e 07be 08c7 9cbe 856b 05be
000001a0: 2b8d f8bd 21f7 2ebe f854 0dbe 326a c9bd
000001b0: c917 85be 9254 14be ed3f 8cbd ba74 c0bd
000001c0: 96b1 ecbd 7c05 2fbe 0596 6bbe ab41 64bd
000001d0: 80e2 5bbe ab68 08be d66e 60be 018e 43be
000001e0: 5524 84bd 80b0 5cbe 5b9e 0fbe 8d03 5abe
000001f0: 8a4d fabd dbab 3dbe 7c65 8cbd 1a1b 82be
00000200: 4b52 0abe edb1 14be 74c4 f8bd 7fd0 1fbe
00000210: dc3b 5cbe 6c87 5dbe c639 34be 75db 55be
00000220: 9828 fdbd 839c 1cbe d5b5 e6bd 93b4 93bd
00000230: 139c 5dbd bfb5 71be d374 28be f43d 1dbe
00000240: c584 09be 5997 15be 776b 61be fc74 62be
00000250: 0e9d fbbd fe09 36be b6b3 1abe da3b 83bd
00000260: e099 07be cdf1 09be e742 31be 0f05 02be
00000270: db3d bcbd 65b7 6d3d e998 04be d6a4 91bd
00000280: e430 6dbe b05a 44be eb2a 60be 250f f7bd
00000290: 3650 e5bd e8ca e5bd 0208 52be 7e87 71bd
000002a0: 8dcd 58bd cd45 a1be cdfe 75bb b0ed 23be
000002b0: f1ab 45be f282 c7bd d3de b9bd 66dd f6bd
000002c0: 05d0 72be c0c8 ddbd 028a 1dbe c24d e8bd
000002d0: f33d b0bd 3347 91be 9972 9abe 437a 26be
000002e0: 3fcc 83be d642 c2bd c93d acbd 9d8a ffbd
000002f0: d2ba 62be 7b4c fcbd e324 9bbe add9 14be
00000300: 27ee bfbd 6d05 f1bd 1ebc 07be 2a2c 37be
00000310: 05b4 23bd af77 d1bd d470 b5bd a2c6 ecbd
00000320: fbd9 8bbd 957c 8fbd 8085 15be 204b 25be
00000330: a692 18be b258 c0bd 37b5 4dbe bf55 3dbe
00000340: f1a5 f0bd eea6 68be 95ec 3abe 901b 16be
00000350: ad1b b8bd 97a7 1ebe b02e 61be b6ba d7bd
00000360: 0231 05be 3e7b 55be 3a1a e4bd 011e f7bd
00000370: 9d26 0fbe 1751 d8bd 0032 27be 4ebb 1cbe
00000380: 2845 33be 15f9 95be 1c8c 07be 1dba 3ebe
00000390: 6028 23be dfc9 66be de43 71bd f1e7 bcbd
000003a0: eabc a8bd e2f7 a2bd cb82 cdbd 545d 57be
000003b0: 83ee c4bd 6ec4 8bbd 8f67 e9bd f896 40be
000003c0: fd4f 84be 9099 91bd f8e3 0fbe 6328 36be
000003d0: de65 c8bd 886c b4bd 2981 e7bd 3df6 babd
000003e0: 9dc7 c9bd e32f 24be d791 f9bd f356 03be
000003f0: 7625 69be a843 89be e48c 00be 5fc8 14be

fc3.weight f4 [4, 256]
0.1510519 0.10524185 -0.13608277 0.16519211 0.13040175 -0.122045845 -0.15193917 -0.10320723
0.14628907 0.02115582 0.18850322 0.108081736 0.1401923 -0.105641864 0.1047516 -0.117057115
0.0869092 -0.019236565 -0.14503627 -0.16498148 0.21035886 0.16457845 0.12332278 -0.16995856
-0.12205563 -0.13038047 -0.10008145 0.16848834 -0.1374197 -0.12578893 -0.15012479 0.14853239
0.13359979 0.10322746 0.15946575 0.12794529 -0.13425091 -0.1354439 0.12968037 -0.075092085
0.09723287 -0.06816707 0.1149951 -0.093407564 -0.095342755 0.10119571 -0.1750012 0.12433303
-0.09841889 0.08467889 0.15865406 -0.06293344 -0.16820724 -0.15798129 -0.17355222 -0.10571599
-0.07470218 -0.06509751 0.12401984 -0.051068712 -0.11289757 0.062039413 -0.10551299 -0.13448481
0.10815654 -0.08885371 -0.12545359 0.10471923 -0.08901639 0.10936467 -0.09911963 0.124483295
0.15838785 0.14812578 0.17032865 -0.13881327 -0.1236392 -0.105376974 0.20322433 -0.06021661
-0.09844357 -0.040139526 0.12450571 0.09864058 -0.054724734 0.13913326 -0.063483424 -0.10390757
-0.07614983 -0.07419996 -0.06756522 -0.15832402 -0.0962217 0.097944535 -0.13139206 -0.08822586
-0.113167 0.14318858 0.17828105 -0.05389902 -0.11931283 0.10901507 0.076910995 0.119472995
0.1429119 -0.124766335 -0.068062596 -0.09904193 -0.12550132 0.1587207 -0.1533524 -0.056579504
-0.07081518 0.10538431 0.13518478 -0.104683466 0.17158009 0.118411854 0.124026656 0.21415083
-0.15032509 0.1787243 -0.16860451 -0.090938576 0.22063053 0.102263205 -0.12156672 0.16311944
0.14360924 -0.07605065 -0.14186358 0.09718663 -0.012529157 0.12535311 -0.06763982 0.1430266
0.111039646 0.09712306 -0.04929045 -0.06891359 -0.13690951 -0.11545578 -0.06421799 0.13432825
-0.16775192 -0.1438755 0.1927849 0.15410882 0.1274284 -0.10710477 -0.14912596 -0.05791266
0.19124594 -0.1147767 0.11113276 -0.06209434 -0.13210233 0.07782327 -0.085563414 0.021444365
0.13207734 0.11500645 0.14427437 -0.083388776 -0.12297059 -0.09722972 0.16970825 -0.15706998
-0.09863245 0.081869416 0.061203074 0.12603773 0.092813514 -0.10422883 0.15651144 -0.15187982
0.20868252 -0.16133356 -0.105044186 -0.052640416 -0.06278359 0.23192818 0.10193785 -0.09190691
0.122880355 -0.091045484 -0.1184808 -0.11473283 -0.17998837 0.10991842 0.17911576 -0.1360747
-0.053349778 -0.10065471 -0.07344294 -0.10136467 0.11649108 0.1778177 -0.10147392 0.09764059
-0.2265528 -0.12426086 0.17840162 -0.16776335 0.20916642 -0.08199416 0.17453878 0.12656955
0.115241714 0.14904702 0.21566573 0.0027415454 -0.073063 -0.15240589 0.20419724 -0.10211875
-0.09525706 0.098157294 0.111296706 -0.15099432 -0.1421482 0.12482157 -0.056319624 0.13379873
-0.10576314 0.19705142 -0.07254956 0.16758877 0.1282288 0.21726193 -0.08613374 -0.07135702
-0.06921294 -0.07847164 -0.15698549 0.12168409 -0.093750305 -0.062185414 0.16776519 0.16284561
0.09605539 -0.068970166 0.2126424 -0.11654263 0.10440003 -0.06259754 -0.05567868 -0.11001164
-0.11253225 0.13777527 -0.13398756 -0.059160158 0.19530849 0.16843493 0.1182079 -0.1456355
00000000: 59ad 1a3e 0a89 d73d 4859 0bbe 1f28 293e
00000010: 0988 053e 2cf3 f9bd f195 1bbe 505e d3bd
00000020: cdcc 153e f84e ad3c fd06 413e f559 dd3d
00000030: 928e 0f3e c35a d8bd 0288 d63d a4bb efbd
00000040: 73fd b13d 0096 9dbc 6384 14be e8f0 28be
00000050: 5068 573e 4187 283e a790 fc3d 9e09 2ebe
00000060: 4df8 f9bd 7582 05be 81f7 ccbd 3588 2c3e
00000070: c0b7 0cbe d0ce 00be 50ba 19be e018 183e
00000080: 62ce 083e eb68 d33d fd4a 233e 1704 033e
00000090: 1279 09be ceb1 0abe eeca 043e e1c9 99bd
000000a0: 0722 c73d 2d9b 8bbd 8d82 eb3d 774c bfbd
000000b0: 1043 c3bd b23f cf3d 8433 33be 51a2 fe3d
000000c0: d88f c9bd 206c ad3d 3676 223e 3fe3 80bd
000000d0: 853e 2cbe d9c5 21be acb7 31be a081 d8bd
000000e0: 75fd 98bd d851 85bd 1dfe fd3d 6d2d 51bd
000000f0: d736 e7bd 0a1d 7e3d 3217 d8bd 63b6 09be
00000100: 2d81 dd3d eff8 b5bd e876 00be 0977 d63d
00000110: 3a4e b6bd 96fa df3d 3cff cabd 19f1 fe3d
00000120: 6d30 223e 49ae 173e a26a 2e3e 1125 0ebe
00000130: 8d36 fdbd e2cf d7bd 0a1a 503e b1a5 76bd
00000140: c89c c9bd 5869 24bd dafc fe3d 1304 ca3d
00000150: 0b27 60bd f378 0e3e 9903 82bd 7ecd d4bd
00000160: 71f4 9bbd 26f6 97bd a25f 8abd b11f 22be
00000170: e20f c5bd 2597 c83d a48b 06be c2af b4bd
00000180: 1ac4 e7bd 07a0 123e 4f8f 363e 38c5 5cbd
00000190: 495a f4bd 4b43 df3d 8383 9d3d 42ae f43d
000001a0: 7f57 123e 7e85 ffbd 6764 8bbd 7fd6 cabd
000001b0: 6b83 00be ae87 223e 6908 1dbe e9bf 67bd
000001c0: 8d07 91bd bbd3 d73d e16d 0a3e 4964 d6bd
000001d0: b1b2 2f3e ea81 f23d b001 fe3d 5b4a 5b3e
000001e0: d2ee 19be 8103 373e a9a6 2cbe 013e babd
000001f0: f8ec 613e 5f6f d13d f9f7 f8bd c808 273e
00000200: 4d0e 133e 71c0 9bbd b044 11be c909 c73d
00000210: 1847 4dbc 915c 003e bf86 8abd 9175 123e
00000220: c168 e33d 74e8 c63d c8e4 49bd 9122 8dbd
00000230: 0232 0cbe 1474 ecbd b984 83bd 588d 093e
00000240: 29c7 2bbe 1954 13be 6869 453e b4ce 1d3e
00000250: 977c 023e bf59 dbbd 7ab4 18be d335 6dbd
00000260: fad5 433e 0c10 ebbd 9399 e33d a256 7ebd
00000270: d545 07be ce61 9f3d df3b afbd 18ac af3c
00000280: 483f 073e 8088 eb3d a9bc 133e bcc7 aabd
00000290: 01d8 fbbd 6020 c7bd 00c8 2d3e f4d6 20be
000002a0: cfff c9bd 27ab a73d 13b0 7a3d 0910 013e
000002b0: 0315 be3d ed75 d5bd 8944 203e 6286 1bbe
000002c0: dfb0 553e a034 25be 6821 d7bd 7a9d 57bd
000002d0: af94 80bd 957e 6d3e cbc4 d03d b139 bcbd
000002e0: b2a8 fb3d 0e76 babd 10a6 f2bd 0cf9 eabd
000002f0: df4e 38be e91c e13d 1f6a 373e 2b57 0bbe
00000300: 4c85 5abd 0e24 cebd 4169 96bd 4898 cfbd
00000310: e092 ee3d d815 363e 8fd1 cfbd caf7 c73d
00000320: 75fd 67be 7a7c febd eaae 363e 28ca 2bbe
00000330: b92f 563e 8eec a7bd 4bba 323e 739b 013e
00000340: d903 ec3d c89f 183e 7ad7 5c3e 80ab 333b
00000350: 0ea2 95bd 4a10 1cbe 1519 513e a323 d1bd
00000360: 2216 c3bd b106 c93d 87ef e33d 419e 1abe
00000370: 4c8f 11be 74a2 ff3d 68af 66bd 8902 093e
00000380: 589a d8bd d9c7 493e dd94 94bd 649c 2b3e
00000390: 694e 033e e979 5e3e e366 b0bd a123 92bd
000003a0: 84bf 8dbd bdb5 a0bd cec0 20be 8235 f93d
000003b0: 2900 c0bd 22b6 7ebd a3ca 2b3e 00c1 263e
000003c0: b0b8 c43d 3b40 8dbd eebe 593e e7ad eebd
000003d0: afcf d53d 2433 80bd 540f 64bd c84d e1bd
000003e0: 4f77 e6bd f614 0d3e 0934 09be ec51 72bd
000003f0: f3fe 473e 357a 2c3e fc16 f23d 7921 15be

fc3.bias f4 [4]
-0.08476205 -0.13976507 0.114209384 0.076416336
00000000: ba97 adbd 931e 0fbe 9ce6 e93d 2b80 9c3d
