best_linear_model.pth (torch, 551096 bytes, 8 tensors)

fc1.weight f4 [256, 16]
000000 20 76 66 bd a8 fd 73 3e f2 1e 2a 3e 50 e3 d1 3c
       -0.056264997 0.23827231 0.16613367 0.025621086
000010 f4 84 73 3e 20 63 20 3e 0c 8b 6e be 8c b5 0f 3e
       0.23781186 0.15662813 -0.2329523 0.14034098
000020 42 17 73 3e 48 4f 32 3d 00 56 b0 bd 78 36 5b 3e
       0.23739341 0.04353264 -0.08610153 0.21407497
000030 a4 7a 5e 3e 62 2f 5d 3e f8 e0 28 3d c0 9b 5c be
       0.21726471 0.21600106 0.041230172 -0.21543789
000040 d0 33 33 3d fc 8d 76 be 20 60 14 3d ac e7 ae 3d
       0.043750584 -0.240776 0.036224484 0.08540282
000050 00 43 2f bd f0 f8 ec 3c 90 8d a2 3c 64 24 de 3d
       -0.042788506 0.028927296 0.019842893 0.10846785
000060 ce b2 7e 3e e0 90 79 bc 70 af 8e bd 68 de 5d be
       0.24872896 -0.015232295 -0.06967056 -0.21666873
000070 76 2e 56 3e 82 db 30 3e 30 3f 26 3e 78 5f 38 3e
       0.20916161 0.17271236 0.16235042 0.18005168
000080 c6 9a 7e be e8 fc 07 3e 5e 9c 38 be f0 ce 47 be
       -0.24863729 0.1328007 -0.180284 -0.19512534
000090 7c 08 75 3e 5c d3 0e be e4 67 1c be 34 c9 20 be
       0.23929018 -0.13947815 -0.15274006 -0.15701753
0000a0 20 d3 36 bd dc 10 02 3e cc ec 16 be 20 a3 c2 3d
       -0.04463494 0.12701744 -0.14738768 0.0950377
0000b0 9e 15 17 be b8 2b 6b be 38 bd e0 bd 0c 59 0b 3e
       -0.1475434 -0.22965896 -0.109735906 0.13608187
0000c0 30 f8 93 3d 5c f3 c9 3d 36 0d 4b 3e 20 67 12 be
       0.072250724 0.0986087 0.19829258 -0.14297152
0000d0 74 b8 25 be a0 5f 35 3c f8 8e 2a be 5c 0b 5e be
       -0.16183645 0.011070162 -0.16656101 -0.21684021
0000e0 ba 41 3d 3e 34 ab 8d 3d ee c0 65 3e 98 19 54 3d
       0.18482104 0.0691742 0.22436878 0.05178222
0000f0 bc fa 6d be 14 3c dd bd 00 21 0d bc 1a 7d 2f 3e
       -0.23240179 -0.108024746 -0.008613825 0.17137566
000100 ba 5e 63 be 88 bf 14 be c4 72 68 be 9a 2b 3e 3e
       -0.22204104 -0.14526188 -0.2270003 0.1857132
000110 10 af 39 bd c4 6d 25 be 30 4c 04 3e 24 c9 af bd
       -0.04533297 -0.16155154 0.12919688 -0.085832864
000120 4e 50 51 3e 3c 2e 05 3e ea 1a 18 be d0 3a 37 3d
       0.2044079 0.13005918 -0.14854017 0.044733822
000130 cc 63 a8 3d 82 4a 0a 3e d0 4b 5d be 20 c9 03 be
       0.0822216 0.13504985 -0.21610951 -0.12869692
000140 dc 71 97 bd 3c 4c ad bd 96 30 60 be 70 6d df bc
       -0.07394764 -0.08461806 -0.21893534 -0.027273864
000150 40 a5 6a bd 10 cf 8c bd 6c 8c ec bd 50 fc ec 3c
       -0.0572865 -0.068754315 -0.11550221 0.028928906
000160 2e fa 07 3e 40 f0 3a bd 68 af 92 bd a0 f0 aa bd
       0.1327903 -0.045639277 -0.07162362 -0.08346677
000170 90 00 5c bd 70 81 3a 3e d6 3d 33 3e 34 2b 88 3d
       -0.053711474 0.18213439 0.17504057 0.06648865
000180 26 51 2f be f2 35 1e 3e e0 32 e5 bc 68 2f 34 3e
       -0.171208 0.15450266 -0.02797836 0.17596209
000190 94 63 4b 3e 80 0d 9a bb b4 5f 13 be 00 b0 75 3a
       0.19862205 -0.0047013164 -0.14391977 0.00093722343
0001a0 12 ee 68 3e 02 cb 67 3e 88 f3 0a bd ec e6 40 3e
       0.22747067 0.22636035 -0.033923656 0.1883809
0001b0 b2 19 31 3e da b1 36 3e dc 3c 46 be a0 f6 46 3c
       0.17294958 0.17841282 -0.19359154 0.012143761
0001c0 58 b8 ec 3d 20 00 f0 3d 6e ec 68 3e f4 5c 28 be
       0.11558598 0.11718774 0.22746441 -0.16441709
0001d0 a8 a9 34 3e b0 95 d8 bd ce 76 3a be ee ac 11 3e
       0.17642844 -0.105754256 -0.18209383 0.14226124
0001e0 44 74 08 be a4 ba 2a 3e bc 66 b1 3d 9c f4 65 be
       -0.13325602 0.1667276 0.08662173 -0.22456592
0001f0 64 76 63 3e 70 8e 5c be 12 ad 58 3e 6e 0f 65 be
       0.22213131 -0.2153871 0.21159771 -0.22369167
000200 86 47 6b 3e 7c d3 0e 3e f4 1c 96 3d 54 dc 0e be
       0.22976503 0.13947862 0.07329741 -0.13951236
000210 00 b5 65 3c 88 74 41 3d 30 6a ed bd b0 4d ec bd
       0.014020205 0.047230273 -0.11592519 -0.11538255
000220 be e3 13 3e aa 95 46 be 7c 63 94 3d 7c 2f a9 3d
       0.14442345 -0.1939303 0.07245538 0.0826101
000230 ee 65 33 be a0 4a 1a bc 4e 38 7f 3e 54 50 82 3d
       -0.17519352 -0.009417206 0.24923822 0.063629776
000240 3c 7c 56 be f0 82 56 bd 90 c3 ee 3d 74 ea 64 be
       -0.20945829 -0.052370965 0.11658394 -0.22355062
000250 b0 c1 d3 3d f0 a4 0c 3d 30 49 ee 3d 20 bf 5a 3c
       0.10339677 0.034336984 0.11635053 0.013351232
000260 40 63 07 bc 26 55 42 be d0 b2 e6 3c ac 72 6a be
       -0.008263409 -0.18977794 0.028161436 -0.22895306
000270 de 4b 1a 3e d2 10 49 be e0 cb 6e bc 5a a8 00 3e
       0.15068004 -0.19635323 -0.014574975 0.12564221
000280 16 68 35 be 7c 4a be bd 50 69 41 be 90 84 a5 3c
       -0.17715487 -0.092915505 -0.1888783 0.020204812
000290 cc 4e 7a 3e 72 69 7b be 60 b2 8d bc 94 64 f9 3d
       0.24444121 -0.24551943 -0.01729697 0.12177387
0002a0 54 71 2d 3e c0 4b 74 be e2 c8 36 3e 2c 35 c4 3d
       0.16937762 -0.23857021 0.17850068 0.09580454
0002b0 82 07 4e be b4 0a 2a be e0 6a 73 3c 84 2b 5c 3e
       -0.20120052 -0.16605645 0.014857024 0.21500975
0002c0 b6 5c 47 be 12 1b 5c be 00 68 a1 bd 00 af a4 ba
       -0.1946896 -0.21494702 -0.078811646 -0.0012564361
0002d0 bc 71 9c bd 78 6d 7e 3d bc df fb 3d b0 af 44 3d
       -0.076388806 0.062116116 0.12298533 0.04801911
0002e0 8c 64 85 3d b8 93 64 3d 22 82 2f 3e 18 de 6f bd
       0.065133184 0.055804938 0.17139485 -0.058561414
0002f0 12 a9 4f be b6 12 0a 3e 9a 59 26 be 2c 22 83 bd
       -0.20279339 0.134837 -0.16245118 -0.06403002
000300 1e 83 7d be 40 a2 f1 3b 54 0a be bd b8 3d 91 3d
       -0.24757048 0.007374078 -0.09279314 0.0709185
000310 00 d8 14 3b 84 db a0 bd 40 d2 02 be a8 05 bc bd
       0.0022711754 -0.07854369 -0.12775517 -0.09180766
000320 60 b9 0b bc 4c 2a 22 3e 2c 04 80 3d d8 72 15 3e
       -0.008528084 0.15836447 0.06250796 0.1459459
000330 42 d0 0a be 34 47 de 3d 78 01 02 3d 00 92 90 3a
       -0.13556007 0.10853425 0.031739682 0.001102984
000340 2c 33 a6 3d f0 5a ac 3d 8c 9b c3 bd 42 92 32 3e
       0.08115229 0.084157825 -0.095511526 0.17438605
000350 38 53 59 3e 98 0a 72 3e 88 ba d5 bd fc e8 b6 bd
       0.21223152 0.23636854 -0.10435969 -0.08931157
000360 ca ca 5b be 80 85 04 bb 00 c8 8d b9 52 46 7b be
       -0.21464077 -0.0020221174 -0.00027042627 -0.24538544
000370 5c ac e4 bd 00 09 b5 bd f4 52 3b 3e 4c af a9 bd
       -0.111656874 -0.08839607 0.18293363 -0.08285388
000380 f4 c6 6c be 00 33 98 3a 6a c3 42 be 58 be 56 3e
       -0.2312277 0.0011611879 -0.19019857 0.20971048
000390 1c b8 85 bd dc 78 bd bd 20 86 33 bd f2 bc 44 be
       -0.06529257 -0.09251568 -0.043829083 -0.19212702
0003a0 b0 1e 38 3d 7c dc a7 3d a0 10 1c be 52 2a 23 be
       0.04495114 0.08196351 -0.15240717 -0.15934113
0003b0 66 11 06 3e 88 48 c6 3d 6a 9f 01 be 38 ba e9 bd
       0.13092574 0.09681803 -0.12658468 -0.114124715
0003c0 56 52 5d 3e d8 a5 7b be 44 d1 0e be 36 cb 06 be
       0.2161344 -0.24574983 -0.13947016 -0.13163456
0003d0 80 e0 19 3b 70 42 19 3e 5c 8a cf 3d 40 18 75 bd
       0.002347976 0.1496675 0.10133812 -0.05983758
0003e0 00 e4 b2 ba f8 d1 5b be f6 18 39 be 28 2d ba bd
       -0.0013648272 -0.21466815 -0.18075928 -0.09090644
0003f0 40 d0 ba 3b e4 02 b8 bd ae 87 4d be fc 5e d1 bd
       0.005701095 -0.08984926 -0.20071289 -0.10223195

fc1.bias f4 [256]
000000 88 40 37 bd 38 f9 e2 bd 1e 46 40 3e 3a c6 0a 3e
       -0.044739276 -0.11082691 0.18776748 0.1355218
000010 62 14 2f 3e d6 0f 49 be a0 bd 08 bd a4 d2 b1 3d
       0.17097619 -0.19634947 -0.033383965 0.08682755
000020 a0 97 6f bc 1c 34 45 be 62 ce 49 be 72 fe 33 3e
       -0.014623553 -0.1925816 -0.19707635 0.17577532
000030 20 46 ff 3c b4 40 45 be 60 b6 8d 3c f2 c7 1c 3e
       0.031161368 -0.19262964 0.017298877 0.15310648
000040 12 fc 26 3e ee 14 0c 3e 60 c9 36 3e 42 1d 4a be
       0.16307095 0.13679859 0.17850256 -0.19737723
000050 52 7e 7e be 60 70 51 3c 24 04 5b 3e 88 4e 4b 3e
       -0.24852875 0.01278314 0.21388298 0.19854176
000060 00 8a 2b bc 00 a0 be bb 42 d4 3f be 32 97 6d be
       -0.0104699135 -0.0058174133 -0.18733314 -0.23202208
000070 c8 72 26 3e 72 33 61 be 28 0d 56 be 80 a7 e0 bd
       0.16254723 -0.21992281 -0.20903456 -0.10969448
000080 58 02 10 bd c2 dd 1b be ae 02 60 3e 28 17 6e be
       -0.035158485 -0.15221313 0.21876022 -0.23251021
000090 00 7a 34 3e a4 33 2a be d0 e5 14 bd 76 3c 19 be
       0.17624664 -0.16621262 -0.03635198 -0.1496447
0000a0 e8 a7 0f 3e e8 49 5f be 70 67 8a 3c 10 2a a0 bc
       0.14028895 -0.21805537 0.016895026 -0.019551307
0000b0 fa 74 45 be 52 56 11 be 60 d6 78 be 80 8b 0e bb
       -0.19282904 -0.14193085 -0.24300528 -0.002175063
0000c0 a0 9a f6 3c 60 cd bd 3d 84 72 96 3d 68 a4 0f be
       0.030103028 0.09267688 0.07346061 -0.1402756
0000d0 86 ab 5f 3e 6c 19 22 be 34 cd 7e 3e 1c 79 f7 3d
       0.21842775 -0.1583001 0.24882966 0.12083647
0000e0 7a b7 3b 3e 00 ad 0d 3d dc f5 b2 3d 38 57 c2 bd
       0.1833171 0.034588814 0.087383 -0.09489292
0000f0 74 23 34 be c0 d3 46 bd e2 c0 64 be 58 0a ac 3d
       -0.1759165 -0.048541784 -0.22339204 0.084004104
000100 aa 79 34 3e 56 28 6d 3e 00 bc cb bc 70 b4 67 3d
       0.17624536 0.23159918 -0.024869919 0.056568563
000110 4c 5d 43 3e 38 80 c3 3d 18 c4 dc 3d 98 80 14 3e
       0.19078559 0.0954594 0.107795894 0.1450218
000120 2c 5f eb 3d ae 50 66 3e a0 15 1f bd cc 3f 9b 3d
       0.11492762 0.22491714 -0.038838983 0.07580528
000130 b8 99 cd 3d e4 2d e3 bd 96 62 55 be d8 bc 73 3d
       0.10039085 -0.11092737 -0.20838389 0.059506267
000140 68 9e 62 be fa c5 02 3e 80 ee be 3c 70 5a 34 3e
       -0.2213074 0.12770835 0.023307085 0.17612624
000150 60 8f c2 bd 04 64 4d 3e a0 77 e5 3d 9a 5b 71 3e
       -0.09500003 0.20057684 0.11204457 0.235701
000160 80 aa 40 3b e4 9a 0d be 60 9f 3e 3e 18 76 34 3d
       0.00293985 -0.13828617 0.18615484 0.044057935
000170 b8 1f 6f bd 56 7a 64 3e b4 af 8c bd 20 15 a6 bd
       -0.05837986 0.22312292 -0.0686945 -0.08109498
000180 7a fe 45 be c6 fa 72 be 00 be 40 3d 0c 27 31 be
       -0.19335356 -0.23728475 0.047056198 -0.17300051
000190 98 f7 ef bd 38 3d e4 bd b8 e0 09 bd 60 f6 4d 3c
       -0.11717147 -0.11144489 -0.033661574 0.012570947
0001a0 18 c9 e5 3d fc e4 89 bd b4 46 25 be 80 23 d1 3b
       0.11219996 -0.067331284 -0.16140252 0.0063824058
0001b0 b0 10 65 bd d0 04 cc 3d 54 62 fe 3d 00 09 66 bd
       -0.055924118 0.099618554 0.12421098 -0.056160927
0001c0 5c 33 c5 bd b0 c2 8d 3d a0 ff 01 be b6 c2 37 3e
       -0.09628937 0.06921899 -0.1269517 0.1794537
0001d0 86 f3 15 be a8 1a f1 bd 36 4d 72 be 24 70 1f be
       -0.14643678 -0.117726624 -0.23662266 -0.15570122
0001e0 fc 9b ab 3d 0c de d3 3d c4 4f ef bd 08 d7 4b 3e
       0.08379361 0.103450865 -0.11685136 0.19906247
0001f0 6c a6 62 3e 28 71 2f 3e 00 5c 7e 3c 4a 2d 0d be
       0.22133797 0.1713301 0.015524864 -0.13786808
000200 38 a1 75 bd fc bf 3d be b0 2a 7b 3d 00 48 96 3b
       -0.059968203 -0.18530267 0.061320007 0.00458622
000210 22 30 2f 3e 5a 04 2d 3e b8 1c 6c be 80 ef 07 3c
       0.17108205 0.16896191 -0.2305783 0.008296847
000220 f0 14 24 bd 40 dd 94 3b 18 dd 37 3d 6c 8b 31 be
       -0.04005903 0.0045429766 0.044888586 -0.17338341
000230 e8 f5 ad bd 70 b3 22 bd 8e 6d 13 3e 08 09 7d be
       -0.084941685 -0.039721906 0.1439726 -0.24710476
000240 0e 58 1d 3e 10 1c df bc ce d3 0c 3e 46 34 3e be
       0.15365621 -0.02723506 0.13752672 -0.18574628
000250 5a 45 08 3e 80 d3 04 3d 7a 72 2f be ae 40 23 3e
       0.13307706 0.032428265 -0.17133513 0.15942642
000260 a0 fa b6 bd 24 fb c1 3d 38 46 79 be 18 ff 87 bd
       -0.08934522 0.094717294 -0.24343193 -0.06640452
000270 a8 dd 01 3d 80 f4 76 bc c0 e2 3c bc 6c df 33 be
       0.03170553 -0.015072942 -0.011528671 -0.17565697
000280 30 51 08 3e 0e 9a 26 3e 40 12 0e 3c 9c 42 30 3e
       0.1331222 0.16269705 0.008671343 0.1721291
000290 00 0a c3 bc a0 99 53 bd ee 98 3d 3e 9a 63 75 3e
       -0.02380848 -0.05166018 0.1851537 0.23963776
0002a0 2a dd 73 be f2 2c 0a be f0 58 fd 3d 80 db 1e 3e
       -0.23814836 -0.13493708 0.12370479 0.1551342
0002b0 a4 6a 28 3e 3c 72 10 3e 2a 83 2a be 3a 3f 38 3e
       0.1644693 0.14106077 -0.16651598 0.17992869
0002c0 fc 43 47 be 9c 2e 19 3e 90 e2 25 3d 50 32 09 3d
       -0.19459528 0.14959186 0.04049927 0.033495247
0002d0 3c 62 4a be c8 8f 74 3d 08 45 4f 3d 10 66 72 be
       -0.19764036 0.059707433 0.050602943 -0.23671746
0002e0 e0 30 65 3d c4 90 18 be 72 8e 4e be 2e 32 2f 3e
       0.055954814 -0.14898974 -0.20171526 0.17108986
0002f0 e0 41 9f bc 4c dc 2c 3e e0 c6 38 3c 0c d0 a1 bd
       -0.019440591 0.16880912 0.011277884 -0.0790101
000300 f0 e4 c2 3c b6 9c 7c 3e 90 96 6e be 18 ae 61 bd
       0.023790807 0.24669155 -0.23299623 -0.05509767
000310 ac 78 54 be 1a 54 4e be 54 b8 ea 3d 60 32 eb 3d
       -0.20749158 -0.2014927 0.11460939 0.11484218
000320 e8 53 e7 bd 80 30 6c be b0 a7 b5 bd 28 61 14 bd
       -0.11295301 -0.23065376 -0.088698745 -0.036225468
000330 bc bf a0 bd 80 2b 0e 3c 9c 76 e5 bd fe 74 12 3e
       -0.078490704 0.008677363 -0.112042636 0.14302441
000340 84 48 3f be 74 5f be bd b6 4a 7d be 84 e9 fb bd
       -0.18680006 -0.0929555 -0.24735531 -0.12300399
000350 c8 d5 39 be f0 f7 8a bc 64 77 38 be 8e 88 55 3e
       -0.18147957 -0.016963929 -0.18014294 0.20852873
000360 2c 12 e4 bd ec c4 5f be 24 ca 17 3e 30 f0 83 bc
       -0.111362785 -0.21852463 0.14823204 -0.016105741
000370 20 47 39 3d 84 4e 63 3e 0c 37 27 3e 7a 55 6e 3e
       0.045233846 0.2219792 0.16329592 0.23274794
000380 30 b1 d6 bc e6 83 47 be 60 81 81 3c 66 29 05 be
       -0.026207536 -0.19483909 0.015808761 -0.13004074
000390 00 c2 8b 3a 66 03 19 3e 00 04 ee 3a 18 01 e2 3d
       0.0010662675 0.14942703 0.0018159151 0.11035365
0003a0 aa ab 04 be c0 82 a1 bb 70 95 2a 3d 78 ef e2 bd
       -0.1295611 -0.0049289167 0.04164642 -0.11080831
0003b0 24 12 da bd 80 55 94 bb 48 71 18 3e 42 25 43 be
       -0.10647991 -0.004526794 0.14886963 -0.19057181
0003c0 fe 93 4e 3e b6 4c 42 3e e8 88 33 3d 64 f4 8a bd
       0.20173642 0.18974575 0.043831736 -0.06784895
0003d0 ae a9 42 3e 5e 5c 72 3e 20 f3 dc 3d 2c 72 29 be
       0.1901004 0.23668048 0.1078856 -0.1654746
0003e0 70 91 a8 3c 90 9c f3 bc 10 af f8 3d e0 bd 1f 3e
       0.020577163 -0.02973774 0.121427655 0.15599775
0003f0 90 bc 86 3d 8c fb 16 3e c8 b4 a4 bd 1e 49 7c 3e
       0.06578934 0.14744395 -0.08042294 0.24637267

fc2.weight f4 [256, 256]
000000 9c 09 a0 3c 1a 2f 16 3d e4 c3 cc bc 2c a0 cf bc
       0.019535832 0.036666013 -0.024995752 -0.02534493
000010 a0 72 91 3b c0 8b 11 3b 02 9b 60 3d 3a 7d 65 3d
       0.004438713 0.0022208542 0.054835327 0.05602763
000020 d8 82 68 bd 7a 45 70 3d 34 10 95 bc c0 b5 3b bb
       -0.056765407 0.058660008 -0.018196203 -0.0028642267
000030 a0 db 51 bc f0 7d 88 bc d0 3a 3f bd 38 6f 07 3d
       -0.01280871 -0.016661614 -0.046686947 0.03306505
000040 a0 38 e8 bc 4a 82 77 3d 1a 33 76 3d 64 e6 16 bd
       -0.028347313 0.060426988 0.060107328 -0.03684081
000050 4c 2d 8e bc 28 ce 55 3c 30 43 eb bc 00 5e a0 bc
       -0.017355584 0.01304964 -0.028718561 -0.019576073
000060 b0 a5 9f bb 4a c6 0f bd 68 56 74 bd bc b2 9d bc
       -0.0048720464 -0.035101213 -0.059652716 -0.019250266
000070 74 a6 07 bd e4 5f b2 3c 74 64 66 bd 34 84 d4 bc
       -0.033117726 0.02177424 -0.056248143 -0.025941946
000080 bc cb 60 bd 30 27 8a 3b 40 49 61 bd 38 5a 4a bd
       -0.054881796 0.0042160973 -0.055001497 -0.049402446
000090 ec bd 64 3d c0 3d ad 3c bc e8 4a bd 8e 33 7f 3d
       0.055845186 0.021147609 -0.04953836 0.062305026
0000a0 28 61 7e bd ac 9d ed bc cc 48 d0 3c 70 21 b3 3c
       -0.062104374 -0.029005848 0.025425337 0.02186653
0000b0 f2 97 0a bd 70 f1 e1 bc c8 0b 41 3d 1a c8 1e bd
       -0.033836313 -0.027580947 0.047130376 -0.03876505
0000c0 8e cb 1c bd c8 bb 56 3c 18 93 c0 3c 82 f2 3a 3d
       -0.038280062 0.013106294 0.02350764 0.04564143
0000d0 2c 28 7f bd ac ee 26 3d 20 e9 f8 bb 60 11 28 bd
       -0.06229417 0.04075496 -0.00759615 -0.041032195
0000e0 d6 3c 2d bd 84 63 89 3c 30 97 5c 3d a8 c5 3c 3c
       -0.042294346 0.016771086 0.05385512 0.011521734
0000f0 40 3e a8 3c f0 e6 58 bc 7c 3a 2f bd f8 3a 30 bc
       0.020537496 -0.013238654 -0.042780384 -0.010756247
000100 b8 d7 84 3c b4 89 78 3d ce a0 7e bd 32 5f 63 bd
       0.016216144 0.0606782 -0.062165074 -0.055510707
000110 be 2a 3d 3d 56 76 59 3d e0 e4 8e 3c a4 40 6f 3d
       0.04618334 0.05309137 0.01744312 0.058411255
000120 c4 b0 b2 bc 60 f5 2f 3b 90 d0 bd bc 6a 86 61 3d
       -0.021812804 0.0026849136 -0.02317074 0.055059828
000130 b6 7c 6d bd 90 ed 12 bc 86 3c 7d 3d 10 4a da bc
       -0.05798026 -0.008967772 0.061825298 -0.026646644
000140 a0 0a 98 bc 8c 60 a0 3c f6 7d 11 bd dc 83 af bc
       -0.018559754 0.019577287 -0.035520516 -0.02142518
000150 08 d2 70 3c 68 2e 74 3c 90 8d 3d 3d f4 d3 52 3d
       0.014698513 0.014903642 0.046277583 0.051471666
000160 84 f7 14 3d 00 2e e7 bb 30 d3 33 bd 8e fe 0a 3d
       0.03636886 -0.007055044 -0.043902576 0.03393417
000170 10 9f af bb 94 fe ed bc c6 c3 25 bd d0 bd c1 bb
       -0.005359538 -0.029052056 -0.040469907 -0.00591252
000180 fc 01 52 bd e0 ec af 3b 3c ec 79 3d 1a 12 18 bd
       -0.051271424 0.005368814 0.061016306 -0.037126638
000190 44 3a fa bc b8 8f 58 bd 48 6c 39 bd ba 3a 03 3d
       -0.030545361 -0.052871436 -0.04526928 0.032038428
0001a0 b2 18 67 bd 00 3b 2c bc 7a 9b 3e 3d f0 4a b4 3b
       -0.056420036 -0.010512114 0.046534993 0.0055020973
0001b0 1c ce c9 3c c8 d4 38 3d 50 5c 59 3d 5c 1e 1e 3d
       0.024634413 0.0451248 0.05306655 0.03860317
0001c0 a6 d7 05 3d 00 35 cf 39 a8 08 70 3d 80 7a 2a bc
       0.03267636 0.00039521605 0.058602005 -0.010405183
0001d0 c0 b3 be ba 90 21 5e bc 80 64 0f bd 24 5c 6a bd
       -0.0014549419 -0.013557807 -0.035007954 -0.05721678
0001e0 1e b2 2e 3d 40 f9 4e 3c 80 3c 53 3b 32 44 6b 3d
       0.042650335 0.012632668 0.0032232106 0.057438083
0001f0 36 23 5d 3d 26 cb 02 bd ce 2f 42 3d 88 24 1b bd
       0.053988658 -0.03193202 0.04740887 -0.037876636
000200 1a df 15 3d 60 ab 42 3c b0 0a 31 3d e8 4b 1c 3c
       0.03658972 0.011881679 0.043223083 0.009539582
000210 68 10 24 3d 48 70 34 3c 6c fc ec 3c 46 af 1e bd
       0.04005471 0.011013098 0.028928958 -0.038741373
000220 44 14 13 bd e8 a1 81 3c 14 8c f8 bc f0 7e 9c 3b
       -0.035908 0.015824273 -0.030340232 0.0047758743
000230 da 0c 33 bd 90 ce 79 3c 38 29 cf 3c a6 1e 51 3d
       -0.043713428 0.015247002 0.02528821 0.05105462
000240 dc ea f9 bc 10 39 c1 3c 5e d7 6b 3d 08 8e 6c 3d
       -0.030507497 0.02358678 0.057578437 0.05775264
000250 90 48 c3 3b f2 2d 78 bd e4 d2 ba 3c f8 37 37 3d
       0.005959578 -0.060590692 0.022805639 0.04473111
000260 64 21 b9 3c bc 62 17 bd 28 ce 93 bc 68 4a 02 3c
       0.02259893 -0.036959395 -0.018042639 0.00795231
000270 42 0e 12 bd b6 bf 60 bd 58 ec 89 3c b0 7e 3e 3d
       -0.03565813 -0.05487033 0.01683633 0.046507537
000280 3e 05 14 3d ea 93 73 3d 08 44 a2 3c 68 18 19 bd
       0.03613781 0.059467234 0.01980783 -0.03737679
000290 ee 20 7e 3d 38 fd 33 bc 08 f4 7c 3d a4 8d b6 3c
       0.062043123 -0.010985665 0.061756164 0.022284336
0002a0 22 f8 6f bd 22 a1 66 3d 80 f1 54 bc d6 b5 05 3d
       -0.058586247 0.056306012 -0.012997031 0.032644115
0002b0 d0 c0 00 bd 7e 41 27 3d 8e 26 7e bd 28 48 94 3c
       -0.03143388 0.040833943 -0.062048487 0.018100813
0002c0 80 ac 04 3c 40 d6 67 3c 00 18 03 bd 9c ba bc bc
       0.008097768 0.014150202 -0.03200531 -0.023038201
0002d0 9e 56 71 3d 96 bf 69 bd 00 b8 24 39 84 8d 6c 3d
       0.058920495 -0.057067476 0.00015708804 0.057752147
0002e0 38 b7 20 3c 14 79 51 3d c8 e0 57 bd 60 7a d5 bb
       0.009809308 0.05114086 -0.052704602 -0.0065148324
0002f0 40 51 59 bd 60 70 14 3b b2 b1 43 bd 1a 55 6e 3d
       -0.053056 0.0022649989 -0.047776885 0.058186628
000300 68 dc eb 3c 20 d5 f5 bb f0 22 6e bc c4 fa 4e bd
       0.028791621 -0.007502213 -0.014534697 -0.050532117
000310 4e 92 45 3d d0 ec cb 3b 86 fd 72 3d d6 d0 51 bd
       0.04823523 0.0062232986 0.05932381 -0.051224552
000320 c0 44 4d 3d 40 39 85 ba 30 72 4e bc e2 4f 32 3d
       0.050114393 -0.0010164157 -0.012600467 0.043533213
000330 a8 db 0e 3c 2e cd 0e bd 54 d7 4d 3d 28 ce 5a 3d
       0.008719362 -0.034863643 0.05025418 0.053419262
000340 60 82 df 3b b0 f1 2e bc 42 d4 21 bd 80 c1 cd 3c
       0.006820962 -0.01067774 -0.039509065 0.025116682
000350 22 5e 17 bd ac 0b 42 bd 08 b9 91 3c d8 14 12 3d
       -0.036955006 -0.047374412 0.017788425 0.03566441
000360 50 87 b6 3b 86 2e 58 bd 48 2b 40 bd 94 48 17 bd
       0.0055703297 -0.052778743 -0.046916276 -0.03693445
000370 e0 88 ff bc 44 d7 53 bd ba 80 10 bd f4 2a 8c bc
       -0.031193197 -0.051718965 -0.035279013 -0.017110325
000380 2a 46 4e 3d 90 d7 a0 3c 24 dc 87 bc 70 c0 66 3d
       0.050359882 0.019634038 -0.016584463 0.056335866
000390 58 c7 57 3d 56 f9 51 3d b0 80 9c bb 48 ea 6f 3c
       0.052680343 0.051263176 -0.004776083 0.014643259
0003a0 be ed 2e bd 30 9d af bc dc bf c5 3c 3c 2e 12 bd
       -0.042707197 -0.021437258 0.024139337 -0.035688624
0003b0 38 7f 78 bd d8 d1 46 bd b6 94 1f 3d a2 b9 3b 3d
       -0.0606682 -0.048539966 0.03896018 0.04583133
0003c0 74 06 36 3d 70 8c af bc a0 f9 85 3c 48 8c 50 bd
       0.044439748 -0.02142927 0.016354382 -0.050915033
0003d0 38 69 17 bc 12 57 7d 3d 68 31 47 3d 02 58 32 bd
       -0.009241395 0.061850615 0.0486311 -0.043540962
0003e0 1c 8d 74 3d 2e e3 60 3d 5a e3 68 3d 4c f6 53 3d
       0.059704885 0.054904155 0.056857444 0.05174856
0003f0 66 a8 01 bd 3e ed 13 bd 08 00 b9 bc 72 f1 04 3d
       -0.031654738 -0.036114924 -0.022583023 0.032456823

fc2.bias f4 [256]
000000 a8 08 c8 3c a8 cc 62 bc 6a 13 34 bd e2 b9 5a 3d
       0.02441819 -0.013842739 -0.043963827 0.053399928
000010 2e 66 11 bd 80 14 67 bd 88 ad 0d bd a4 79 0f bd
       -0.035497837 -0.056416035 -0.03458932 -0.035028115
000020 14 23 6e 3d 08 c8 ef bc c4 76 87 bc d8 bc 54 3c
       0.05813892 -0.029270187 -0.016536124 0.012984477
000030 58 7e 5f 3c 60 d8 34 3c 5e 1b 33 bd b8 af c5 bc
       0.013640963 0.011037916 -0.04372727 -0.02413164
000040 80 d8 c4 3c fa 70 15 3d 40 be 57 bb 00 6c dc b9
       0.024029016 0.036484696 -0.0032919794 -0.00042042136
000050 1c c5 b2 3c 7a 63 54 3d a2 e2 31 bd 20 b7 32 bc
       0.021822505 0.05185268 -0.043429025 -0.010907918
000060 a4 0f da bc 12 1f 6c 3d a0 f3 48 3d 00 b1 63 3a
       -0.026618786 0.05764682 0.049060464 0.0008685738
000070 f4 6a 84 bc 48 a4 0b 3d 62 e1 6f bd 1c 09 5c bd
       -0.01616428 0.034092218 -0.05856455 -0.053719625
000080 94 6c 2b bd bc 3a 9c bc b4 ad f5 3c e0 80 82 bb
       -0.041851595 -0.019070975 0.029990055 -0.0039826483
000090 e0 57 17 bc ca 1b 71 3d 8a 8a 22 3d f8 83 c1 3c
       -0.00923726 0.058864392 0.039682902 0.023622498
0000a0 d8 c2 dd bc 8a 5c 18 3d a0 4d 53 3b e8 57 ec bc
       -0.027070448 0.037197627 0.0032242313 -0.02885051
0000b0 74 88 bf bc a4 f4 8c 3c b0 ad d8 bc fc d9 0a bd
       -0.023380496 0.017206497 -0.026450008 -0.033899292
0000c0 4c ca 42 3d 70 f5 6a bd 14 a4 86 3c 40 11 51 bd
       0.047556207 -0.057362974 0.01643566 -0.05104184
0000d0 a0 59 41 3b 94 aa ea 3c cc 0e ba bc 4e 68 7d bd
       0.0029502884 0.028645791 -0.022712134 -0.06186705
0000e0 ca 45 59 3d 68 e2 4b 3d 4a 77 4e bd 38 54 b4 bc
       0.05304507 0.049776465 -0.05040673 -0.022012815
0000f0 c0 fc 9f bc a6 cb 78 bd 40 8c 2d 3d f8 c0 75 bd
       -0.0195297 -0.06074109 0.04237008 -0.059998482
000100 80 cf 31 3b 6a 66 5b bd b6 91 29 3d 60 ff 7d bd
       0.0027131736 -0.053564467 0.041398726 -0.062011123
000110 50 17 af bc 42 62 18 3d c6 db 04 3d a6 bb 2b bd
       -0.021373421 0.03720308 0.032436155 -0.041927002
000120 98 ab 0e 3d 4a 16 76 3d e8 13 74 3c ec 47 50 3d
       0.034831613 0.06007985 0.014897324 0.05084984
000130 2a b7 0d bd 80 5b 73 3a 94 f9 11 bd 94 fd 1a 3d
       -0.034598507 0.0009283349 -0.035638407 0.037839487
000140 50 7e 19 bc 4a 4a 07 3d 38 d0 c6 bc 60 7e 97 bb
       -0.009368494 0.033029832 -0.024269208 -0.0046232194
000150 ec 83 36 3d 64 3c 5e bd 52 32 21 3d e4 f1 3e 3d
       0.044559404 -0.05425681 0.03935463 0.046617404
000160 92 6f 4e bd 08 0f 13 3c fc 9b 2f 3d 18 c8 95 3c
       -0.05039937 0.008975752 0.042873368 0.018283889
000170 b2 ae 1d bd 1c 10 14 3d fc ec 92 bc 04 3e d9 3c
       -0.03849668 0.036148176 -0.017935269 0.02651883
000180 ce f6 1f 3d b0 3a 0e 3c 80 a2 7b 3d 78 95 a4 bc
       0.03905373 0.008680984 0.06143427 -0.020090804
000190 ae 76 41 3d 06 1e 4e 3d a0 99 90 3c 38 17 af bc
       0.047232322 0.0503216 0.01765138 -0.021373376
0001a0 3a 36 5f 3d 08 45 a6 3c f0 68 06 3d 4c 19 26 3d
       0.054495074 0.020296589 0.03281492 0.04055147
0001b0 74 21 ba 3c 28 85 b7 3c 00 99 1a 3c e8 de 8e bc
       0.02272103 0.022402361 0.009435892 -0.017440274
0001c0 12 34 48 bd 40 e3 d0 bc f2 08 3b bd 46 e9 5c 3d
       -0.048877783 -0.025498986 -0.045662828 0.053933404
0001d0 ee 8b 23 3d b8 20 49 bc 84 f7 23 3d 02 06 13 bd
       0.03992837 -0.012275867 0.04003097 -0.0358944
0001e0 fe 75 2e bd 96 c0 05 bd a0 bf 85 3c ec ca 7a 3d
       -0.042592995 -0.032654367 0.016326725 0.061228678
0001f0 b8 cf cf 3c 92 96 79 bd 46 5c 24 3d e6 80 43 3d
       0.025367603 -0.06093461 0.04012706 0.04773035
000200 7e 46 0f bd 46 55 46 bd b4 94 27 bd dc 95 5a bd
       -0.034979336 -0.048421167 -0.0409133 -0.053365573
000210 00 d1 fa 3a 8c 11 80 bc ea ea 42 bd 82 d5 73 3d
       0.0019135773 -0.015633367 -0.047587313 0.05952979
000220 70 79 f2 3c c2 ac 26 3d 00 cd 23 ba 04 0b 75 bd
       0.029598922 0.0406921 -0.0006248504 -0.05982496
000230 6e 3e 57 3d 34 7c 27 3d cc ea 3e bd ca ad 5f 3d
       0.052549772 0.040889934 -0.04661064 0.054609098
000240 ec 78 60 bd 06 87 5d 3d 10 57 b4 bc 0e 6e 58 3d
       -0.05480282 0.054083847 -0.02201417 0.05283933
000250 34 57 f2 bc 38 5d 0e 3c 42 bb 34 3d a2 38 53 3d
       -0.029582597 0.008689217 0.044123895 0.05156768
000260 60 cd 6a bd 9c 80 a3 3c 70 ba b8 bb 58 37 03 bc
       -0.057324767 0.019958787 -0.0056374595 -0.0080088
000270 bc f6 54 3d 80 8b 6e bb 10 2b 4f bc fc 4a 3a bd
       0.051993117 -0.0036399066 -0.012644544 -0.045481667
000280 10 32 a7 3c 18 91 b0 3c 3e c6 2c bd 14 ae f1 bc
       0.020409614 0.021553561 -0.042181246 -0.029501952
000290 70 37 a2 3c 86 a7 22 3d c8 38 4f 3c 86 2c 73 bd
       0.019801825 0.039710544 0.012647815 -0.059368633
0002a0 c0 6f 98 3a e0 49 2c 3b 08 85 4f bc 50 40 bb 3b
       0.0011629984 0.002628915 -0.012665994 0.0057144538
0002b0 60 68 3d bb 96 3e 27 3d 10 88 b9 3c 1c c8 1c 3d
       -0.0028901324 0.04083117 0.022647887 0.038276777
0002c0 e0 95 f1 bc 0e 9e 3c 3d 38 5b 5d 3d 68 eb 22 3c
       -0.029490411 0.04604917 0.05404207 0.009943821
0002d0 74 1a 18 3d b6 d6 25 bd ee d6 08 bd 3c 26 e8 bc
       0.037134603 -0.040487967 -0.033408098 -0.028338544
0002e0 9c 0b 43 3d b4 ed 48 bd 52 23 43 3d 6c c7 e2 3c
       0.047618493 -0.049054816 0.047641106 0.027682982
0002f0 ae ee 33 bd 70 81 2d bd 80 b1 de bb c6 33 2b 3d
       -0.043928795 -0.04235977 -0.006796062 0.041797422
000300 44 b4 4f bd a8 26 bc 3c 4e de 0e 3d 20 7b 50 3c
       -0.050709024 0.022967651 0.034879975 0.012724668
000310 a4 15 f2 3c 7a 5f 40 bd a0 92 75 bb a4 a9 c3 bc
       0.029551335 -0.046966054 -0.0037471429 -0.023884602
000320 40 cf c4 3c b8 48 31 3d 1c 69 9a 3c 78 f5 67 bd
       0.024024606 0.04328224 0.018848948 -0.05663058
000330 50 fc 87 3c 9c d8 ba 3c fc 6b c5 3c 78 72 1f 3c
       0.016599804 0.022808366 0.024099343 0.009731881
000340 a0 98 09 bc ac 0b e5 bc c6 0d 52 bd 82 a6 42 3d
       -0.008398205 -0.027959667 -0.051282667 0.047522075
000350 ba 83 45 3d c0 09 b3 3c 8c 03 08 3d 22 18 03 bd
       0.048221327 0.021855235 0.033206508 -0.032005437
000360 48 25 ef 3c f8 a8 10 3c 24 9e d3 bc d6 9f 58 bd
       0.029192582 0.008829348 -0.025832243 -0.052886806
000370 bc b6 da 3c 30 c1 a2 bb 90 25 b9 3c 80 5c 70 bc
       0.026698463 -0.0049668774 0.022600919 -0.014670491
000380 00 10 81 b7 10 12 ab bc b8 47 71 3d d0 05 89 3b
       -1.5385449e-05 -0.020882636 0.058906287 0.004181601
000390 88 41 72 3c 98 af ac 3c e2 fd 43 bd 96 6c 62 bd
       0.014786132 0.021079823 -0.047849543 -0.055279337
0003a0 90 e7 ca 3b 80 3a de bc 98 d0 e8 3c 9e 81 5e bd
       0.006192155 -0.027127504 0.028419778 -0.05432283
0003b0 c2 bb 31 bd d6 5d 5f 3d 8c e4 6d 3d a0 e2 3a 3c
       -0.04339195 0.05453285 0.058079287 0.011406571
0003c0 a4 d1 93 3c 30 f1 c8 3b f2 aa 54 bd 0c 11 09 bd
       0.0180443 0.0061322674 -0.05192084 -0.033463523
0003d0 b8 0d f5 bc 0e b0 64 3d 48 44 7c 3c 40 24 8a bb
       -0.029913768 0.05583196 0.015397139 -0.004215747
0003e0 08 96 16 bc c8 ac 5f 3d 0e d1 56 bd c0 36 a9 ba
       -0.009191044 0.054608136 -0.052445464 -0.0012909994
0003f0 f0 fa 93 bc d6 68 30 bd a0 e5 4a 3b 26 f0 66 bd
       -0.018063992 -0.04306873 0.003095962 -0.056381367

fc3.weight f4 [256, 256]
000000 18 1c 38 3d 24 d9 05 bd e0 97 2a bb 90 c7 95 3c
       0.044948667 -0.032677785 -0.0026030466 0.018283635
000010 9c bf b4 3c 14 b9 62 bd 26 b4 09 3d ea af 3a 3d
       0.022064023 -0.055352286 0.03361907 0.04557792
000020 60 a8 0e 3d 10 3c 7e 3d e4 d1 73 3d d6 6e 03 bd
       0.034828544 0.062069 0.05952634 -0.032088123
000030 36 b2 18 bd 44 ca 1a bd 76 54 76 3d 3c 05 a0 bc
       -0.03727933 -0.03779055 0.060139142 -0.019533746
000040 4c 5c 65 bd e2 9d 3c 3d 38 ab e0 bc 6e ef 6d bd
       -0.055996224 0.046049006 -0.027425393 -0.058089666
000050 a8 f7 2b 3c 64 ba dd bc aa 35 77 bd 92 6c 66 bd
       0.010496058 -0.027066417 -0.060353912 -0.056255884
000060 c0 82 03 bb f0 e5 df bc 90 e9 24 3d f0 73 09 bd
       -0.0020066947 -0.027331322 0.040261805 -0.033557832
000070 ac ed e1 3c 70 9c bf 3c 9c 06 bd 3c 20 f7 c9 bb
       0.027579151 0.023390025 0.02307444 -0.006163493
000080 84 f0 33 3d 9a 1a 07 bd da 91 00 3d 7c c7 93 bc
       0.043930545 -0.032984354 0.031389095 -0.018039457
000090 8c 25 9e 3c d8 8d 73 3d 08 38 14 bd 42 1b 46 3d
       0.019305013 0.059461445 -0.036186248 0.04836584
0000a0 8c 51 5a 3d 9e 20 7a bd f0 e5 e0 3c 32 87 0e 3d
       0.053300425 -0.061066262 0.027453393 0.0347969
0000b0 dc 3a 86 bc ac 1e cb bc e8 3a e8 bc f0 75 d8 bc
       -0.016385488 -0.024794899 -0.028348401 -0.026423424
0000c0 00 26 6e b9 48 29 b4 bc 86 59 45 3d 4e c3 11 bd
       -0.00022711605 -0.02199234 0.04818108 -0.035586648
0000d0 6c 26 ac bc 72 3a 02 3d 3a 0e 40 bd 28 20 34 bc
       -0.021014415 0.03179402 -0.046888568 -0.010993995
0000e0 20 6d 40 bd 8c ea 16 bd 74 d3 e7 bc 08 3c a0 3c
       -0.04697907 -0.036844775 -0.02829907 0.019559875
0000f0 f8 40 d2 3c 80 be 78 ba de b0 2d bd da e9 12 3d
       0.025665745 -0.0009488836 -0.042405 0.03586755
000100 98 16 c8 bc a8 66 64 bd 80 1e 27 3d 34 36 df bc
       -0.024424836 -0.055761963 0.04080057 -0.027247526
000110 d6 1d 69 bd f8 26 78 bc 16 c9 76 bd c0 f8 56 bb
       -0.05691322 -0.01514601 -0.060250364 -0.0032802075
000120 b0 5a fa bb ac 27 97 3c d6 c7 3d 3d 1c 86 aa 3c
       -0.0076402053 0.018451534 0.046333157 0.020815901
000130 3a de 15 3d 80 44 f2 3c 08 a0 f1 3c 38 cf 00 3d
       0.036588885 0.029573679 0.029495254 0.03144762
000140 38 33 c9 bc a8 19 1d 3d 74 66 d8 bc 0e 6a 37 bd
       -0.024560556 0.038354546 -0.026416041 -0.044778876
000150 5c a0 9d bc 0c c4 a3 bc 96 4f 5b bd a6 da 22 bd
       -0.019241504 -0.019990943 -0.053542696 -0.0397593
000160 12 47 27 bd 04 b4 a7 3c 3e 70 6a bd 38 24 13 3c
       -0.040839262 0.02047158 -0.05723595 0.008980803
000170 cc 1c 0e bd 00 b8 20 3c 38 f7 75 3d a4 16 ff 3c
       -0.03469543 0.009809494 0.06005022 0.031138726
000180 ec f7 f9 3c 92 22 7e bd e0 3b 00 bc 6e 6e 5c bd
       0.030513726 -0.062044688 -0.007826775 -0.05381625
000190 30 fd 0d bc 00 ce 6e 3d 74 18 45 3d 30 4c a1 bb
       -0.008666322 0.058301926 0.048119023 -0.0049224123
0001a0 18 17 0a bc b4 19 fb 3c e0 61 42 3c 70 b0 42 bd
       -0.008428358 0.030651905 0.0118641555 -0.047531545
0001b0 30 97 73 bc 16 0c 68 3d 10 41 36 bd 98 d3 51 3d
       -0.014867589 0.05665215 -0.044495642 0.051227182
0001c0 94 ea ad 3c 9e 78 60 bd 60 69 3d 3b 2c 19 4e bd
       0.02123002 -0.05480253 0.002890192 -0.050316975
0001d0 b0 d1 81 3b 2a 61 0e bd 00 f6 9c 3c a6 3f 27 bd
       0.0039617643 -0.03476063 0.01916027 -0.040832184
0001e0 f0 ea 09 bc 48 b3 38 bd de 01 10 bd e2 65 22 bd
       -0.00841783 -0.04509285 -0.03515803 -0.039647944
0001f0 f6 2f 57 3d c4 c7 d9 bc 1c 82 c1 3c f0 9e 92 3b
       0.052535973 -0.026584513 0.023621611 0.004474513
000200 9e cd 75 3d b0 35 4c 3d cc a6 a7 3c 70 e7 86 3c
       0.060010545 0.049855888 0.020465277 0.01646778
000210 00 0c 3f ba 42 0c 59 3d 26 0a 51 3d 40 05 1f 3d
       -0.000728786 0.052990206 0.05103507 0.038823366
000220 b8 41 39 bc 20 59 26 bd bc 0b 30 bd e0 34 66 bd
       -0.0113071725 -0.04061234 -0.04297994 -0.05620277
000230 a0 09 47 bd 84 0c 0c 3d 8c 4b 7a bd b4 63 00 bd
       -0.048593163 0.034191623 -0.061107203 -0.031345084
000240 80 51 d4 ba 52 d3 6f bd 66 90 27 3d f6 d8 0d 3d
       -0.0016198605 -0.05855114 0.040909193 0.03463074
000250 f8 c6 86 3c fc 66 e2 3c ca 81 02 3d 86 c6 51 3d
       0.016452298 0.027636997 0.031862058 0.051214717
000260 10 d8 e3 bc 0c 26 12 bd fc 5e db bc 20 e4 2c 3d
       -0.027812988 -0.035680816 -0.02677869 0.042209744
000270 b4 64 0d bd 6c 80 f2 bc 80 0b 60 3c b0 a9 f4 bb
       -0.034519866 -0.029602252 0.013674617 -0.0074665174
000280 28 d4 e2 3c 70 b1 cb bc f0 8f af bc e2 57 6d bd
       0.027689055 -0.024864882 -0.02143094 -0.05794514
000290 40 a7 18 3d 98 c4 2b bc f0 1f f8 3b f8 3a 02 bd
       0.037268877 -0.010483883 0.0075721666 -0.03179452
0002a0 0c 77 67 3d fe b5 52 3d a4 6e 12 3d 42 af 54 bd
       0.056510016 0.051443093 0.035750046 -0.05192495
0002b0 92 c2 7f 3d d0 87 07 3d a0 13 29 bb f8 05 c4 bc
       0.062441416 0.033088505 -0.002579905 -0.023928627
0002c0 de bd 6e 3d a4 25 de bc cc 3e 50 3d 60 47 ad 3c
       0.05828654 -0.027117558 0.050841138 0.021152198
0002d0 58 12 38 3c 68 44 29 bd 0c 1a 44 bd 54 f8 ad 3c
       0.011234842 -0.041325003 -0.047876403 0.021236576
0002e0 a4 ec 68 bd 88 83 85 3c 94 c3 87 3c 90 46 f5 bc
       -0.056866303 0.01629807 0.016572751 -0.029940873
0002f0 10 56 99 bc 80 6d a2 ba a0 51 36 bd 94 14 58 3d
       -0.018717796 -0.0012392253 -0.044511437 0.052754
000300 86 cf 74 bd 70 9a 58 3d 80 07 70 bc 90 2d 0a 3d
       -0.059768222 0.052881658 -0.014650226 0.033734858
000310 38 04 65 bc f4 8f b5 bc d4 e3 4a bd be 90 6e 3d
       -0.013978057 -0.022163369 -0.04953368 0.058243506
000320 d4 ac a8 3c 00 1d 47 bd 78 ea 07 bd 60 84 d1 3b
       0.020590223 -0.04861164 -0.03318259 0.006393954
000330 3e d5 13 bd 9a 36 25 bd c8 aa 64 bc dc d8 fd bc
       -0.036092035 -0.040335275 -0.013956733 -0.030987196
000340 4c 04 ba 3c 26 5c 69 3d cc 6c 56 bd 46 5c 21 3d
       0.022707127 0.056972645 -0.05234985 0.03939464
000350 a0 c9 46 3c f0 4e ad bc 2c 8c 0f 3d 06 ce 51 3d
       0.012133032 -0.021155804 0.035045788 0.05122187
000360 f0 00 44 bd ec 6f 56 3d 9c 66 60 3d 40 56 8e ba
       -0.047852457 0.05235283 0.054785356 -0.0010859445
000370 94 5d 7b bd 78 ad 66 bc a2 2a 5d bd d4 e6 f9 3c
       -0.06136854 -0.014079444 -0.053995736 0.030505575
000380 d0 1f 44 3c 60 74 59 bb 78 54 3e 3c e8 7b 8e bc
       0.011970475 -0.0033180937 0.011616819 -0.017393067
000390 98 3b fb bc 7a d3 7f bd 8c 5c 2a 3d c0 bb 2a 3b
       -0.030668065 -0.06245754 0.041592166 0.002605185
0003a0 64 cd 37 bd 2a 45 13 bd fa be 7f bd 8a 1a 5e bd
       -0.04487361 -0.035954632 -0.06243799 -0.05422453
0003b0 dc 93 a9 3c 66 dc 68 bd 0c 4f 0a 3d 76 58 35 bd
       0.020700388 -0.056850813 0.03376679 -0.044273816
0003c0 38 69 18 3d 40 93 33 bc 7c 3c 24 bd 18 64 0b bc
       0.03720972 -0.0109604 -0.040096745 -0.008507751
0003d0 7a 0c 3e 3d 78 5a b6 bc 7c 4c 45 3d 98 9e 6b bd
       0.046398617 -0.022259936 0.048168644 -0.057524294
0003e0 40 57 b1 3c 68 b8 45 bd 6a 2a 10 3d 48 a5 97 bc
       0.02164805 -0.048271567 0.0351967 -0.01851143
0003f0 10 41 ce 3b e8 6a 23 3c 54 70 58 bd f2 22 7b 3d
       0.006294377 0.009974219 -0.0528415 0.061312623

fc3.bias f4 [256]
000000 b8 48 51 3c 7e 66 2c bd 08 33 33 bc 48 a5 de 3c
       0.012773685 -0.04208993 -0.01093746 0.027178422
000010 d4 3f fe 3c 42 80 12 3d 74 91 7a bd b6 18 01 3d
       0.031036295 0.035766847 -0.06117387 0.031517707
000020 4e 38 0d bd e4 79 27 bd 30 62 8b 3c 40 e3 8f bb
       -0.034477524 -0.04088773 0.017014593 -0.004391104
000030 f0 29 51 bd f8 a6 14 3c e4 25 64 3d 90 d7 26 bd
       -0.051065385 0.009073012 0.055700198 -0.04073292
000040 9c 33 27 3d 30 cf ef 3c 00 58 76 bb 78 56 74 bd
       0.040820703 0.0292736 -0.0037589073 -0.059652776
000050 78 96 05 3c 6e 59 12 bd ec df 11 3d 88 1c a4 3c
       0.00815355 -0.035729818 0.03561394 0.020033136
000060 14 fb 7f bd 58 38 10 3c 20 88 85 bc 9c 74 3e bd
       -0.062495306 0.008802496 -0.016300261 -0.046497926
000070 80 e8 88 3c 9e b0 55 bd e8 1d 15 3c 70 39 f4 bb
       0.016712427 -0.05217039 0.0091013685 -0.007453136
000080 b0 77 bb bb 68 f3 ef bc e0 1e 3a bc f0 dc b5 bb
       -0.005721055 -0.02929087 -0.0113599 -0.0055500194
000090 a0 c7 e6 bc a2 f1 21 3d bc 2c 1f bd e0 29 10 3d
       -0.02817136 0.03953708 -0.03886102 0.035196185
0000a0 8e 66 37 bd 40 8f 40 bd 40 cb ec bb 42 14 2e bd
       -0.04477554 -0.047011614 -0.0072263777 -0.042499788
0000b0 44 c2 9d bc 12 d0 39 3d a0 77 7e 3d 70 74 8c bc
       -0.019257672 0.045364447 0.062125802 -0.017145365
0000c0 8c 43 66 bd 00 50 05 3b 60 cb 3b 3b 7c 8e 0b bd
       -0.05621676 0.0020341873 0.0028655156 -0.03407143
0000d0 f8 d0 7e 3c 46 71 74 bd 28 38 f1 bc 60 ba f2 bc
       0.015552752 -0.05967834 -0.029445723 -0.029629886
0000e0 76 9e 4b 3d bc cc f0 bc 24 6d 7b bd 14 3c ca bc
       0.049711667 -0.0293945 -0.06138338 -0.02468685
0000f0 8e da 7d bd 40 c1 dd bb 80 f8 de 3c c0 1a 68 bb
       -0.061976008 -0.006767422 0.027218103 -0.0035416335
000100 a0 fe 01 3b 78 90 23 3d b6 e8 1a bd cc cb 70 3d
       0.0019835606 0.039932698 -0.037819587 0.058788106
000110 00 2f 27 ba 5e 30 1f 3d 8c a9 65 bd 70 8e ea 3c
       -0.0006377548 0.038864486 -0.056069896 0.028632373
000120 70 92 1d bc a8 2c 01 bd 2c e7 f4 3c c8 f7 66 bc
       -0.009617433 -0.03153673 0.029895388 -0.014097162
000130 50 58 2b bc 12 94 37 3d 8c 9b df 3c 58 93 79 3c
       -0.010458067 0.044818945 0.02729585 0.015232883
000140 06 0e 44 bd 40 17 50 3b 42 03 21 bd 52 ba 21 bd
       -0.047864936 0.003175214 -0.039309748 -0.03948433
000150 f8 55 f7 3c 90 b8 e0 bc 40 0d 21 3d 04 7b 2a 3d
       0.03019236 -0.027431756 0.039319277 0.041621223
000160 d4 99 d3 bc 94 f4 f0 bc 24 09 6a bd 3c 53 90 3c
       -0.025830187 -0.029413499 -0.057137623 0.017617814
000170 38 4a 65 3c 84 5d 4d 3d e8 1e 09 3c 14 cc 26 bd
       0.013994746 0.05013801 0.008369185 -0.040721968
000180 7a 51 10 3d f0 00 4a 3d 50 82 f2 bb 08 a8 7b bc
       0.035233952 0.0493173 -0.0074007884 -0.015359886
000190 a2 0a 59 bd 0a f8 20 bd d8 b9 8d bc 20 09 32 bd
       -0.052988656 -0.03929905 -0.017300531 -0.043465734
0001a0 ac 78 ef bc 60 de 7a bb 56 5b 18 bd 30 b2 06 3c
       -0.029232346 -0.0038279518 -0.03719648 0.008221194
0001b0 00 e6 b7 39 d0 e9 50 3c 50 e4 08 bd e8 f9 a0 3c
       0.00035075843 0.012751058 -0.03342086 0.019650415
0001c0 28 7d f4 3c c0 30 10 bd c8 4c c9 3c 7c 3b 1c 3d
       0.029844835 -0.03520274 0.024572745 0.038142666
0001d0 22 17 0b 3d 98 2f 48 bd 9e df 19 bd c0 19 19 3c
       0.033957608 -0.048873514 -0.037566774 0.009344518
0001e0 90 7d c3 bc fa 14 73 bd 02 46 20 3d 20 30 6b bd
       -0.023863584 -0.059346177 0.039129265 -0.057418942
0001f0 1c 41 27 bd 84 99 cf 3c 64 9b ba bc 00 98 e6 3a
       -0.040833578 0.025341757 -0.022779174 0.0017592907
000200 0c ba 49 3d f8 bd 75 bd aa 6f 1e bd 2a db 7c bd
       0.049249694 -0.05999562 -0.03868071 -0.06173245
000210 d8 c1 84 bc b8 ff 10 bc e0 6b ab bc 00 60 40 3d
       -0.016205713 -0.008850031 -0.020925462 0.046966553
000220 88 ba 27 bc 98 3c da bc e8 49 e2 3c 94 a2 3e 3d
       -0.010237344 -0.026640221 0.027623132 0.046541765
000230 88 96 39 bd 26 c5 46 bd b4 d3 dc 3c 0c 62 b0 3c
       -0.045309573 -0.04852786 0.026956417 0.021531127
000240 e4 d3 73 3d 48 b2 3a 3d 40 0a d4 bc 70 e0 f2 3b
       0.059528247 0.04558018 -0.025883794 0.007412009
000250 92 f3 3c 3d a4 ab 7a 3d 78 3d 3d bd a6 90 15 3d
       0.046130724 0.061198846 -0.0462012 0.0365149
000260 66 6b 51 bd 20 ba 8c bb 00 f2 1e 39 58 35 dd 3c
       -0.051127814 -0.0042946488 0.00015158206 0.027002975
000270 dc 63 f3 bc de 90 12 bd 44 31 c3 3c 48 36 25 3d
       -0.029710703 -0.035782687 0.023827203 0.04033497
000280 1a 09 59 3d 04 c4 a1 3c d0 b8 60 3d 8c 02 8c bc
       0.052987196 0.019746788 0.05486375 -0.017091058
000290 d2 12 21 3d ec 8a 90 3c ba 24 71 bd e8 c4 60 bd
       0.03932459 0.017644368 -0.058872916 -0.054875284
0002a0 44 1f 8f 3c 68 a4 78 3d 28 c9 bc 3c 52 48 50 3d
       0.017470963 0.060703665 0.023045138 0.05085022
0002b0 06 22 02 3d 22 df 72 bd 8e dc 08 bd d6 7b 3b bd
       0.03177073 -0.059294827 -0.033413462 -0.045772396
0002c0 fe a0 2b 3d 1a 45 03 bd c0 64 d2 3b 0e 55 4c bd
       0.04190158 -0.032048322 0.0064207017 -0.049885802
0002d0 e6 3d 58 bd 00 98 b0 bb 16 e5 63 3d 3e 87 2a 3d
       -0.052793406 -0.0053892136 0.055638395 0.041632883
0002e0 e6 38 29 3d 0c 51 66 bd a0 f8 ba 3c 7c 2b d1 3c
       0.04131403 -0.056229636 0.022823632 0.02553343
0002f0 0a a2 32 bd 60 c9 b7 bc 60 20 54 3c 5c 9d b2 bc
       -0.043611564 -0.02243489 0.012947172 -0.02180355
000300 cc 2a 23 3d f8 1a 1c 3d c6 af 3e bd 00 1e 40 39
       0.039835736 0.038111657 -0.04655435 0.00018321723
000310 38 01 7e bc b8 65 21 3c 3c 75 76 3d b8 7d eb bc
       -0.01550322 0.009850912 0.060170397 -0.02874647
000320 06 7b 22 3d 50 44 96 bb 80 ba 35 ba a0 fa 75 bc
       0.039668106 -0.00458578 -0.0006932393 -0.015013367
000330 84 0b 9b 3c fe 04 0a 3d 64 26 92 3c a0 08 e4 bc
       0.01892639 0.033696167 0.017840572 -0.027836144
000340 40 ac 18 3c bc db 0e 3d 0c d8 96 bc 3e 47 1b 3d
       0.009318411 0.034877524 -0.018413566 0.03790974
000350 4c 99 c9 3c d0 c6 29 3d 78 b4 5e 3c 9e 99 63 bd
       0.02460923 0.041449368 0.013592832 -0.055566423
000360 62 47 79 3d 46 76 30 bd c0 0d a8 3c ec 66 f0 3c
       0.06085909 -0.043081544 0.020514369 0.029345952
000370 9a 68 7b 3d 92 f3 18 3d 2c ba 1d 3d d0 e2 24 3c
       0.061379053 0.03734166 0.038507625 0.010063842
000380 20 8d 23 bd 9c de f0 bc 80 a1 55 bd 5c d1 17 3d
       -0.03992951 -0.029403023 -0.05215597 0.037064895
000390 82 32 49 3d 34 77 cb bc 48 69 74 3d a0 e1 b0 bc
       0.049120434 -0.024837114 0.059670717 -0.021591961
0003a0 58 4a 94 3c 8c f3 f4 3c 7c ef 0d 3d 60 c5 4c bc
       0.018101856 0.029901288 0.03465222 -0.01249823
0003b0 10 4f 6c bc 9e 39 2e bd b8 30 45 3c 88 57 47 3c
       -0.014423147 -0.042535417 0.012035541 0.012166865
0003c0 40 8a b0 bb 70 9c 61 3c b4 ca ba bc 54 07 67 3d
       -0.0053875744 0.013770208 -0.022801735 0.056403473
0003d0 00 0b 02 ba 58 72 61 3c 88 bf 1b bc 6c 0d 84 bc
       -0.00049607456 0.013760172 -0.009506114 -0.016119681
0003e0 80 9b 96 bb 7c 12 c0 bc f4 d4 1f bd e4 76 2b 3d
       -0.0045961738 -0.023446314 -0.039021447 0.04186143
0003f0 78 a8 7d bc 00 21 52 3b 8a 60 22 3d 20 c0 8f 3b
       -0.015482061 0.0032063127 0.039642848 0.0043869168

fc4.weight f4 [4, 256]
000000 1e 02 4a bd 0a 8b 60 bd a4 a1 83 3c 10 de a8 3c
       -0.049318425 -0.054820098 0.016068287 0.0206137
000010 2a 1d 51 3d 5a 54 65 bd f0 54 5e bc 40 18 c9 3b
       0.051053204 -0.055988647 -0.013570055 0.006136924
000020 48 b6 6e bd 54 9c 84 bc 98 e6 05 3d 34 01 0d bd
       -0.058279306 -0.016187824 0.032690614 -0.034424976
000030 ee bf 7d bd 50 a5 ad bb 30 1c db 3b bc 8a 67 3d
       -0.061950617 -0.005299248 0.00668671 0.05652879
000040 08 07 79 3d c0 38 62 bb f0 0d 01 3d e2 c5 69 3d
       0.06079772 -0.003451869 0.031507432 0.05707348
000050 00 08 00 b8 a0 2a b4 3c 80 38 72 3d 58 c6 37 3d
       -3.052503e-05 0.021992981 0.059135914 0.04486689
000060 4e f0 24 bd a8 87 5e bd ec 6b 5d bd 22 1f 6c 3d
       -0.040268235 -0.05432859 -0.054058 0.057646878
000070 1e 80 5d bd 2a 9e 0d bd 50 70 a4 bc 5c 29 02 3d
       -0.05407726 -0.034574665 -0.020073086 0.031777725
000080 00 a9 1f bd fc 12 b1 bc f0 d0 a4 bb 84 38 7d 3d
       -0.03897953 -0.021615498 -0.00502979 0.061821476
000090 2c dc e7 3c 54 da 44 bd 50 16 b6 bb 0c cb da 3c
       0.028303228 -0.048059776 -0.005556859 0.026708148
0000a0 a0 73 d7 bc 3e 85 2e 3d fe 15 7e bd a8 84 b6 bc
       -0.026300251 0.04260754 -0.062032692 -0.022280052
0000b0 60 2f d8 bc 6c f0 fb bc a8 1a 0f bc 58 82 28 bc
       -0.026389778 -0.03075429 -0.008734383 -0.010284983
0000c0 44 f3 50 bd 8c c9 46 bd 68 e4 1b 3c b0 a0 8e 3b
       -0.051013246 -0.048532054 0.0095149055 0.0043526515
0000d0 36 62 4e 3d 18 25 60 bc 74 79 68 3d 9c 82 40 bd
       0.05038663 -0.013680719 0.05675645 -0.04699956
0000e0 26 6e 33 bd 28 f9 dc bc 80 76 2b 3a 86 85 6b 3d
       -0.043806218 -0.026974276 0.000654079 0.057500385
0000f0 60 68 e0 bc 06 df 3e bd 02 6f 65 bd 5c 12 e3 3c
       -0.02739352 -0.04659941 -0.05601407 0.027718715
000100 84 a6 cf 3c 80 ee eb 3b 48 49 bc 3c 14 f0 5e 3d
       0.025347956 0.0072000623 0.022984162 0.054428175
000110 20 bd 3e 3d dc 13 c9 bc ce ae 20 bd 40 aa e7 bc
       0.046567082 -0.024545603 -0.039229207 -0.028279424
000120 34 23 bb 3c 40 36 df 3c f0 dc 06 3c d8 64 fc bc
       0.022843935 0.027247548 0.008231387 -0.030809805
000130 f8 60 32 bc 18 f1 06 bc b2 d0 7b bd 40 30 dc bc
       -0.010887377 -0.008236192 -0.061478324 -0.026878476
000140 48 3e 2d 3c c0 7d 1f bd 3c fb 52 bd 9a 48 1e 3d
       0.010573931 -0.038938284 -0.051509127 0.038643457
000150 18 05 6e 3c 68 78 00 3c 78 bf 44 bc 0c 33 0b bd
       0.014527582 0.007841207 -0.01200854 -0.03398423
000160 80 30 e0 bc fa 6e 18 3d e4 f3 38 3d 96 06 37 bd
       -0.027366877 0.03721521 0.045154467 -0.044684015
000170 ee 07 54 3d 80 4a 93 bb 12 d9 77 bd d8 32 51 3c
       0.051765375 -0.004494965 -0.06050975 0.01276847
000180 ca c6 31 3d ca 38 18 3d 46 ba 0d bd 26 ef 71 bd
       0.04340247 0.037163533 -0.034601472 -0.05906596
000190 d8 31 77 bc 40 24 fd 3b a6 bd 5c bd 2c 20 77 3d
       -0.015087567 0.0077252686 -0.0538918 0.060333416
0001a0 80 9c 0c bc f8 aa 54 bc 04 30 39 3d e8 8e 4a bc
       -0.008582234 -0.012980215 0.045211807 -0.012363173
0001b0 70 f4 94 bb 70 86 d8 bb 98 11 cc bc e2 ab 77 bd
       -0.004545741 -0.006607823 -0.024910733 -0.060466655
0001c0 78 c6 95 3c f4 6c 26 bd 80 72 1f 3c fc 54 b8 3c
       0.018283114 -0.04063125 0.009731889 0.022501461
0001d0 4c c9 b0 3c c0 7b 0e 3b 40 78 5a 3d fa 22 7a 3d
       0.02158036 0.0021741241 0.053337336 0.061068512
0001e0 de 07 27 bd 80 46 47 3d c0 35 77 3d 80 bc 9b ba
       -0.040778987 0.04865122 0.060353994 -0.0011881739
0001f0 b8 6c 58 bd d8 41 7c bc 60 2f 03 bb a0 93 d8 3b
       -0.052838057 -0.015396558 -0.0020017251 0.006609395
000200 18 b5 f1 bc cc 38 d2 3c 44 5e 79 bd 4c 68 d5 3c
       -0.029505298 0.025661848 -0.060880914 0.02605071
000210 58 42 e0 bc 38 33 cb 3c 06 24 2a bd 40 80 16 bb
       -0.027375385 0.024804696 -0.04153826 -0.0022964627
000220 28 0d 0b bd cc 75 6a 3d ac 1a 4d bd b0 7d 25 3d
       -0.033948094 0.057241246 -0.050074264 0.040403068
000230 82 87 70 3d d8 dc a4 bc f8 a5 39 bc 08 8a b5 3c
       0.05872298 -0.020124838 -0.011331074 0.022160545
000240 a0 15 da 3c e8 06 05 3c 7c e3 0b 3d 18 0a ca 3c
       0.02662164 0.008119322 0.034152493 0.024663016
000250 e0 fd 40 bd 9e 6b 39 3d 00 40 a4 3a 48 78 54 3c
       -0.047117114 0.045268647 0.001253128 0.01296813
000260 d0 71 66 3d 7e f5 04 3d 50 b6 44 3c e0 16 b7 bb
       0.056260884 0.032460682 0.012006357 -0.0055874437
000270 94 52 5c bd e0 e8 ec 3c f4 1d 9d 3c a4 21 59 3d
       -0.05378969 0.028919637 0.019179322 0.053010598
000280 cc 32 0d 3d 9a d8 73 3d f2 68 57 bd 08 7f 1c 3c
       0.03447227 0.05953274 -0.052590318 0.009551771
000290 4c da 49 bd ea d2 36 bd 58 05 64 3c 6c 0a 25 3d
       -0.04928045 -0.044634737 0.01391729 0.040293142
0002a0 80 49 c5 3c 08 21 ac bc 44 f5 61 bd 08 3b 2c 3c
       0.0240829 -0.021011844 -0.055165544 0.010512121
0002b0 ec c8 ef bc fa 35 52 bd e0 19 88 bc 6a b3 4a 3d
       -0.029270612 -0.051321007 -0.0166139 0.04948751
0002c0 2c 1c 17 bd 7c 64 0f bd 78 d1 32 bc 76 bc 08 bd
       -0.0368921 -0.03500794 -0.010914199 -0.033382855
0002d0 2a 4d 4e bd 82 46 4c 3d 90 88 37 bc d4 f6 14 bd
       -0.050366558 0.04987193 -0.011201993 -0.036368206
0002e0 b0 41 df bb 66 3e 62 bd 92 1a 4f 3d d8 46 4b bc
       -0.0068132505 -0.05523529 0.05056245 -0.012407027
0002f0 7a aa 2c bd b4 0f 16 3d e2 34 0d 3d c4 fa 0a bd
       -0.042154767 0.03663607 0.03447426 -0.033930555
000300 ca 59 3f 3d fe c9 1e bd 40 8a 6e bd 4c 9e c9 bc
       0.04671649 -0.038766854 -0.058237314 -0.024611615
000310 70 16 68 3c bc 92 b1 3c 00 8c 1d ba 0a 05 27 3d
       0.014165506 0.021676414 -0.00060099363 0.04077629
000320 e0 e3 5b bb 02 b4 11 3d 94 cd a9 3c ae 16 7f bd
       -0.0033552572 0.03557206 0.02072791 -0.06227749
000330 e0 de 92 bc 20 c3 df 3b 6c c7 61 bd 90 88 66 bc
       -0.01792854 0.0068286806 -0.055121824 -0.014070645
000340 e8 0c d4 bc f6 d9 61 bd 00 f8 75 3b b6 9c 09 bd
       -0.02588506 -0.055139504 0.0037531853 -0.033596717
000350 e0 c3 23 3b a0 a6 22 3b c4 92 7e 3d 44 23 8a bc
       0.0024988577 0.0024818555 0.062151685 -0.01686252
000360 8c c1 36 3d 5c 05 36 3d 3e c6 24 bd 60 a9 8a 3c
       0.044618174 0.044438705 -0.04022812 0.016926467
000370 ca a6 2b 3d 70 f2 36 3d 00 ff d4 ba 52 cc 3a 3d
       0.04190711 0.0446648 -0.0016250312 0.04560501
000380 58 c2 58 3d 8a 43 21 bd 0e a5 68 bd bc 81 50 3d
       0.052919716 -0.03937105 -0.056798033 0.050904974
000390 44 23 6a 3d 28 cc cd bc e4 ab 12 bd 2a 30 59 bd
       0.05716254 -0.025121763 -0.03580846 -0.05302445
0003a0 1a 45 73 3d 48 55 22 bd 2a fd 1e 3d f8 1b d9 bc
       0.059392072 -0.03963211 0.038815655 -0.026502594
0003b0 14 26 e1 3c f0 27 b1 bc 48 cf 0f 3d e0 db b8 3b
       0.027483977 -0.021625489 0.03510979 0.0056414455
0003c0 30 7d 4e 3c 28 30 51 bc 44 35 28 bd 48 3e 69 bd
       0.012603089 -0.012767829 -0.041066423 -0.05694416
0003d0 f4 ea 06 bd 20 56 66 bb a4 e5 16 bd cc b9 00 3d
       -0.032938913 -0.003514655 -0.036840096 0.03142719
0003e0 58 fb 78 3c 08 e8 a8 bc 0e 65 69 3d a0 e4 b4 bb
       0.015196644 -0.020618454 0.05698114 -0.0055204183
0003f0 92 82 45 3d de 66 7b bd a2 8a 02 3d be b7 77 3d
       0.048220225 -0.0613774 0.03187049 0.060477965

fc4.bias f4 [4]
000000 46 1f 41 3d 78 42 e0 3c 7e 3f 58 3d cc ea 6e bd
       0.047148965 0.027375445 0.052794926 -0.05832939
