latest_model_running_avg_loss.pt (torch, 863798 bytes, 18 tensors)

weight f4 [256, 16]
000000 68 46 d6 3c df 67 89 be 61 03 0a be c2 20 2f be
       0.02615662 -0.2683706 -0.13477851 -0.1710234
000010 03 44 ce 3d da f7 d5 bd 91 01 a4 bd e3 0b 86 be
       0.10071566 -0.104476646 -0.08008111 -0.26180944
000020 47 6c 64 bd 56 b7 01 3e f6 ec 4d be 63 38 ea bd
       -0.055767324 0.12667593 -0.20109925 -0.11436536
000030 51 b8 0e 3e 30 1f 9c bb 10 1d 1d bd 89 56 32 3e
       0.13937499 -0.00476446 -0.038357794 0.17415823
000040 0b 7a 28 be 1c f2 09 3c 26 50 df 3d 04 e6 c6 bc
       -0.16452806 0.00841954 0.10903959 -0.024279602
000050 71 f8 24 3e 1a 8e 2e 3c 88 f6 3a 3e 75 0a 70 be
       0.16110398 0.010653997 0.18258107 -0.23441489
000060 68 c1 35 3e 1f 76 42 3e 40 1c bf bd f2 08 b6 3d
       0.1774956 0.18990372 -0.0933156 0.08888425
000070 38 48 87 3c 45 07 7d 3e fe 17 cc bd a9 f0 49 be
       0.016513929 0.24709804 -0.09965514 -0.19720711
000080 b8 69 fe 3c e4 2a 0f 3e a0 16 aa 3d cd 0b 66 be
       0.03105627 0.13981205 0.083050966 -0.22465439
000090 19 d6 e7 3d eb 48 95 be a7 81 78 3e 70 99 80 be
       0.11320133 -0.29157194 0.24268208 -0.25117064
0000a0 54 b7 5f be 24 f3 97 be 60 85 ff bd 57 12 61 be
       -0.21847278 -0.2967769 -0.12476611 -0.21979652
0000b0 6b 31 1c be 0c 70 91 be a9 97 40 3e df d1 a5 3d
       -0.15253226 -0.28405797 0.18807854 0.0809667
0000c0 ff 4e cd 3d d4 7c cc bd db 16 2f 3e ea 97 6b 3e
       0.10024833 -0.099847466 0.17098562 0.2300717
0000d0 d9 51 03 3d aa b9 4f be 6c 35 7e bd 54 6d b4 3b
       0.032060478 -0.20285669 -0.062062666 0.005506197
0000e0 4c 54 bf 3d a8 92 8b 3d cc 00 e0 bd 65 d2 0a be
       0.0934225 0.06815082 -0.10937652 -0.13556822
0000f0 c5 48 02 3d 22 c3 56 bc 07 ac 4e be 07 03 05 bd
       0.03180768 -0.013108047 -0.2018281 -0.03247359
000100 38 02 d9 bd 15 23 85 be fa 30 0f 3d 85 84 04 be
       -0.10596126 -0.26003328 0.034958817 -0.12941177
000110 fb c4 1f be e6 6f 3c bc 60 af 10 3e d0 a9 2a 3e
       -0.15602486 -0.011501288 0.141294 0.16666341
000120 cf 84 77 3d 10 8e 81 bd 2f cc 52 be aa c0 36 3e
       0.06042939 -0.063259244 -0.20585702 0.17846933
000130 1e 76 71 be 42 8f 98 be 28 7e ba 3c e8 7d 7e bd
       -0.23580214 -0.29796797 0.022765234 -0.062131792
000140 0c df fe 3d ce ae 16 bd 7b f2 81 be a8 3e 53 be
       0.124448866 -0.0367878 -0.2538031 -0.2062937
000150 f8 f4 7d 3e a7 62 12 be e6 7a 6b 3d 80 32 4d be
       0.2480048 -0.14295445 0.057490252 -0.20038795
000160 fb 16 3e be 76 e0 2a be 91 0a de bd 1d 1d 3d 3e
       -0.18563454 -0.16687188 -0.10841859 0.18468137
000170 5e 93 37 3e 6c b8 8f bd 90 4c b5 bb e4 a7 58 bc
       0.1792731 -0.070175976 -0.0055328086 -0.013223622
000180 7b 3a db 3d a6 49 18 3e 40 2a f1 ba 7f e4 da bd
       0.10704514 0.14871845 -0.0018399432 -0.106881134
000190 dc d9 77 be 32 5b 85 bd cc 1d b8 3c 39 d3 5d be
       -0.242042 -0.06511535 0.022475146 -0.21662606
0001a0 86 6c 1d be ce 1c 83 be b2 8a 2e 3e 88 aa f4 3b
       -0.1537343 -0.25607914 0.17045096 0.007466618
0001b0 47 81 ec bd 80 36 5f be c5 c7 1f 3e 98 91 07 3d
       -0.11548095 -0.21798134 0.1560355 0.033097833
0001c0 38 76 ee 3c 66 41 92 be 8f 38 05 3e 76 86 a6 bd
       0.029109105 -0.2856552 0.13009857 -0.08131115
0001d0 04 9d 79 be b6 14 1c 3e 34 50 98 bb 67 5e ac bd
       -0.24376303 0.15242276 -0.004648233 -0.08416443
0001e0 00 93 fb 3d 9e 9f 69 be 5c 52 1c be c3 06 90 3e
       0.122838974 -0.22814795 -0.15265793 0.2813016
0001f0 53 2d f5 bc 86 c9 2e 3e 8b 9a ea bd cb 59 ca bd
       -0.029928839 0.17069063 -0.11455258 -0.09880408
000200 40 9f 32 3e 7e de 10 3d 0b a2 1a 3e 60 7e 3e 3d
       0.17443562 0.035368435 0.15100877 0.04650724
000210 03 ec 16 be e3 cb e5 bd 53 4d af 3c f5 ed 29 bd
       -0.14738469 -0.11220529 0.021399176 -0.0414867
000220 35 ad 38 be 3a 64 a8 3d c4 49 a8 3c 8c 08 61 be
       -0.18034823 0.08222242 0.020542987 -0.21975917
000230 22 2e d7 bd 76 b1 1d bd 04 a4 c8 3d 83 3a ca bc
       -0.10506846 -0.038499318 0.097969085 -0.024686104
000240 24 25 43 be ae 91 c4 3d b8 b7 4d be 96 12 04 be
       -0.19057137 0.09598099 -0.20089614 -0.12897715
000250 51 63 47 3e 13 53 07 be 30 7f 0a bd 8d 95 bd bd
       0.1947148 -0.13215284 -0.0338127 -0.0925704
000260 42 d2 1c 3d 86 94 83 3e 21 a5 89 3d 30 ec 2a 3e
       0.038286455 0.25699252 0.06720949 0.16691661
000270 eb 71 21 3e d3 b5 88 be 7e d5 7c 3d 84 36 73 be
       0.15766113 -0.2670122 0.06172704 -0.23751265
000280 a4 5c 2a 3e 87 21 9c bd 2b 9d 1f be 95 8f 70 be
       0.16636902 -0.07623582 -0.15587299 -0.23492272
000290 35 b7 0a bd 70 da 27 3d bf c4 0a be 54 f4 83 be
       -0.033866126 0.040979803 -0.13551615 -0.25772345
0002a0 03 51 4f 3e 8a 1c 0a 3e 50 0a 8c be c4 59 b0 3c
       0.20245747 0.1348745 -0.27351618 0.021527179
0002b0 77 ef a6 3d 02 35 9e bd e8 b7 a1 bd a8 63 83 bd
       0.08151143 -0.07724954 -0.078964055 -0.06415492
0002c0 d9 a7 20 3e 90 2c 6c 3e 10 41 3c 3d 84 3f 83 3e
       0.15689029 0.23063874 0.045960486 0.25634396
0002d0 08 f3 46 3b d9 55 79 3e cf 71 9a 3d 3f 6b d5 3d
       0.003035726 0.24349155 0.075412385 0.10420846
0002e0 ec 01 c8 3b fc 4a b2 3d b6 9b 77 be 70 d3 61 bd
       0.0061037447 0.087057084 -0.24180493 -0.055133283
0002f0 12 68 97 bd a3 1a 0d 3e fa df 11 3d 72 32 46 3e
       -0.07392897 0.13779692 0.03561399 0.19355181
000300 1a 3b dc bd 70 03 e9 bd c6 ef 3a be 6f d6 f9 bd
       -0.1075346 -0.11377609 -0.18255529 -0.12199103
000310 1c f9 3d 3e 04 63 bd 3d b9 04 14 be 16 fb 11 3e
       0.18552059 0.09247401 -0.14454927 0.14255938
000320 03 86 c3 3c 73 2c 11 3e 84 77 34 be 42 8a 29 3e
       0.023867613 0.14177112 -0.17623717 0.16556647
000330 8f 46 fc 3d e5 34 04 be 44 6e cf 3d 13 df 11 3e
       0.123181455 -0.12910803 0.101284534 0.14245252
000340 bf 78 92 3d e1 18 25 be 7c 6f 42 3d 21 83 2c 3e
       0.07151937 -0.16122772 0.0474696 0.16846897
000350 d2 d2 2c be 89 8c 10 3e 6a 40 21 3e 8c 28 61 be
       -0.16877297 0.1411611 0.15747228 -0.21988124
000360 0c 18 cf bd c5 f3 26 3e 5c 4d 6b be 0b a5 0a be
       -0.101120085 0.16303928 -0.22978729 -0.13539521
000370 3a c2 52 bd 3e d3 9a bd f7 73 88 3d 2b 39 a9 3c
       -0.05145476 -0.075598225 0.066627435 0.020657143
000380 85 57 66 bd db dc d7 bd 99 ed 8e bd a5 8b fa bd
       -0.05623581 -0.10540172 -0.06978912 -0.12233666
000390 9c 54 ad 3d d9 1a 52 3e a3 d3 60 3e c9 d5 15 be
       0.084634036 0.20518054 0.21955733 -0.14632334
0003a0 dc 0f b6 bd b6 b2 64 be c6 de 73 3c dc e0 9a bc
       -0.08889744 -0.22333798 0.014884656 -0.01890605
0003b0 9b 30 2f be c1 e7 ad bc 1e 93 2b be a1 5f 61 be
       -0.17108385 -0.021228673 -0.1675534 -0.22009136
0003c0 42 f5 e5 3d 8b 0e f4 bd 35 bc fe 3d cf 5e 8c bd
       0.1122842 -0.11916836 0.124382414 -0.06854021
0003d0 4d 0d c1 bc 66 fd 54 3d 30 73 67 bc 04 c0 13 be
       -0.023565913 0.051999472 -0.014126584 -0.14428717
0003e0 ee 95 24 bd b1 b5 c2 3d e8 97 07 3b 4c 7e 1b 3d
       -0.040182047 0.09507311 0.0020689908 0.037962243
0003f0 38 2c fa 3b 99 eb 4d be d0 d2 0d bd 7c 3f 93 3d
       0.007634666 -0.20109405 -0.034624875 0.07189843

bias f4 [256]
000000 f2 38 80 be bd 01 14 bd 56 ed 98 3d aa 5a 2c bd
       -0.25043446 -0.03613447 0.07467143 -0.04207865
000010 72 e3 c0 3c 8f d7 97 bd 04 d4 b6 3c 65 b1 b8 bd
       0.023545954 -0.074141614 0.022317894 -0.0901821
000020 15 28 91 3c f0 77 68 bb 46 d0 57 bd 6a f0 8c bd
       0.017719308 -0.003547188 -0.05268886 -0.06881793
000030 9c 92 7c 3d 2c ce 52 3e 42 73 3f 3e 72 11 89 bd
       0.061663255 0.20586461 0.18696311 -0.066927806
000040 df c2 fe 3c e6 41 17 be 22 80 f4 3d d7 e6 42 be
       0.031098781 -0.14771232 0.11938502 -0.19033371
000050 c6 13 68 be 99 5f 63 be c0 a9 06 be da ab 2e 3d
       -0.22663793 -0.22204436 -0.13150692 0.04264436
000060 f9 94 78 3e af 27 1b be de 2b 1f 3e c8 96 3c 3e
       0.24275579 -0.15151857 0.15544078 0.18416893
000070 4e 32 e6 bd c7 93 01 be aa ac 40 be 0c 65 5f 3e
       -0.112400636 -0.12654029 -0.18815866 0.2181589
000080 6e ed 11 3e 52 58 cf bd 13 db d0 bd 1e 66 09 3d
       0.14250728 -0.10124268 -0.10198035 0.033544652
000090 a2 98 c6 3c 62 93 32 3d 3f 5a a4 bd b9 2b 64 be
       0.024242703 0.043597586 -0.080250256 -0.22282304
0000a0 cf 3b bf 3c 6a 22 5f be 75 47 82 be 8a d8 dc 3d
       0.023343949 -0.21790472 -0.25445142 0.10783489
0000b0 7b 8c a1 bc 6d 41 dc 3c ed 1f 11 3e f5 3b 75 3e
       -0.019720307 0.026886666 0.14172335 0.23948653
0000c0 bc 30 8f bd 7b d8 fb 3d de 31 df 3c e1 a6 09 be
       -0.06991717 0.1229715 0.027245458 -0.13442566
0000d0 6f ab 17 3e 7c 1a 4e 3e 3a ed 23 3e 05 f2 b8 bc
       0.1481149 0.2012729 0.16008464 -0.022576341
0000e0 88 22 42 be de b1 3b 3e e3 58 ce 3d 45 9f 35 3e
       -0.18958485 0.1832957 0.100755475 0.17736538
0000f0 ec 64 05 3e 5f 4f 0c 3e b9 be 93 3d f0 43 2e 3e
       0.1302678 0.13702153 0.07214112 0.17018104
000100 5e f2 f0 3d b7 43 41 be af 2b 87 be 78 0d e6 bb
       0.11764978 -0.18873487 -0.26400515 -0.0070206486
000110 2a 3a 20 be 00 27 d9 bd 96 16 42 3d 45 ab 99 bd
       -0.15647188 -0.10603142 0.04738482 -0.0750337
000120 02 ee 98 bd be bc 28 3d d6 e3 f6 bc b0 27 16 be
       -0.074672714 0.041195624 -0.030137938 -0.14663577
000130 b8 c7 87 be b0 48 33 be c0 e5 bc 3d 98 0b 9c 3c
       -0.2651956 -0.17508197 0.09223509 0.019048497
000140 c7 48 fd 3d 77 31 61 3d 16 24 5d be 0c d7 5d be
       0.12367397 0.054978814 -0.21595797 -0.21664065
000150 11 3a 39 be 26 37 76 bd a7 63 81 bd 4c e7 90 3c
       -0.18088557 -0.060111187 -0.06317835 0.017688416
000160 4a 80 bb bd 0f b8 14 3e eb 0c 1a 3e eb 9f 7c be
       -0.091553286 0.14523338 0.1504399 -0.24670379
000170 bf 78 ad 3d 74 c5 8d bd 6e 14 9f bd 56 9f 5b bd
       0.08470296 -0.06922427 -0.077675685 -0.05361875
000180 e0 24 71 3c 62 b0 06 be 43 97 72 bd 07 12 90 bc
       0.014718264 -0.13153222 -0.059226286 -0.017586721
000190 a6 7c 76 3e c9 68 b2 3d cc 4d 50 be 20 85 ae bc
       0.24070987 0.087113924 -0.20342177 -0.021303713
0001a0 b9 95 21 3e 6a 03 82 3d 7b dc 1f 3d 45 d0 56 3e
       0.15779771 0.063483074 0.039028626 0.20977886
0001b0 61 13 e5 bd a4 d8 19 be 18 ce 59 be f2 fa 5c be
       -0.11185337 -0.15024048 -0.21270025 -0.21580103
0001c0 b0 67 26 3e fe 03 41 be fe de 25 be 71 24 e1 3d
       0.16250491 -0.18849179 -0.16198346 0.10993279
0001d0 0b db 07 be 62 bd 9a 3d 32 37 0a be a3 39 57 be
       -0.13267152 0.07555653 -0.13497618 -0.2101808
0001e0 a0 3b f0 bd 97 0f 23 be fe 09 ec 3c 18 e7 13 3e
       -0.117301226 -0.15923916 0.028813358 0.14443624
0001f0 c9 16 85 3d fd 4d b1 bd 7c d2 fa 3c f0 67 0a be
       0.064984865 -0.08657453 0.030617945 -0.13516212
000200 92 64 3d 3d 44 8f 40 3d 6c db 63 3e fa d5 30 be
       0.04623849 0.04701163 0.22251672 -0.17269126
000210 5f f1 e6 bd c0 77 6a be 01 ed f9 3d 80 19 8f bd
       -0.11276507 -0.22897243 0.12203408 -0.069872856
000220 34 e9 32 be 2e ec 2a be e9 7f 04 3e 75 9a fc 3d
       -0.17471772 -0.16691658 0.12939419 0.12334148
000230 ab 94 4f 3d 6a de ab bc fd 0c 15 3e b4 35 b3 3d
       0.05067889 -0.020980079 0.14555736 0.087504774
000240 ee 09 5d 3d 9a ea 74 be 59 48 00 3e 8c 8f f7 bb
       0.053964548 -0.23917618 0.12527598 -0.007554954
000250 56 3d 09 3d 04 5f 85 3d 0c 36 80 be c2 a3 72 3e
       0.03350576 0.065122634 -0.25041234 0.23695281
000260 98 2f 8c be ce 85 22 3e 4c d7 09 be d0 36 62 3e
       -0.2738006 0.15871355 -0.13461035 0.22091222
000270 04 bd be bd 10 79 4a 3e 1c 08 72 be 21 57 a0 bc
       -0.093133956 0.19772744 -0.23635906 -0.019572796
000280 d8 da fc 3d 64 ea a4 3b 0a 8a 6e 3c 62 22 4e bc
       0.12346429 0.0050328244 0.014559278 -0.01258144
000290 cc ce 1c 3e 62 05 06 3c 67 c6 c8 3d 48 6b 81 bd
       0.15313262 0.008179994 0.09803467 -0.063192904
0002a0 20 c8 72 be a4 c6 f5 3d 90 d6 15 bb 65 60 20 be
       -0.23709154 0.12000778 -0.0022863485 -0.15661772
0002b0 c1 40 0b 3e 87 3f be bd d1 cb 05 3e f5 9a 3b be
       0.1359892 -0.09289461 0.13066031 -0.1832083
0002c0 7d d5 68 be 86 0b 0a bd 72 cf 39 bd cb b8 a7 3c
       -0.2273769 -0.033702396 -0.04536385 0.020473858
0002d0 7b 1a 9c 3d 8c 7a 7e bd c8 f4 0d be 6b ce 3f be
       0.07622238 -0.06212859 -0.13862908 -0.18731086
0002e0 95 50 db 3d d6 cf 86 3d ca 5d 37 3e cc dc 2f 3e
       0.10708729 0.0658261 0.17906871 0.17174071
0002f0 64 6d 09 3d fc f3 ce bd ce b4 61 3e 9e c3 a1 bd
       0.03355159 -0.1010513 0.22041628 -0.07898639
000300 24 96 26 be 5a 3d 95 bd 0e eb df bd 6e 36 74 3d
       -0.16268212 -0.072870925 -0.10933505 0.05962222
000310 50 a0 94 3c 75 fd ef bd 8e ee b8 bd 8c f6 12 3e
       0.01814285 -0.11718265 -0.09029876 0.14351863
000320 5e c9 30 bd be 24 2e be 13 1b 11 be da dc e9 3c
       -0.04316079 -0.17006204 -0.14170484 0.028547693
000330 f9 63 1c be 62 da 58 3e 08 28 3a 3d 34 7d 6f 3e
       -0.15272512 0.21177056 0.045448333 0.23387605
000340 a6 15 d8 bc 72 15 81 be 37 c6 21 be bd 61 47 be
       -0.02637751 -0.25211674 -0.15798269 -0.19470878
000350 48 5b 97 bd ad ce bb 3c b7 50 a7 bd 51 a6 a2 bd
       -0.073904574 0.0229257 -0.08169692 -0.079418786
000360 40 1e 78 3d f4 32 92 bd e3 6b 4d 3e 5a e6 14 3e
       0.060575724 -0.07138625 0.20060687 0.14540997
000370 82 36 29 be a4 82 45 be f3 6d 68 be 61 7c c1 3d
       -0.165247 -0.19288117 -0.22698192 0.094475515
000380 06 33 c1 3d af 69 08 bd ba b8 09 3e 15 39 de 3d
       0.0943356 -0.033303913 0.13449374 0.10850731
000390 3a 3f d2 3c 66 7c 49 bd 30 c0 6c be 26 96 60 be
       0.025664914 -0.0491909 -0.23120189 -0.21932277
0003a0 0e 59 99 be e3 89 36 3e 56 69 1f be 18 9d ba 3d
       -0.29950756 0.17826037 -0.15567526 0.091119945
0003b0 e8 ad c7 3c c0 05 fd 3d 3e 8a 5b bd 2b a7 5f 3e
       0.024374917 0.12354612 -0.053598635 0.21841113
0003c0 88 31 1c be d6 f1 b9 bd fb 97 37 3e b4 84 e1 3d
       -0.1525327 -0.0907933 0.1792907 0.11011639
0003d0 d2 51 12 3e c9 29 18 3e 31 14 41 3e c4 a6 13 be
       0.14289024 0.1485969 0.18855359 -0.14419085
0003e0 92 ab 64 be ea 38 47 bd 70 29 84 be 85 89 74 3e
       -0.22331074 -0.04863826 -0.25812864 0.23880585
0003f0 16 2c 5c be c6 fe 5a be 24 bf c6 3d 03 c1 9f bd
       -0.21501192 -0.21386251 0.09704426 -0.07800486

weight f4 [256, 256]
000000 e2 68 09 3c 18 20 b1 bd f8 de 8b bc 9f 42 fe bc
       0.008386822 -0.086486995 -0.017074093 -0.031037627
000010 56 72 c8 bd e4 11 25 bc 84 13 be 3c c3 5f 43 bd
       -0.09787433 -0.010075066 0.023202665 -0.047698747
000020 b4 25 8a bd 8f bb 91 bc 22 b5 dc bd 7f 26 e3 bd
       -0.067454726 -0.01778963 -0.10776736 -0.11091327
000030 71 cf cc bd 54 1a 81 bd 18 1b 02 3c f4 32 d8 bd
       -0.10000504 -0.0630385 0.00794103 -0.105565935
000040 86 71 03 3d c0 6a d0 bb b1 11 6a bd 58 68 14 3d
       0.032090686 -0.006360382 -0.057145778 0.036232322
000050 88 83 95 bd 90 37 99 3c 9a d2 83 3d ad b2 a6 bd
       -0.07300478 0.018703252 0.064366534 -0.081395485
000060 c6 c3 02 bd 48 0f 33 bd aa c0 94 bc d4 82 61 bd
       -0.031924985 -0.043715745 -0.018158276 -0.055056408
000070 9a ac 22 3c 58 ef 61 3d 38 ce b3 bb 18 a5 11 3c
       0.009928847 0.055159897 -0.0054872297 0.008889459
000080 4c d3 47 bc aa f9 91 3c 2c a4 1e bd aa 9f c3 bd
       -0.012196373 0.017819244 -0.038730785 -0.09551938
000090 a2 32 76 bd 30 74 5c bd 3f e6 aa bc 0d 57 df 3c
       -0.06010688 -0.053821743 -0.020861743 0.027263189
0000a0 a3 69 f2 3c 88 cc 0b bc cf 7f 1d bd 5a 44 ff bc
       0.029591387 -0.008532651 -0.038451966 -0.031160522
0000b0 37 ca a2 bd e8 7c e0 bd 49 65 a2 bd c9 58 1a bd
       -0.07948726 -0.10961324 -0.07929475 -0.03768233
0000c0 5c d8 d7 3c 94 00 c1 bc 91 bb 30 bd 26 01 42 bd
       0.026348285 -0.023559846 -0.043147627 -0.047364376
0000d0 22 bc 0f bd c4 b0 a8 bc a0 f1 60 bd 4c e1 a6 3d
       -0.035091527 -0.0205921 -0.05491793 0.08148441
0000e0 48 cf 14 bd 07 8c aa 3d 88 37 c7 bb 65 4b d9 bd
       -0.03633049 0.08327489 -0.006079618 -0.106100835
0000f0 c0 5e 1a 3d d6 4b b5 bc 14 20 bb bc 0c d7 18 bd
       0.037688017 -0.022130888 -0.022842444 -0.03731446
000100 f2 1e 0d bc 20 97 0c bd 06 c9 59 bd 70 e4 b2 bd
       -0.008613335 -0.03432381 -0.053170227 -0.08734977
000110 a8 9b d6 3b 58 f2 73 bd c4 a4 1d bc c0 2f 85 ba
       0.0065493174 -0.05955729 -0.009621803 -0.0010161325
000120 b4 65 68 bd d5 aa 29 bd d8 77 1e 3c 5d 28 a9 bd
       -0.056737617 -0.041422684 0.009672128 -0.08259652
000130 f4 69 73 bd 2c 68 82 bd 80 cf 95 ba 40 c2 1a bc
       -0.059427217 -0.063675255 -0.0011429638 -0.009445727
000140 36 f5 16 bd c4 5e a5 bd 55 4a e1 bd b6 51 27 bd
       -0.036854945 -0.08074716 -0.11000506 -0.04084941
000150 28 08 8b bd 46 58 86 bd 08 86 c4 bc 42 a2 c1 bd
       -0.06788665 -0.065598056 -0.023989692 -0.09454776
000160 50 cf bf bd aa db 7b bd 58 8d 6b bb 9c c1 a1 3c
       -0.093657136 -0.061488785 -0.0035942402 0.01974564
000170 60 0b af bd c8 02 56 bc a0 f5 61 bb d8 d2 33 bc
       -0.085470915 -0.013062187 -0.003447868 -0.010975562
000180 fe 5e 76 bd 70 9e 52 bd 7e 71 69 bc e5 77 c9 bd
       -0.060149185 -0.05142063 -0.01424825 -0.09837321
000190 d7 0e e6 bd 22 22 84 bd a4 aa f3 3c c0 b3 41 bb
       -0.11233299 -0.06451823 0.029744454 -0.0029556602
0001a0 e6 84 ba bd ec b9 fb 3b c0 6a 88 bc 0c 8f 17 3c
       -0.091073796 0.0076820757 -0.016652465 0.009250414
0001b0 60 ce 04 3c f2 58 66 bd f8 bb 18 bc 23 60 ba bd
       0.008105844 -0.05623717 -0.009322159 -0.09100368
0001c0 9a 05 e5 bd b8 11 2f 3d c4 ec 5a bd 60 60 53 bb
       -0.11182709 0.042741507 -0.053448454 -0.003225349
0001d0 20 84 e5 bc 22 db b5 bc 40 b3 fc 3a 08 c5 19 bd
       -0.028017104 -0.022199217 0.0019279495 -0.03754142
0001e0 67 75 1d bd 92 71 15 bd 48 2a 47 3c ae 9c 97 bc
       -0.03844204 -0.036485262 0.012156077 -0.018507328
0001f0 e9 d9 74 bd 25 ff a0 bd f0 5e b0 bb 80 20 1e ba
       -0.059778128 -0.07861165 -0.005382411 -0.00060320646
000200 50 00 48 3c 24 e1 00 bd 8e 52 2d 3d 5a 72 39 bd
       0.012207106 -0.03146471 0.04231506 -0.04527507
000210 61 a1 a2 bd 36 df 5b bd 88 4d 03 bd 8c 37 72 bd
       -0.07940937 -0.053679667 -0.03205636 -0.059135005
000220 d0 5e 3b bd 18 7e 91 bd 8b 93 5d bd 0f 6a a6 bc
       -0.045744717 -0.071041286 -0.054095786 -0.020314245
000230 04 5c 8e bd a7 f0 85 3d 52 98 4e bd 2c 3c 7d bd
       -0.06951144 0.065400414 -0.050438233 -0.061824962
000240 ec 24 ba bd 48 88 0d 3d 09 36 f5 3c 0e 2e d2 bd
       -0.090890735 0.034553796 0.029932993 -0.102626905
000250 fd 4d 85 bc 9c e8 e2 bb 8c 1e 18 3c 8c 08 c5 bd
       -0.01627254 -0.006924702 0.009284627 -0.09620771
000260 64 09 79 bd c9 1b dd bd b6 62 72 bd 05 b8 e5 bd
       -0.06079997 -0.10796315 -0.05917617 -0.112167396
000270 e4 05 2c bd ec 6c 61 bd 45 8a 0b bd 0d 5f 93 bd
       -0.041997805 -0.055035517 -0.03406741 -0.07195864
000280 52 dc c2 bd e5 c8 e3 bd 94 11 6e bd 52 9d fe bc
       -0.09514679 -0.11122302 -0.058122233 -0.031080876
000290 aa 09 27 bc 9c 73 59 bd 10 61 be ba c0 6c 64 bc
       -0.010195175 -0.05308877 -0.0014524776 -0.013941944
0002a0 95 84 13 bd 90 6b db 3c fe 9c ae bc 2b 94 64 3d
       -0.036015112 0.026784688 -0.021315094 0.055805366
0002b0 e0 a2 7b bb 6f 31 a8 bd 28 9b 2a bd 43 54 c0 bd
       -0.0038396642 -0.08212554 -0.041651875 -0.09391072
0002c0 ba 3c 10 3c 78 aa 8e bd a9 84 df bc 88 f3 2a bd
       0.008803541 -0.06966108 -0.027284937 -0.041736156
0002d0 3e 5d e4 bd 94 fc b8 3d f6 d8 4e bd 7e 33 c7 bd
       -0.11150597 0.090325505 -0.05049988 -0.09726618
0002e0 e8 33 d0 3c 9b 71 87 bd be a0 e1 bd 08 d8 cc 3b
       0.025415376 -0.066134654 -0.11016987 0.006251339
0002f0 2d 78 80 bc 8e 0d 76 bd f4 b0 cf bd 04 72 99 3b
       -0.015682304 -0.06007152 -0.10141173 0.004682781
000300 17 3c 88 3d 40 57 5e bc ed ea db bd 14 86 22 bd
       0.06652086 -0.013570607 -0.10738168 -0.039678648
000310 38 89 3a 3b 90 0b 94 bd 0e 61 d6 bd 11 a8 81 bd
       0.0028463136 -0.07228768 -0.104677305 -0.06330884
000320 66 c8 9e bd 9b 41 83 bd d6 c1 2d 3d 02 ba 0a bc
       -0.07753067 -0.064089976 0.042421184 -0.008467199
000330 1f e6 f5 bc be 46 a0 bd 08 29 85 3b c2 0e 9f bc
       -0.030016957 -0.07825993 0.004063729 -0.019416217
000340 90 21 85 ba 3f 4a 97 bc 91 63 f9 bc 3d 53 a9 bd
       -0.0010157097 -0.01846802 -0.030442985 -0.082678296
000350 7f 1d a6 bd 8a bd 36 3d 6c 52 d7 3d 06 e6 bb bc
       -0.08111095 0.044614352 0.105137676 -0.022936832
000360 1a ce 0d 3d 18 16 8d bd 92 54 7b bd 32 e4 10 bd
       0.034620382 -0.0688898 -0.06135995 -0.035373874
000370 38 37 c3 bb e7 71 ba bd 20 4a 49 3b 6e 9d a9 bd
       -0.0059575103 -0.091037564 0.0030714348 -0.082819805
000380 c6 8b 7b bd f4 8d d6 3c f8 69 d9 bd 00 e2 73 bb
       -0.061412595 0.026190735 -0.10615915 -0.0037213564
000390 60 f4 5f 3b 72 4f ad bd 36 48 08 bd 72 05 0b bd
       0.0034172758 -0.084624186 -0.03327199 -0.03394074
0003a0 b6 6e a9 bd 4f 2d ca bd 46 a8 59 bc 3b b5 df bd
       -0.082730696 -0.09871923 -0.013284748 -0.10923239
0003b0 65 7f da bc 08 0f 4b bd b8 43 d6 bd a0 82 69 bb
       -0.026672075 -0.04957488 -0.10462135 -0.0035630837
0003c0 74 83 0f bc 98 c6 25 bc 6d d2 c9 3d 46 67 1a bd
       -0.008759368 -0.010118149 0.09854589 -0.037696145
0003d0 dc fc 21 3d d0 59 d3 ba c3 e1 7a 3d 36 3f 15 3d
       0.039547786 -0.0016124789 0.06125046 0.036437236
0003e0 ce 7e 0a 3c 72 e7 25 bd ce b7 04 3d c0 c0 21 bc
       0.008453084 -0.040503927 0.032401852 -0.009872615
0003f0 57 ed 84 bd 34 05 d8 3c 24 40 a7 3d e0 03 48 3b
       -0.064905815 0.026369669 0.08166531 0.0030519888

bias f4 [256]
000000 f2 94 e6 bd 48 e0 24 3c 06 c7 be bc 30 38 a6 3c
       -0.11258878 0.010063238 -0.023288261 0.020290464
000010 58 00 48 bd d9 7a b2 bc 41 b4 10 3d 60 7c 78 ba
       -0.048828453 -0.021787094 0.035328154 -0.00094789825
000020 8b 23 3c bc 80 2e 7f 3a 30 b7 44 bd 02 0b 38 3c
       -0.0114830835 0.0009734407 -0.048026264 0.011233093
000030 d1 bb 3a bd 74 91 52 3d 52 a0 2a 3c b8 4f 94 bc
       -0.045589272 0.051408246 0.0104142 -0.01810442
000040 e6 d1 60 bd 95 10 42 bd ec 88 c3 bb 08 0e 62 bd
       -0.054887675 -0.047379095 -0.00596725 -0.055189162
000050 b3 cf 81 bc e3 9c b6 bd 0a 6e 0c bd b6 ef b9 bd
       -0.015846109 -0.089166425 -0.03428463 -0.09078924
000060 58 1a a9 bd 58 8e d5 bb ca 46 d1 bd 08 7d 0e bb
       -0.08256978 -0.006517213 -0.1021858 -0.0021742005
000070 40 df e6 3b 5e b8 9b bd 3e 97 6b 3d ec 62 87 3d
       0.0070456564 -0.076035246 0.057517283 0.06610665
000080 e4 0a 06 3c 5a 30 c0 bd 71 46 aa bd 82 5d 8f bd
       0.008181307 -0.09384222 -0.08314217 -0.07000257
000090 14 20 8a bb ca de 8f 3c 5d 5f 03 3d 6c b2 a9 3b
       -0.00421525 0.017562289 0.032073367 0.0051787402
0000a0 dc 99 31 bd a8 e3 c6 bd c0 31 20 bb 2c a2 81 bc
       -0.043359622 -0.09711391 -0.0024443716 -0.0158244
0000b0 13 43 f0 bc 00 70 7a bd 10 7e e2 bd 20 b3 78 bb
       -0.029328858 -0.061141968 -0.11059201 -0.0037948564
0000c0 c4 08 85 bb 3e 88 2e bd c1 70 ae bd 71 5a 4a bd
       -0.004059883 -0.0426104 -0.085176 -0.049402658
0000d0 34 7f d0 3c 91 4b b3 bd 7a fb e2 bd b0 ed ba ba
       0.02545128 -0.087546475 -0.110831216 -0.001426151
0000e0 46 46 8c 3d 6d 06 c6 bd f8 b9 3f bb 61 12 6a bd
       0.06849341 -0.09669194 -0.0029255133 -0.057146434
0000f0 f0 3b 21 bc c0 11 08 3d 72 4e 48 bd 0c 52 1a bd
       -0.00984095 0.033220053 -0.048902936 -0.037675902
000100 5e 61 54 bd 8d cd c8 bd bb 72 ed bc b1 89 8a bc
       -0.05185067 -0.09804831 -0.028985372 -0.01691136
000110 f8 fd 97 3c ae 36 7e 3d 94 75 27 bd 92 23 8a bc
       0.018553719 0.062063865 -0.040883616 -0.016862664
000120 a6 97 61 3c aa 75 a5 bc 96 fb fc 3c 88 c9 1b bb
       0.013769066 -0.020197708 0.030881684 -0.0023771245
000130 be d6 d1 bc 68 a8 13 bd 21 2f b6 bd 3c d8 f7 3b
       -0.025615092 -0.036049277 -0.08895708 0.007563619
000140 12 39 d2 3c ee 98 5a bd c8 e7 a4 3b 4a 03 b3 3c
       0.025661979 -0.0533685 0.0050325133 0.021852154
000150 4d 5b be 3c 6c 6a 8a 3d 5e 80 46 bd 60 eb 32 3d
       0.023236895 0.067585796 -0.048462264 0.043681502
000160 86 6d 16 bd 34 d6 2d bd 18 9e 24 3c 80 b5 d4 ba
       -0.036725543 -0.04244061 0.010047458 -0.0016228408
000170 cd 38 de bd dc d9 db bc ae 40 2a bc 02 b9 24 bc
       -0.10850678 -0.026837282 -0.010391397 -0.010053875
000180 96 9a b5 bd 4b ee 80 3d 68 5f 9d bc 1d ff 09 bd
       -0.088673756 0.06295451 -0.019210532 -0.03369056
000190 3e 8a 22 bc 28 3d 03 3b 2a df 2b bd 24 74 f2 bc
       -0.009920655 0.0020025466 -0.041960873 -0.029596396
0001a0 7e 1f 26 3c 90 44 e2 ba 95 9b b1 bc 9c a5 12 bd
       0.010139344 -0.0017262865 -0.021680633 -0.03580247
0001b0 78 69 bb bd 1b 86 b6 3d fa 60 27 bc ad 5c b9 bc
       -0.09150976 0.08912297 -0.010215992 -0.022627199
0001c0 f1 dc df 3c a6 3e 12 bd 16 4b 03 bc 34 11 d1 bb
       0.027327033 -0.035704277 -0.008013507 -0.0063802246
0001d0 18 f3 5a bb 97 b7 20 bd e2 96 2f 3d 98 99 81 bd
       -0.0033409055 -0.039237585 0.042868502 -0.06328124
0001e0 2c a3 c7 bc 44 74 36 3d 64 4f 82 bd c2 a2 57 3d
       -0.024369799 0.044544473 -0.06362799 0.052645452
0001f0 dc d9 13 bd 3b 9f 8d bd 7c dc fb 3b 48 16 fc 3c
       -0.03609644 -0.069151364 0.007686196 0.030772343
000200 f8 61 0b bd 39 fa 47 bd 18 98 08 bc 62 d6 6d 3d
       -0.034028977 -0.048822615 -0.008337043 0.05806578
000210 97 ce f2 bc f4 24 be bd ca 36 3b 3d 3a 95 3e bc
       -0.029639525 -0.09284392 0.045706548 -0.011632258
000220 45 3b d3 bd 36 b2 27 3d 61 17 c8 bd 20 de d3 bb
       -0.10314039 0.04094144 -0.09770084 -0.0064656883
000230 9f c3 82 bc c6 56 49 3d 70 8f ae ba 46 ec bd bd
       -0.01596242 0.04915502 -0.0013317894 -0.09273581
000240 f2 37 8c 3d 69 ea af 3c 03 11 e5 bd ac 04 d5 bd
       0.06846608 0.02147408 -0.11184885 -0.10401282
000250 54 f5 e7 bd d0 e3 84 ba d0 09 56 3d 5a 05 96 3d
       -0.113260895 -0.0010138694 0.05225545 0.073252395
000260 e2 23 8b 3d 7a 15 36 3d 36 bf e5 bc 5d 66 dd bd
       0.067939535 0.044454075 -0.028045278 -0.1081054
000270 c9 35 f1 bc ca 4e 99 3d 1e 68 03 bd 50 5b ff ba
       -0.029444592 0.07485731 -0.032081716 -0.0019482169
000280 00 8d 0a 3b 36 fc 0f bd 78 e1 43 3c 08 e9 98 bb
       0.0021141171 -0.035152636 0.011955611 -0.0046664514
000290 cb fd 9f bd 94 f2 5d 3d a4 26 85 bd b1 02 d7 bd
       -0.07812079 0.05418642 -0.06501511 -0.1049856
0002a0 2b 1d d2 bc 78 94 40 bb cc 32 2b bc a4 14 50 bc
       -0.025648674 -0.002938537 -0.010449123 -0.012700234
0002b0 d8 94 51 3d 22 8c 88 bd 2c 85 65 3d d2 0e 2d 3d
       0.05116734 -0.06667353 0.056035206 0.042250462
0002c0 d3 13 c5 bc 54 f6 c1 bd 10 1d e9 3c f4 16 16 bd
       -0.024057304 -0.094708115 0.02845624 -0.036642984
0002d0 f6 54 5d bd 4c 70 c6 bd 00 4c ca bd 74 d8 28 3d
       -0.054036103 -0.09689388 -0.09877777 0.04122205
0002e0 a3 c6 ec 3c 10 a9 a9 bd 65 5f 96 3c 5b c1 f8 bc
       0.028903311 -0.08284199 0.018356035 -0.030365637
0002f0 00 59 b3 3a e7 da 04 3d 2c db 34 3d 92 e0 fa bc
       0.001368314 0.032435324 0.04415433 -0.030624662
000300 2c e1 7b 3c 34 d7 85 bc bd a8 50 bd 28 ca 29 bd
       0.015373509 -0.016337968 -0.05094217 -0.041452557
000310 80 d2 44 bc cc cc 42 3d a8 24 45 3d 70 d8 9e bd
       -0.012013078 0.04755859 0.04813066 -0.07756126
000320 21 57 55 bd 8e 8c 4e bd 20 6c 7b bd ae e4 5f bc
       -0.052085046 -0.050427012 -0.061382413 -0.013665361
000330 84 20 fb bc 6a 87 58 3c 98 d3 46 bd d5 04 cb bd
       -0.030655153 0.013215879 -0.048541635 -0.09913031
000340 b0 0a d8 bd 4c 2f d7 bc d8 14 d8 3b 86 ab 48 bd
       -0.105489135 -0.02626767 0.0065942816 -0.048991702
000350 24 7e 47 3d df 66 df 3c 08 1a 8d 3d 74 46 ec bd
       0.04870428 0.027270732 0.06889731 -0.11536875
000360 5a 92 f2 bc 34 b5 15 bd 33 7e b8 bd 1e 5a 2e bd
       -0.029610801 -0.036549762 -0.090084456 -0.04256641
000370 a7 1a 54 bd 80 4e 86 bb f4 2d 37 3d a0 95 98 3d
       -0.05178323 -0.0040987134 0.04472156 0.07450414
000380 7b b3 e0 bc 1b 50 a9 bd 80 dc e7 ba 92 86 8d bd
       -0.027429333 -0.08267232 -0.0017689615 -0.06910433
000390 b8 05 23 3c 3d bd 83 3d 88 23 72 bc c4 bf f6 bc
       0.009950094 0.06432579 -0.014778979 -0.030120738
0003a0 2a d9 96 3c 74 60 91 bd 4c 13 c9 bd b1 28 8e bd
       0.018414099 -0.07098475 -0.09818134 -0.06941355
0003b0 66 d5 20 bd 00 2f 31 bd f4 1c 0c bd c9 2f 8b bd
       -0.039266013 -0.043257713 -0.0342073 -0.06796224
0003c0 45 99 4d bd a4 16 a3 bd 9c d3 b7 bb 91 ed 36 bd
       -0.050194997 -0.07963303 -0.0056099426 -0.044660155
0003d0 6a 05 55 bd df 88 fc bc 58 cd 40 bc 8f 03 87 bc
       -0.052007116 -0.030826984 -0.011767708 -0.016481189
0003e0 fc a8 52 bd af 5f 86 bc 79 8f d6 bd c6 15 4f bd
       -0.051430687 -0.016403047 -0.10476584 -0.050557874
0003f0 e6 ec 49 bd 88 9e 37 bb 7e 63 36 bd d2 25 83 3d
       -0.04929819 -0.0028018076 -0.044528477 0.06403698

weight f4 [4, 256]
000000 6a ab a3 3c 72 4e 19 3d 15 48 a5 3c 2a e8 5e 3c
       0.019979198 0.037428327 0.020175973 0.013605157
000010 e4 ae 2e 3d a7 06 d8 3d 5e bc 7a 3d 04 46 76 3d
       0.042647257 0.10548144 0.061214797 0.060125366
000020 c4 43 22 bd 6f 22 80 bc 4e ef 7b 3c 58 04 66 3c
       -0.039615408 -0.01564142 0.015376879 0.014039122
000030 7c 17 0d bd b5 7b 53 3d 52 b6 43 3d e0 d3 e7 ba
       -0.034446225 0.051631648 0.047781296 -0.0017687045
000040 a8 7b 64 3d 66 96 8d 3d 38 fd 36 3c b4 30 3b 3d
       0.05578199 0.06913452 0.0111687705 0.045700744
000050 1e ef 44 3d 0f 96 2f 3d 18 04 85 3d b0 55 01 3d
       0.048079602 0.042867716 0.064949214 0.03157586
000060 1c 04 66 3d 10 ad e1 bb 60 63 e8 ba ac 7b 3e 3d
       0.056156263 -0.0068870857 -0.0017729811 0.04650466
000070 d8 3d 28 bd fa b9 de 3c 80 b1 81 3d a6 79 6e 3d
       -0.041074604 0.02718829 0.063326836 0.05822148
000080 66 cd 0a bd 15 ac c2 3d 62 45 ab 3d 0a ca 15 3c
       -0.03388729 0.09505478 0.08362843 0.009142408
000090 68 8f 67 3d 67 38 e6 3c c0 12 22 3d de 8d 49 bd
       0.056533247 0.028103067 0.039568663 -0.04920756
0000a0 04 3f 15 bc a0 0c 95 3d 62 41 91 bc 4b 64 b4 3c
       -0.009109262 0.07277799 -0.017731372 0.02202048
0000b0 53 74 15 3d 7c ba 28 3c 14 1f 07 3c 4e 2e 46 3d
       0.03648789 0.010298368 0.008247156 0.048384003
0000c0 94 73 36 3d 30 25 7c bd d0 44 67 3c 72 2c 97 3d
       0.044543818 -0.061558902 0.014115527 0.07381524
0000d0 34 ba 53 bc 09 c4 33 3d 70 30 ad 3b 5c 10 36 3d
       -0.012922812 0.043888126 0.005285315 0.044449195
0000e0 f9 60 33 3d 53 10 ff 3c 84 1b d2 3c 32 7e 24 3d
       0.043793652 0.031135714 0.025647886 0.04015941
0000f0 9d dd db 3c bc 70 ff 3c 7e e6 6a 3d 45 0b 2e 3d
       0.026839072 0.031181686 0.05734872 0.042491216
000100 e4 47 2f bc 50 d5 51 3c ec f4 f5 bc 62 10 ce 3c
       -0.010698292 0.012807205 -0.030024014 0.025154296
000110 3c 65 c4 3b 06 80 6b 3d f9 4d 90 3c 48 56 7b bc
       0.0059935134 0.05749514 0.017615305 -0.015340395
000120 04 35 3a bc d8 cc e6 bb 46 35 13 3d 40 d8 43 3d
       -0.011365179 -0.0070434622 0.035939477 0.047813654
000130 56 dd 87 3d 2d a0 22 3d 20 db b0 3d 6e 02 36 3d
       0.06634013 0.039703537 0.08635545 0.04443591
000140 75 ea 26 3d 4a 00 a9 3c 94 82 ec 3b 7c d2 0d bd
       0.04075094 0.02063002 0.0072177146 -0.03462456
000150 a2 2a 9b 3c d8 0a f5 3c 46 58 0b bd f0 3b 88 bb
       0.018941227 0.029912397 -0.03401973 -0.0041575357
000160 18 bb 7b 3d 1c 0d 41 3d a3 bc 13 3d 00 90 5d ba
       0.061457723 0.047131643 0.03606857 -0.00084519386
000170 b0 8e 7b 3d 78 33 39 3d 48 74 58 bb e4 86 8a 3d
       0.061415374 0.0452151 -0.0033028293 0.067640096
000180 16 95 b7 3c 45 dd 9a 3c 90 44 6e bd 23 39 68 3d
       0.022409957 0.018904338 -0.058170855 0.056695115
000190 8c 51 39 3d fd 6c 1b bd cc 21 01 3d 26 eb 11 3c
       0.045243785 -0.037945736 0.03152637 0.008906161
0001a0 b4 28 0d bc a1 25 00 3d 92 0e 90 3c 55 ea c8 3c
       -0.008615661 0.031285886 0.017585073 0.0245258
0001b0 79 f4 c2 3c 65 62 d2 bc a5 61 1e 3d 0e 3e 82 3d
       0.023798214 -0.025681684 0.03866734 0.06359492
0001c0 86 4a 21 bd 40 fb 35 ba bc 1d 38 bc b6 81 32 bd
       -0.03937771 -0.0006942041 -0.011237558 -0.043580733
0001d0 80 d3 dc 3a 0e f7 5a 3d dc 93 b1 3c 6e 7b 0b bc
       0.00168477 0.053458266 0.02167695 -0.008513315
0001e0 c4 04 ba 3b 44 95 50 3d 70 ec 61 3b a0 b3 7d 3d
       0.0056768376 0.0509236 0.0034473203 0.061938882
0001f0 90 0d 4e bb 0a 2e 0b 3d be 70 73 3d c6 c5 2f bd
       -0.003144119 0.033979453 0.05943369 -0.04291322
000200 30 c3 d0 3a 3b 08 08 3d 6e 1b 8e bc fc e7 9e bb
       0.0015927311 0.033210974 -0.017347064 -0.004849432
000210 de 45 32 3c 5a 41 20 bc 00 48 04 bb 2c 9d 0f 3d
       0.010880915 -0.009781206 -0.0020184517 0.035062
000220 98 a9 23 bb f0 01 13 3d 6c ea 01 3d a2 ad 0f bc
       -0.0024972912 0.03589052 0.031717703 -0.008769425
000230 f0 77 28 3c 88 e3 28 3b a3 9c b7 3d c0 1a 46 3a
       0.010282502 0.0025770385 0.08965423 0.00075570866
000240 24 0a 0d bd 2a 37 67 3d f8 1d 31 3b e2 d6 5b bc
       -0.0344335 0.056449093 0.002702592 -0.013417931
000250 68 a6 2e 3d 9c b3 07 3d c3 e0 a5 bd 60 1d 2f 3d
       0.042639166 0.033130273 -0.080995105 0.042752624
000260 30 7b 28 bd 3d 29 b2 bc cf 83 b5 3c e8 87 66 bb
       -0.041133106 -0.02174818 0.022157578 -0.0035176221
000270 f3 bf ea bc 14 ee 79 bd 53 e9 94 3c ac f8 12 3d
       -0.028655982 -0.061018065 0.018177664 0.035881683
000280 20 c2 a0 3b bb 39 d5 3d 20 4c 11 bc 5c c4 84 3d
       0.004905954 0.10411402 -0.008868247 0.06482765
000290 73 1b 16 3d 07 29 63 3d f0 ea ef 3a 74 18 ef 3c
       0.03664727 0.05545905 0.001830427 0.029186465
0002a0 fe ee 1a bd 16 b4 18 3d 68 1e 24 bb 67 0d 32 3d
       -0.037825577 0.03728112 -0.0025042538 0.043469813
0002b0 8b c7 98 3c 32 26 27 bd 82 c8 45 bc bb d0 84 3d
       0.018649837 -0.04080791 -0.012071731 0.06485125
0002c0 8c 6c c4 3c ea 4f 30 3c 34 c8 54 bd 44 d9 cd 3c
       0.02397754 0.0107612405 -0.05194874 0.025128014
0002d0 be 73 b9 3d f7 b5 ee 3c 1c 27 9d 3c 74 31 4e bc
       0.09055279 0.029139502 0.019183688 -0.012585033
0002e0 a6 01 03 bd 79 5a a4 3d 54 8d fe 3b 29 db 06 3d
       -0.031983994 0.08025069 0.0077683125 0.03292385
0002f0 64 98 be 3c 7c 61 36 3d a6 b8 8f 3d 1c 64 52 3d
       0.023266025 0.044526562 0.07017641 0.051365003
000300 b0 37 40 bd 98 de be bb c8 bf ee bb 82 e6 c6 3c
       -0.046928108 -0.005824875 -0.0072860457 0.024279837
000310 86 18 c2 bc 30 21 54 3b 82 82 06 bd e6 de 31 3c
       -0.023693334 0.0032368414 -0.032839306 0.010856366
000320 44 9e 08 bd e4 88 87 3d 85 73 0b 3d 23 32 ca 3c
       -0.03335406 0.06617907 0.034045715 0.02468211
000330 a0 f5 8e 3a 73 3c ba 3c 70 b1 b9 3a 78 40 ad 3c
       0.0010906942 0.022733903 0.001416726 0.021148905
000340 ce f5 ff 3c 14 11 65 3d 7a ed 2a 3d e4 3c c9 3d
       0.031245138 0.05592449 0.04173038 0.09826067
000350 00 0e 18 3b 3e 65 4b bc f0 d6 47 3d d8 3a 37 3d
       0.0023201704 -0.012414275 0.048788965 0.044733852
000360 4b 23 2d bd c2 cb 44 3d 0c c5 92 bb 38 4a b6 3d
       -0.042269986 0.04804588 -0.004479056 0.08900875
000370 94 76 21 3d d7 75 54 bd 84 26 5c 3d 2e 7d 84 bd
       0.039419726 -0.051870193 0.05374767 -0.06469189
000380 af 43 dd 3c 2a 1a 29 3c 2f d2 8d bc 34 e1 fc bc
       0.027009813 0.010321179 -0.017312137 -0.030869104
000390 d4 ca b7 bc f0 65 06 3c 7a 7d 3c bc 80 d0 b2 3b
       -0.022435583 0.008203015 -0.011504525 0.005456984
0003a0 fa 0d 0b 3d 98 b6 15 3b d4 b8 4e 3c 98 18 fd bb
       0.033948876 0.002284443 0.012617309 -0.007723879
0003b0 6a bf 45 3d 20 36 49 ba a5 8a 83 3d 15 78 38 3d
       0.04827825 -0.0007675607 0.06422929 0.045036394
0003c0 28 6e 11 bc 7a 1a d4 3c 97 94 1c bd ef 88 53 3d
       -0.008876361 0.025891531 -0.038227644 0.051644262
0003d0 48 28 28 bd 0a 2e 92 3c 29 bb bd 3c dc 15 84 3d
       -0.04105404 0.017844219 0.023160534 0.06449482
0003e0 c5 ba ae 3d d8 14 10 3d e9 21 87 3d a4 24 d6 3c
       0.08531717 0.03517613 0.06598265 0.026140518
0003f0 38 60 b3 bc 08 a7 1e bd 8e 5b 2d 3d 88 e2 2b bc
       -0.021896467 -0.038733512 0.04232364 -0.010491021

bias f4 [4]
000000 f0 12 2a 3c a0 04 50 3a f8 8e 83 3d ec 16 1e 3d
       0.010380492 0.00079352595 0.064237535 0.03859608

exp_avg f4 [256, 16]
000000 54 b3 f3 41 09 0c c7 42 24 c1 14 43 70 9f 90 41
       30.462563 99.523506 148.75446 18.07785
000010 f9 56 4b 44 c4 49 f6 43 33 4c f5 43 74 d6 1a 42
       813.35895 492.5763 490.5953 38.709427
000020 b9 fe 09 42 53 c0 81 45 9e 70 a0 43 8e 84 b3 42
       34.498753 4152.0405 320.87982 89.758896
000030 46 3a 31 41 47 83 36 42 ee 20 fa 42 ab c4 ad 42
       11.076727 45.6282 125.064316 86.88412
000040 69 0d 3c 42 ad b9 68 44 4a aa 02 44 b2 f6 38 43
       47.013096 930.9012 522.66077 184.96365
000050 64 7d 4c 44 79 05 9e 44 62 95 17 45 68 56 a2 43
       817.9592 1264.171 2425.3364 324.67505
000060 de 38 b5 42 24 17 91 45 2a 2a 0c 44 47 b0 48 43
       90.61107 4642.8926 560.6588 200.68858
000070 3a 3c e2 41 bb b0 a6 42 b1 db a1 43 8a 7b 47 42
       28.279408 83.34518 323.71634 49.870644
000080 bb b1 50 41 6b aa 81 44 c6 0b 63 43 2c 56 8d 42
       13.043391 1037.3256 227.04599 70.668304
000090 5b ea 36 42 20 26 b8 41 91 d3 11 45 5e 3a b1 43
       45.728863 23.018616 2333.223 354.456
0000a0 85 ff 63 41 46 ef d3 42 04 4b c9 42 28 21 0c 43
       14.249883 105.96733 100.646515 140.12952
0000b0 f7 0f 5c 41 67 d6 13 42 f6 b0 4f 43 26 d0 fc 42
       13.753898 36.959377 207.69125 126.40654
0000c0 6b f0 c0 41 0d e3 e2 42 a8 4d d0 43 68 26 fb 42
       24.117392 113.44346 416.6067 125.57501
0000d0 b3 59 01 44 fb 18 b3 43 62 0b 21 44 01 43 94 42
       517.40155 358.19516 644.17786 74.13087
0000e0 27 9d 1e 42 fa b7 3c 45 7d d6 9c 43 cc ec 83 42
       39.65347 3019.4985 313.6757 65.962494
0000f0 9b 81 6d 41 51 83 13 42 38 2f b6 42 4d ef 86 41
       14.844142 36.87824 91.092224 16.866846
000100 1e 51 c9 40 d6 3b 84 41 45 7b 1f 43 63 b7 0e 41
       6.291152 16.529217 159.48152 8.919772
000110 2d c4 a5 41 bd 20 dc 43 a5 41 62 44 29 c3 1a 44
       20.720789 440.25577 905.0257 619.0494
000120 b4 d2 35 3f 94 ba c8 42 f9 ff ef 41 20 87 a3 42
       0.7102463 100.36441 29.999987 81.763916
000130 1b a0 ad 40 fe 6e 23 41 19 b3 6b 42 0c b9 2a 42
       5.425794 10.214598 58.9249 42.68071
000140 16 8d 6c 40 a9 95 31 43 f8 e3 0a 43 92 53 22 41
       3.6961112 177.58461 138.8905 10.145403
000150 c6 c5 be 41 56 ad 77 40 75 a2 71 44 0f 63 3a 43
       23.84657 3.8699546 966.5384 186.38695
000160 a2 35 35 c0 e9 28 cc 40 e2 c4 49 41 42 c2 61 42
       -2.8313985 6.379994 12.610567 56.439705
000170 d8 fb 69 40 c0 bb 40 41 ab fb 36 42 98 be ef 41
       3.6559963 12.045837 45.74577 29.968063
000180 c2 a2 04 42 02 aa d4 43 f1 cf 89 42 3e 81 3b 42
       33.158943 425.3282 68.906136 46.876213
000190 4b 77 67 42 5d ea 73 43 e5 ed 4b 44 39 60 4f 43
       57.866497 243.91548 815.7171 207.37587
0001a0 7f f5 97 41 67 a7 ab 41 8f 42 3a 45 52 2b 2a 42
       18.994871 21.45674 2980.16 42.542305
0001b0 e8 43 3e 41 f5 63 90 41 f5 ec ab c1 08 90 96 3e
       11.891579 18.048807 -21.490702 0.29406762
0001c0 aa c0 1c 40 57 57 ae 40 60 8d bc 42 67 0a d5 3f
       2.4492593 5.4481616 94.27612 1.66438
0001d0 5e 9e 43 41 ff e4 2a c1 27 41 97 c0 53 b0 99 c0
       12.226164 -10.680907 -4.726703 -4.802774
0001e0 bb 00 9e 40 b0 1b 04 42 f1 93 57 42 a2 30 9d c1
       4.937589 33.02704 53.894474 -19.648746
0001f0 a5 02 02 3f de 03 04 3f 70 93 5a c0 54 5f 3f 3e
       0.50785285 0.515684 -3.4152489 0.18688709
000200 db 66 87 42 d7 c3 16 44 a7 1d ac 43 78 b5 e3 42
       67.70089 603.06 344.23166 113.85443
000210 a5 8d 0d 44 b5 93 4d 44 b5 76 d2 44 a1 a4 9d 43
       566.2132 822.3079 1683.7096 315.28616
000220 84 2d e0 42 56 f7 39 45 5f 5f 8c 45 80 32 15 43
       112.0889 2975.4585 4491.9214 149.19727
000230 51 04 c0 41 3a a2 98 42 be 79 33 43 84 b9 48 42
       24.002108 76.31685 179.47556 50.181168
000240 58 b3 b6 42 b0 1d 9b 44 fc e8 00 43 df ce 9f 42
       91.35028 1240.9277 128.9101 79.904045
000250 e1 f8 69 44 0b 66 8d 44 23 0d 5d 44 f2 e1 67 43
       935.88873 1131.1888 884.20526 231.8826
000260 10 9f 08 42 6d 8a 97 45 6e 6e a1 45 ef c5 2e 43
       34.155334 4849.303 5165.8037 174.77318
000270 79 91 f5 41 6a a0 a4 42 97 5b 83 43 1e 3c 30 42
       30.696032 82.31331 262.71555 44.05871
000280 c8 4a 89 41 02 ad 09 43 35 31 49 42 96 2f 2e 41
       17.161514 137.67581 50.298054 10.886618
000290 05 d0 c7 43 4c 8f 0d 44 11 c0 7f 43 d2 2e 07 42
       399.62515 566.239 255.75026 33.795723
0002a0 47 bf 02 42 00 b5 06 45 fa a3 16 43 d8 9c 81 42
       32.686794 2155.3125 150.64053 64.806335
0002b0 80 60 0a 41 6e f2 ce 41 ec e9 8d 42 20 01 41 41
       8.64856 25.868374 70.95688 12.062775
0002c0 68 6a 5e 42 fc 23 94 44 a0 64 d0 43 5c 45 24 43
       55.603912 1185.1245 416.78613 164.27094
0002d0 22 62 74 44 bf ee dc 44 52 0b 16 45 05 77 80 44
       977.5333 1767.4608 2400.7075 1027.7194
0002e0 90 8b a3 42 18 ac a1 45 11 71 09 44 e8 b4 6a 43
       81.77258 5173.5117 549.76666 234.70667
0002f0 2a 1a f9 41 23 3b ac 42 e7 fa a2 43 da c3 d2 42
       31.137775 86.1155 325.96017 105.38252
000300 66 94 48 42 16 80 e7 43 a2 14 0d 43 a6 91 00 42
       50.14492 463.00067 141.0806 32.142235
000310 aa fe 86 44 08 75 e5 44 f0 9e 4b 44 0a a4 6c 44
       1079.9583 1835.6572 814.4834 946.5631
000320 5b ef 72 42 e1 69 b6 45 44 de f2 43 33 90 39 43
       60.733746 5837.235 485.73645 185.56328
000330 13 a7 a6 41 96 01 8f 42 18 a2 76 43 cc 73 91 42
       20.83158 71.5031 246.63318 72.726166
000340 4d 13 64 42 39 fa dd 43 25 43 f1 43 36 3d 58 43
       57.01885 443.95486 482.52457 216.2391
000350 ab c3 8d 44 cb 05 d9 44 f6 97 2f 45 cb c2 cb 43
       1134.1146 1736.181 2809.4976 407.52182
000360 34 5b d1 42 02 98 c5 45 d3 1d 1d 44 b8 1c 7c 43
       104.67813 6323.001 628.466 252.11218
000370 41 37 05 42 ab 1b c0 42 30 46 b7 43 7b 4b 0b 43
       33.30396 96.05404 366.54834 139.29485
000380 30 ff 78 42 f2 aa ee 42 fe f3 3e 43 4a df 24 42
       62.249207 119.33388 190.9531 41.218056
000390 d7 c4 12 43 e6 aa af 44 8e 3d bd 44 cd 3c ca 43
       146.7689 1405.3406 1513.9236 404.475
0003a0 99 69 e1 41 4b 15 a7 42 0f c2 92 45 51 c6 fd 42
       28.176561 83.54159 4696.2573 126.88734
0003b0 73 d3 85 41 56 c7 02 42 b5 a4 a1 42 0c 2a f7 41
       16.728247 32.694664 80.82169 30.89553
0003c0 84 de 0e 42 2a 71 de 42 2a ce 84 43 29 84 2a 42
       35.7173 111.22102 265.61066 42.629063
0003d0 f6 d9 a3 43 06 2d 2b 44 4d 2b 23 44 2e b6 c8 42
       327.70282 684.7035 652.6766 100.35582
0003e0 ba 97 0c 43 6c c9 dd 44 1d 5b 00 45 b8 57 b9 42
       140.59268 1774.2944 2053.6946 92.671326
0003f0 ad 56 92 41 49 dd 27 42 e8 6e e6 42 ea 47 87 42
       18.292322 41.9661 115.21661 67.64046

exp_avg_sq f4 [256, 16]
000000 d7 05 b5 42 5a 5f 76 44 85 6c 09 45 af d9 ff 41
       90.511406 985.48987 2198.7825 31.98129
000010 8e 85 81 47 0b 91 b9 46 fb 40 ba 46 2c 0d 12 43
       66315.11 23752.521 23840.49 146.05145
000020 ea 4c e6 42 c7 5a d1 49 c6 32 1e 46 15 e5 3f 44
       115.15022 1.7150329e+06 10124.693 767.5794
000030 6e 14 33 41 70 5a 4c 43 31 c4 c1 44 bc d2 1f 44
       11.192488 204.35327 1550.131 639.2927
000040 d4 1b 5a 43 83 b6 a6 47 18 f6 cf 46 38 b1 56 45
       218.1087 85357.02 26619.047 3435.0762
000050 36 df 82 47 86 e2 1c 48 d7 f4 0f 49 93 74 25 46
       67006.42 160650.1 589645.44 10589.144
000060 d2 b4 4f 44 19 b2 03 4a 1b 93 f3 46 6c 48 82 45
       830.8253 2.1577022e+06 31177.553 4169.0527
000070 e7 e3 9f 42 cc 0c 33 44 31 18 21 46 42 db 78 43
       79.94512 716.19995 10310.048 248.85648
000080 9e 5a 84 41 f9 a4 d1 47 b9 c6 97 45 b1 c8 f9 43
       16.544247 107337.945 4856.8403 499.5679
000090 58 6a 4b 43 be c4 52 42 aa 02 05 49 8e 3e 44 46
       203.4154 52.69213 544810.6 12559.639
0000a0 6c 72 a1 41 6c 20 89 44 6d 3b 7e 44 30 81 f4 44
       20.18087 1097.0132 1016.9285 1956.0371
0000b0 d1 d1 96 41 24 ee 06 43 bb b3 83 45 80 60 c9 44
       18.85245 134.93024 4214.4663 1611.0156
0000c0 d2 39 67 42 7d 3a a1 44 29 4e 8c 46 52 db d2 44
       57.806465 1289.8278 17959.08 1686.8538
0000d0 a3 75 d2 46 0a d0 48 46 da 70 22 47 d1 c1 fe 43
       26938.818 12852.01 41584.85 509.5142
0000e0 a5 ce 20 43 ba f4 5e 49 ee 29 1d 46 62 93 dc 43
       160.8072 913227.6 10058.482 441.15143
0000f0 e5 d1 b2 41 fd 7a 06 43 bd 30 53 44 97 aa e5 41
       22.352488 134.48042 844.76154 28.708296
000100 da 74 8f 40 1f c4 d6 41 da d8 1b 45 76 ed f8 40
       4.483014 26.845762 2493.5532 7.778987
000110 6e c0 36 42 a7 91 96 46 7d 5f a0 47 3f ce 12 47
       45.68792 19272.826 82110.98 37582.246
000120 84 cd 14 3e 78 a4 70 44 c6 4e 86 42 84 b5 1a 44
       0.14531523 962.5698 67.153854 618.8362
000130 39 78 32 40 29 c5 ed 40 2e 2a ae 43 64 aa 35 43
       2.7885878 7.4303174 348.32953 181.66559
000140 1f 32 95 3f c1 d8 40 45 e7 b0 f0 44 7b b1 22 41
       1.1655921 3085.547 1925.5282 10.16833
000150 8a 5b 76 42 e0 af 8a 3f 76 4d b5 47 cc f5 58 45
       61.589394 1.0834923 92826.92 3471.3623
000160 e9 21 75 3f d0 69 8d 40 c5 bb 58 41 ea e0 89 43
       0.9575487 4.4191666 13.545842 275.75714
000170 20 59 8c 3f 86 d5 2d 41 1b bc 4c 43 57 c2 89 42
       1.0964699 10.86463 204.73479 68.87957
000180 12 03 c7 42 76 18 91 46 ea 9e a4 43 5e 46 5d 43
       99.506 18572.23 329.24152 221.27487
000190 da da a6 43 81 03 ba 45 37 b3 83 47 96 71 85 45
       333.70978 5952.438 67430.43 4270.198
0001a0 3d 02 10 42 e7 7b 28 42 5e f6 58 49 65 2b 3f 43
       36.002186 42.121 888677.9 191.16951
0001b0 42 00 69 41 80 ab 01 42 89 aa 49 42 f5 85 b3 3f
       14.562563 32.41748 50.41654 1.4025255
0001c0 d3 5e 21 3f 76 e5 31 40 ff 5d 54 44 57 51 87 3e
       0.63035315 2.7796302 849.4687 0.26429245
0001d0 38 b4 5d 41 8d e7 9a 41 d6 a1 2a 40 c0 2a 25 40
       13.856499 19.363062 2.6661277 2.5807343
0001e0 28 52 24 40 00 de c3 42 33 58 8f 43 74 8b d6 41
       2.5675144 97.93359 286.68906 26.818092
0001f0 3b 39 38 3d 0f c2 6b 3f 44 78 b3 3f af 0a 67 3b
       0.044976454 0.92092985 1.4021077 0.003525417
000200 05 3f ec 43 c8 3a 10 47 05 da 4e 46 94 97 97 44
       472.49234 36922.78 13238.505 1212.7368
000210 19 b2 fa 46 31 5b 84 47 79 20 8a 48 8a 6b 19 46
       32089.049 67766.38 282883.78 9818.885
000220 05 15 9d 44 64 a2 58 49 5c db f6 49 f0 22 0b 45
       1256.6569 887334.25 2.0222515e+06 2226.1836
000230 b7 e0 69 42 cb ee 13 44 96 1e 4f 45 fd 29 7d 43
       58.469448 591.73114 3313.9116 253.16402
000240 64 9b 50 44 bb de 17 48 47 fd cf 44 84 d2 1d 44
       834.428 155514.92 1663.9149 631.2893
000250 5b be aa 47 d3 1a fa 47 67 f8 98 47 ff d1 a9 45
       87420.71 128053.65 78320.805 5434.2495
000260 7a 76 ec 42 38 b3 0f 4a 85 f9 22 4a ae d8 3b 45
       118.2314 2.354382e+06 2.6701772e+06 3005.5425
000270 08 a9 bc 42 6c f3 26 44 cb f3 d7 45 fc f8 42 43
       94.33014 667.80347 6910.474 194.9726
000280 4a 06 ea 41 8e 61 eb 44 3b b1 7a 43 f0 df 3a 41
       29.25307 1883.0486 250.6923 11.679672
000290 f5 3c 78 46 52 0b f8 46 9b 2d ca 45 62 df e0 42
       15887.239 31749.66 6469.7007 112.436295
0002a0 a2 8b e5 42 38 ac e1 48 be 4f 0b 45 03 5f ae 43
       114.77272 462177.75 2228.984 348.74228
0002b0 6c 76 e2 40 31 19 5d 42 67 3d f7 43 a3 ed 60 41
       7.076956 55.2746 494.4797 14.058017
0002c0 04 ca 9c 43 73 f0 0a 48 05 0b 86 46 24 ed 2e 45
       313.57825 142273.8 17157.51 2798.8213
0002d0 19 6b ba 47 ca 50 99 48 56 c5 0d 49 a2 82 d1 47
       95446.195 313990.3 580693.4 107269.266
0002e0 03 ed 20 44 af 08 24 4a a2 fe f0 46 e1 32 ad 45
       643.7033 2.6875318e+06 30847.316 5542.36
0002f0 10 64 c4 42 b4 a6 3d 44 bd 6f 27 46 dc a6 8f 44
       98.195435 758.60474 10715.935 1149.2144
000300 41 15 7c 43 46 86 a7 46 ad 12 f9 44 6d 39 c1 42
       252.08302 21443.137 1992.5836 96.61216
000310 37 74 e3 47 ca 1b a4 48 7a d8 81 47 59 a0 af 47
       116456.43 336094.3 66480.95 89920.695
000320 05 49 a7 43 26 45 50 4a 76 26 b8 46 9b d9 4b 45
       334.57047 3.4122975e+06 23571.23 3261.6003
000330 65 3d 2c 42 26 96 eb 43 4a 40 be 45 52 6d 11 44
       43.059956 471.17303 6088.036 581.7081
000340 a9 dd a9 43 5f 02 98 46 f4 52 bc 46 c2 7d 90 45
       339.73172 19457.186 24105.477 4623.7197
000350 1d 15 fc 47 b3 eb 93 48 0d 13 40 49 57 d0 81 46
       129066.23 302941.6 786736.8 16616.17
000360 0c 6b 89 44 a3 f2 73 4a 28 08 1a 47 18 57 c6 45
       1099.3452 3.9968408e+06 39432.156 6346.8867
000370 19 bb df 42 91 2f 68 44 65 86 51 46 13 ee f2 44
       111.865425 928.7432 13409.599 1943.4398
000380 4b 03 c2 43 71 ff b1 44 ec 26 64 45 02 2a 2a 43
       388.02573 1423.9825 3650.4326 170.1641
000390 7d df 06 45 a8 32 41 48 a6 dd 60 48 1b e2 7f 46
       2157.968 197834.62 230262.6 16376.526
0003a0 7d b6 96 42 f9 6e 2d 44 a6 a2 06 4a 4c c5 c9 44
       75.35642 693.73395 2.2058655e+06 1614.1655
0003b0 90 f9 e0 41 d3 1b d5 42 14 4b 24 44 28 6e bf 42
       28.121857 106.554344 657.1731 95.71515
0003c0 39 4d 02 43 fa 20 9b 44 71 59 cd 45 7d 36 36 43
       130.30165 1241.0305 6571.18 182.21284
0003d0 77 7b 27 46 d4 31 39 47 1e 84 27 47 a6 b0 7d 44
       10718.866 47409.83 42884.117 1014.76013
0003e0 d2 92 f1 44 5e 13 9a 48 73 9e cd 48 87 bd 5c 44
       1932.5881 315546.94 421107.6 882.96136
0003f0 77 58 06 42 4e 0f 2f 43 76 0c a4 44 16 9e e7 43
       33.58639 175.05978 1312.3894 463.23505
