latest_model_log_2.pt (torch, 863426 bytes, 18 tensors)

weight f4 [256, 16]
0	0x3e4652a4	0.19367462
1	0x3dc884b8	0.09790939
2	0xbe871723	-0.2638484
3	0x3e2b03ac	0.1670062
4	0xbdd4795c	-0.1037471
5	0x3ce965a2	0.028490845
6	0x3e0833be	0.13300988
7	0x3df6e1e8	0.12054807
8	0xbe2d4f86	-0.16924867
9	0x3ddecdd0	0.10879099
10	0x3da3af9c	0.07992479
11	0x3e6aa936	0.22916111
12	0xbe50445e	-0.2033858
13	0xbe5ae93c	-0.21378034
14	0xbe89ffa5	-0.26952854
15	0x3d717660	0.05895078
16	0xbb24f510	-0.0025170483
17	0x3db80244	0.08984807
18	0xbdda5218	-0.106601894
19	0xbe26e042	-0.16296485
20	0x3cf5374e	0.029933598
21	0x3d4deff8	0.05027768
22	0x3d4d8c38	0.05018255
23	0x3d8583c8	0.06519276
24	0xbd1b6978	-0.03794238
25	0x3dc15eb0	0.09441888
26	0xbcb0a9d1	-0.02156535
27	0xbd502780	-0.05081892
28	0x3e492dd8	0.19646394
29	0xbc3a2184	-0.01136053
30	0x3e606be6	0.2191616
31	0xbe2e6f3c	-0.1703462
32	0xbe5df723	-0.21676306
33	0x3e32a75a	0.17446652
34	0x3d009ae1	0.031397704
35	0x3dcf0978	0.10109228
36	0x3de6bd7e	0.112666115
37	0x3e4cefea	0.20013395
38	0x3d947f24	0.07250813
39	0x3e57c6dc	0.21071953
40	0xbd6762df	-0.056490775
41	0x3d8d2cfc	0.06893346
42	0x3cd9b75e	0.026576694
43	0x3a97dbf0	0.0011585932
44	0x3e8a603f	0.27026555
45	0xbda11e28	-0.0786708
46	0xbc7a21fe	-0.015266893
47	0xbdcda0f4	-0.10040465
48	0xbe72e9c2	-0.23721984
49	0x3d3e0e68	0.046400458
50	0x3e2e446c	0.17018288
51	0xbe32332e	-0.17402336
52	0xbdd78120	-0.105226755
53	0xbd941af4	-0.072317034
54	0xbd692898	-0.05692348
55	0xbda61224	-0.08108929
56	0x3e04ea02	0.12979892
57	0x3e4d2cb6	0.20036587
58	0xbd8bfdb4	-0.068354994
59	0xbe162a08	-0.14664471
60	0x3d3d7778	0.046256512
61	0xbe8263a6	-0.2546665
62	0xbde39108	-0.11111647
63	0xbd5183f7	-0.051151242
64	0x3d8e431b	0.06946393
65	0xbde9f845	-0.11424307
66	0x3d918fb8	0.0710749
67	0x3e742918	0.23843801
68	0x3c10805c	0.008819666
69	0x3ddead10	0.10872853
70	0xbe378e4a	-0.17925373
71	0xbd5b4d31	-0.053540412
72	0x3e575e92	0.2103217
73	0xbd7f9138	-0.06239435
74	0xbc7dfe82	-0.015502574
75	0x3e10e7d0	0.1415093
76	0x3d0eb32e	0.034838848
77	0xbc8645a2	-0.016390625
78	0x3e50a0d8	0.20373857
79	0x3d768357	0.06018385
80	0x3d9126c4	0.07087472
81	0x3d543988	0.05181268
82	0xbe492016	-0.19641146
83	0x3c8e662f	0.01738271
84	0x3c87ee0e	0.016593006
85	0xbe460cd0	-0.19340825
86	0x3e8b90a8	0.272588
87	0x3e2f5d04	0.17125326
88	0xbda085c8	-0.07838017
89	0x3e05d2be	0.13068673
90	0xbe55474e	-0.20827982
91	0x3d8fe340	0.070257664
92	0xbdedb5b4	-0.11606923
93	0x3e5af24c	0.21381491
94	0x3e60e286	0.21961412
95	0x3ab85ad0	0.001406515
96	0xbe524348	-0.20533478
97	0x3d024f19	0.031813715
98	0x3e5a9594	0.21346122
99	0xbdeafdb0	-0.11474168
100	0xbd74959f	-0.059713002
101	0x3dd3bfd0	0.1033932
102	0x3d9aeb50	0.075644135
103	0x3d3bb310	0.045825064
104	0xbe2fe9d2	-0.17179039
105	0xbe01d09c	-0.12677234
106	0xbd34f878	-0.04418227
107	0xbe0d90d2	-0.13824776
108	0xbe696d2e	-0.22795555
109	0x3dbef098	0.09323233
110	0x3e0c079e	0.1367478
111	0xbe2b27c2	-0.16714385
112	0x3d974068	0.073853314
113	0xbe324647	-0.17409621
114	0xbe0982fd	-0.13428874
115	0x3e1647ec	0.14675874
116	0x3d81127c	0.06302354
117	0xbe189484	-0.14900404
118	0x3e80a531	0.2512603
119	0xbde4322c	-0.11142382
120	0x3deb83fc	0.114997834
121	0x3e22ef0a	0.15911499
122	0x3da1a37c	0.0789251
123	0xbdcb0580	-0.099131584
124	0x3d9a39b8	0.0753054
125	0xbdd3b5e5	-0.10337428
126	0x3de5d23f	0.11221742
127	0x3e85d835	0.26141515
128	0xbe05f79f	-0.13082741
129	0xbe40266b	-0.18764655
130	0xbdcdb738	-0.10044712
131	0x3d1b4e14	0.037916258
132	0x3d8593dc	0.065223426
133	0xbe5e5b04	-0.21714407
134	0xbe4124e0	-0.18861723
135	0x3dd3c5b4	0.10340443
136	0xbe0a5674	-0.13509542
137	0x3dc08624	0.09400585
138	0xbcb385cf	-0.02191439
139	0x3cc0d19d	0.023537451
140	0xbdaa1b8c	-0.083060354
141	0x3d73e8c0	0.05954814
142	0xbe15e7e8	-0.14639246
143	0x3e0401cd	0.12891312
144	0x3de0da5c	0.10979149
145	0xbe81cfec	-0.25353944
146	0x3da505c9	0.08057744
147	0x3c796164	0.015220974
148	0xbe2d26e8	-0.16909373
149	0x3e41657c	0.1888637
150	0x3dfa50e8	0.12222463
151	0xbd447ba6	-0.047969483
152	0x3dcb297c	0.09920022
153	0xbd8ed9a0	-0.069751024
154	0x3d9165fc	0.0709953
155	0x3e5c95c2	0.21541503
156	0xbe20e544	-0.15712458
157	0xbdb43cbc	-0.08800647
158	0x3e3172c0	0.1732893
159	0x3e20b182	0.15692714
160	0x3e682548	0.22670472
161	0xbcac82a2	-0.021058384
162	0xbde778f9	-0.113023706
163	0x3e6a1a98	0.22861707
164	0xbe1b6744	-0.15176111
165	0x3c3f25de	0.011666743
166	0x3da42e04	0.08016589
167	0xbdc87568	-0.097880185
168	0x3e69ee3c	0.22844785
169	0xbe4f3170	-0.20233703
170	0x3df3fc0c	0.119133085
171	0x3d94cf64	0.07266119
172	0xbdd7e8e4	-0.10542467
173	0x3e0d7a84	0.13816267
174	0x3e4d4276	0.20044884
175	0x3d97f174	0.074191004
176	0xbe7a1f0e	-0.24425909
177	0xbe854e6c	-0.26036394
178	0x3dba9d88	0.09112078
179	0x3da22a94	0.079182774
180	0xbe874dd6	-0.26426572
181	0x3e485b38	0.19566047
182	0xbd69a3f7	-0.057041135
183	0x3e1e9f2c	0.15490407
184	0xbe836c57	-0.25668594
185	0x3d261798	0.040549845
186	0xbdb7ca38	-0.08974117
187	0xbe1ea7a0	-0.15493631
188	0xbe6f35a4	-0.23360306
189	0x3da7d2ac	0.08194479
190	0xbe49455a	-0.19655362
191	0x3df1c9d9	0.118060775
192	0xbde4e32c	-0.11176142
193	0xbc08119c	-0.00830498
194	0x3d7578e1	0.059929732
195	0xbdfa2174	-0.12213412
196	0x3d190c01	0.037364963
197	0x3e39a34a	0.18128696
198	0xbe133f70	-0.14379668
199	0xbe8d2a4b	-0.2757133
200	0x3e1d928c	0.15387934
201	0xbe4c3f14	-0.19945937
202	0x3e6031b2	0.21893957
203	0x3c7a6fa2	0.015285404
204	0x3e3eabfa	0.18620291
205	0xbe10241c	-0.14076275
206	0xbc5a98be	-0.013342081
207	0xbe7ab3ee	-0.244827
208	0x3dfd7514	0.123758465
209	0xbdf031f0	-0.11728275
210	0xbde54894	-0.11195484
211	0x3d4d5c99	0.050137136
212	0xbe34ae88	-0.17644703
213	0xbe2f6a78	-0.17130458
214	0x3e3848ce	0.17996523
215	0x3d95945c	0.07303688
216	0x3d65d2b8	0.05610916
217	0x3e31885c	0.17337173
218	0x3e3291f2	0.17438486
219	0x3e3c6ff0	0.18402076
220	0xbe8399f9	-0.2570341
221	0xbe2f6d64	-0.17131573
222	0x3dba2cb4	0.09090558
223	0x3ddc22c4	0.107488185
224	0x3ac0a240	0.0014696792
225	0xbd88d538	-0.06681293
226	0xbde876ff	-0.11350822
227	0xbe2f5dbf	-0.17125605
228	0xbcffb65e	-0.03121489
229	0x3e2f1032	0.17096022
230	0xbe2f6d20	-0.17131472
231	0xbd99524c	-0.074864
232	0xbe2e6fcc	-0.17034835
233	0xbde36404	-0.11103061
234	0xbdb12900	-0.08650398
235	0xbe858a0e	-0.2608189
236	0x3de92a2c	0.11384997
237	0xbe464046	-0.19360456
238	0x3e3a095c	0.18167633
239	0xbe8e0f75	-0.27746168
240	0xbe45b1a0	-0.1930604
241	0xbd9ad6bd	-0.07560489
242	0xbd72d8d9	-0.059288833
243	0xbdce65b0	-0.10077989
244	0x3e57d3ca	0.21076885
245	0x3e393598	0.1808685
246	0xbda26ba4	-0.07930687
247	0x3e2feca2	0.17180112
248	0xbc47d362	-0.012196394
249	0x3ccfd43f	0.025369762
250	0x3e219bd2	0.15782097
251	0xbe5bbc1c	-0.21458477
252	0xbd53f6e0	-0.05174911
253	0xbe34cb44	-0.17655665
254	0x3dc45608	0.09586722
255	0xbe50ba2c	-0.20383519

bias f4 [256]
0	0xbd6c4f77	-0.05769297
1	0xbd830171	-0.06396759
2	0x3d92f7af	0.07176148
3	0xbe24423e	-0.16040894
4	0x3d59647c	0.053074345
5	0x3e0d0cb0	0.13774371
6	0xbe334684	-0.17507368
7	0x3e3a2e3a	0.18181697
8	0xbd4bfd90	-0.049802363
9	0xbdf427bf	-0.119216435
10	0xbdf6c771	-0.12049759
11	0x3cd81262	0.026375953
12	0xbcfcf7ae	-0.030879822
13	0x3e12472c	0.14284962
14	0x3c3dadcc	0.011577081
15	0x3e2b6257	0.16736732
16	0xbd1e74d8	-0.03868565
17	0xbc36a4e6	-0.011147713
18	0xbdcf6097	-0.10125845
19	0x39c98140	0.00038434006
20	0xbe33a56e	-0.17543575
21	0x3dba9247	0.091099314
22	0x3e1c5ea1	0.15270473
23	0x3d944cc2	0.07241203
24	0x3e28ab5e	0.16471621
25	0xbddf7fab	-0.109130226
26	0xbe753f1d	-0.23949857
27	0xbdd37866	-0.103256986
28	0x3d7266ea	0.059180178
29	0x3d608412	0.054813452
30	0x3e30f328	0.17280257
31	0xbdce5456	-0.100746796
32	0x3e1e7a58	0.15476358
33	0x3df62e4a	0.12020548
34	0x3e359120	0.17731142
35	0x3d887553	0.06663003
36	0x3aed4540	0.0018102303
37	0xbe1339d7	-0.14377533
38	0xbcfd4f3d	-0.030921573
39	0x3d3a8ae2	0.045542605
40	0x3cd98d46	0.026556622
41	0xbe03ec62	-0.12883142
42	0xbe537cab	-0.20653026
43	0x3dcf764d	0.10129986
44	0xbe2ebbbb	-0.17063801
45	0x3afe3480	0.0019394308
46	0x3e78f3ce	0.24311754
47	0xbe5dc3a8	-0.21656668
48	0x3cb4af46	0.022056233
49	0x3e4d72a9	0.2006327
50	0x3e3df132	0.1854904
51	0xbe0f0a18	-0.13968694
52	0xbe27d4b0	-0.16389728
53	0x3d5edbf0	0.054408967
54	0xbd3e4f9b	-0.046462636
55	0xbe5edbe9	-0.21763577
56	0xbe76d0c2	-0.24103072
57	0x3e7ecfba	0.24883929
58	0x3b9c6fe8	0.0047740825
59	0x3e26d275	0.1629122
60	0x3e0ae407	0.13563548
61	0xbdf20743	-0.11817791
62	0x3d6fea42	0.058573015
63	0x3dce16c0	0.10062933
64	0x3e67b8bc	0.22629064
65	0x3cd15e01	0.02555752
66	0x3dd696f7	0.10478013
67	0xbe0d9efc	-0.13830179
68	0xbe59653c	-0.21230024
69	0x3e462645	0.19350536
70	0xbe0ea5a9	-0.13930382
71	0xbe218fa1	-0.15777446
72	0xbd544820	-0.051826596
73	0xbe12eae4	-0.14347416
74	0x3bb2bf10	0.0054549053
75	0x3e6ae5d0	0.22939229
76	0xbdb299d1	-0.087207444
77	0xbe18c985	-0.14920624
78	0x3dbe454a	0.092905596
79	0xbe02111a	-0.12701836
80	0xbe372a05	-0.17887123
81	0xbc5c97ba	-0.013463909
82	0xbdb88363	-0.09009435
83	0x3e5548de	0.20828578
84	0x3e5356dd	0.20638604
85	0x3d8d6469	0.06903917
86	0xbe5d1db6	-0.21593365
87	0x3e5e2a8e	0.21695921
88	0xbe2218e7	-0.15829812
89	0xbd6edfea	-0.05831901
90	0x3d903f58	0.07043332
91	0x3e1c839a	0.15284577
92	0xbe613cfc	-0.2199592
93	0xbe1e99bb	-0.15488331
94	0x3d010c15	0.031505663
95	0xbe3db400	-0.18525696
96	0x3e2ff4e7	0.17183267
97	0x3d9379b2	0.07200946
98	0x3cbf686b	0.02336522
99	0xbe23f32c	-0.16010731
100	0xbe61f44e	-0.22065851
101	0xbdc3bf80	-0.0955801
102	0x3e1b6d46	0.15178403
103	0x3d3152c9	0.04329184
104	0xbd0732c4	-0.0330074
105	0xbe8cf773	-0.2753254
106	0xbcc14816	-0.023593944
107	0xbe5f5647	-0.21810256
108	0x3d32bbfe	0.043636315
109	0x3e1dced2	0.15410927
110	0xbe825cce	-0.2546143
111	0xbe470456	-0.19435248
112	0x3e46b537	0.19405065
113	0x3df3efac	0.11910948
114	0x3c0d30b0	0.008617565
115	0x3e7d53c8	0.24738991
116	0x39919980	0.00027770922
117	0x3e2ce408	0.16883862
118	0xbd171137	-0.03688165
119	0x3d690c59	0.05689654
120	0xbe524295	-0.20533212
121	0xbdbdff4f	-0.09277212
122	0xbd7f4096	-0.062317453
123	0xbe30dd20	-0.17271852
124	0xbcd97423	-0.026544636
125	0x3e0fd88c	0.1404745
126	0x3d95c1a0	0.07312322
127	0x3d0d63f8	0.034519166
128	0x3da246a4	0.0792363
129	0xbe144d48	-0.14482605
130	0xbad6ddd0	-0.001639301
131	0x3b6f09e0	0.0036474392
132	0x3d802cd1	0.06258548
133	0x3e784110	0.2424357
134	0xbd984748	-0.07435471
135	0x3e790f30	0.243222
136	0xbe3b199a	-0.18271485
137	0x3d9bcc5e	0.07607339
138	0xbd9fde10	-0.07806027
139	0xbe898cb8	-0.26865172
140	0xbc007e6c	-0.007842641
141	0x3d55893c	0.05213283
142	0x3ca4cf07	0.02011825
143	0x3dc3b4d1	0.09555972
144	0x3e4ca2f2	0.19984034
145	0xbe2aff24	-0.16698891
146	0xbcf5980c	-0.029979728
147	0xbe2577a6	-0.16158924
148	0x3e05ca62	0.13065484
149	0x3e74b3ce	0.23896715
150	0x3e69bdce	0.22826311
151	0x3e1aa1e7	0.15100823
152	0x3e56585e	0.20932147
153	0xbcfa646d	-0.030565465
154	0x3dc8100c	0.09768686
155	0x3e0131aa	0.12616602
156	0x3e2b9f51	0.16759993
157	0x3d12c0a2	0.03582824
158	0x3e338999	0.17532958
159	0xbe6e0ac3	-0.23246293
160	0x3e29d381	0.16584589
161	0xbdcae757	-0.09907406
162	0x3e2b4622	0.16725972
163	0xbe0d461a	-0.13796273
164	0xbd29f86e	-0.041496687
165	0x3d967a35	0.07347528
166	0xbd332733	-0.043738555
167	0xbd3243f6	-0.043521844
168	0xbc6ef1c4	-0.014584009
169	0x3e23bc60	0.15989828
170	0x3dc4059e	0.09571384
171	0x3e349450	0.17634702
172	0x3c9d997e	0.01923823
173	0xbd3150a8	-0.04328981
174	0x3d46811e	0.04846298
175	0x3d355d98	0.04427871
176	0xbe434897	-0.1907066
177	0x3df3c7ae	0.1190332
178	0x3e51ebc8	0.205001
179	0x3cf12e94	0.029441155
180	0xbe8ec73a	-0.27886373
181	0x3e78f658	0.24312723
182	0x3ddbdabb	0.10735079
183	0x3d31b7ca	0.043388166
184	0x3e4ab160	0.19794226
185	0x3d32956a	0.043599524
186	0xbe8484aa	-0.25882465
187	0xbe57e147	-0.2108203
188	0xbe390f22	-0.18072179
189	0x3e00b4f5	0.1256903
190	0xbca9bab3	-0.020718908
191	0xbe49700b	-0.19671647
192	0x3e4533cf	0.19258045
193	0x3e8bdcb3	0.27316818
194	0xbdbcfc47	-0.092278056
195	0x3d9a5b83	0.07536986
196	0x3c5be200	0.013420582
197	0xbd82cdd3	-0.06386914
198	0xbe4136a1	-0.18868496
199	0xbe0c26e5	-0.13686712
200	0x3d3ce8d5	0.046120483
201	0xbd498cc2	-0.049206503
202	0x3e64eb35	0.2235535
203	0xbd200dd8	-0.039075702
204	0xbe8775cb	-0.26457056
205	0xbd6ea1fc	-0.05825995
206	0x3ce504a8	0.027956322
207	0x3e3d10ea	0.18463483
208	0xbe16222a	-0.1466147
209	0xbe172485	-0.14760025
210	0x3c19750a	0.009366283
211	0xbe32cb8a	-0.17460456
212	0xbe10285d	-0.14077897
213	0xbcfa5306	-0.030557167
214	0xbcaf9a23	-0.021435803
215	0x3db3a032	0.08770789
216	0x3e437b3d	0.1908998
217	0x3e125d37	0.14293371
218	0x3d688eca	0.0567768
219	0x3e7b4fb4	0.24542123
220	0x3db80ed9	0.08987207
221	0xbd982662	-0.07429196
222	0x3e3c9ff8	0.18420398
223	0xbe2febcb	-0.17179792
224	0xbe4cdc01	-0.200058
225	0xbd938f02	-0.07205011
226	0x3e1a6b6e	0.15080044
227	0xbe5f7348	-0.2182132
228	0x3e55c516	0.20875964
229	0xbc8eaaf1	-0.017415496
230	0xbe4c1d98	-0.19933164
231	0xbddd87e8	-0.10816938
232	0x3e8c9e53	0.27464542
233	0x3df36e1a	0.118862346
234	0x3e02a27a	0.12757292
235	0x3d8efa14	0.06981292
236	0x3e701aae	0.23447677
237	0x3da8b436	0.082374975
238	0x3e3bd41c	0.18342632
239	0x3b2127e8	0.0024590436
240	0x3d2026c2	0.039099462
241	0x3e1ccc84	0.15312392
242	0x3c7175ac	0.014737528
243	0xbe328d99	-0.17436828
244	0xbcfd24fc	-0.030901425
245	0xbe090078	-0.13379085
246	0x3dcee035	0.10101358
247	0xbe7ef378	-0.24897563
248	0xbe274e61	-0.16338493
249	0xbd4aaad1	-0.04947931
250	0xbe323939	-0.17404641
251	0x3e1ae573	0.1512659
252	0xbe3cee45	-0.18450268
253	0xbe0e3386	-0.13886842
254	0x3d5b352c	0.053517506
255	0x3e557a00	0.2084732

weight f4 [256, 256]
0	0xbda478ae	-0.0803083
1	0xbd9d3bc8	-0.07677418
2	0xbd4b2db6	-0.04960414
3	0x3d71b6e2	0.0590123
4	0xbd16e258	-0.036836952
5	0x3c87e8ea	0.016590554
6	0xbd8230bb	-0.06356951
7	0xbd2bf7e4	-0.041984454
8	0xbd0863fd	-0.03329848
9	0x3cd94135	0.026520351
10	0xbdb149d9	-0.086566634
11	0x3c2f2ab4	0.010691334
12	0x3c1b3bcc	0.009474706
13	0x3cdb2f9c	0.0267561
14	0xbd08ddc5	-0.03341462
15	0x3b2ba820	0.002619274
16	0xbc93ba60	-0.018033206
17	0xbd7e595c	-0.06209694
18	0xbcdc909a	-0.02692442
19	0xbd4ad710	-0.049521506
20	0xbdb3aa14	-0.08772674
21	0xbd49eae6	-0.049296282
22	0xbc3d8d2e	-0.011569304
23	0xbc660c16	-0.014040967
24	0x3ca3d092	0.019996915
25	0xbd23cb5c	-0.03998886
26	0xbc588436	-0.013215115
27	0xbd694e8f	-0.056959685
28	0xbc20638e	-0.009789361
29	0xbbd34134	-0.006446982
30	0x3cebe905	0.028797636
31	0x3c4479ba	0.0119919125
32	0x3da1e7a3	0.07905509
33	0xbcbfb5f6	-0.023402195
34	0xbd0f7c80	-0.03503084
35	0xbdbb6152	-0.09149422
36	0x3be052b4	0.0068457965
37	0x3cbf86d1	0.023379715
38	0xbdb3cb8e	-0.08779059
39	0x3ce11e6d	0.027480328
40	0xbdb86cea	-0.09005149
41	0xbb9c5938	-0.004771378
42	0xbc8a1c94	-0.01685933
43	0xbc70535a	-0.01466831
44	0x3c54d732	0.01299076
45	0x3d73bda7	0.05950704
46	0xbd1c92cc	-0.038225934
47	0xbcc64eb2	-0.024207447
48	0xbcc804e6	-0.024416398
49	0xbd8acffa	-0.0677795
50	0xba1a5380	-0.0005887076
51	0xbdacba4e	-0.08433972
52	0x3d6dfa81	0.058100227
53	0xbd29d5b7	-0.04146358
54	0x3a485120	0.0007641483
55	0xbd51b934	-0.051202014
56	0xbc5e35fc	-0.013562676
57	0xbd954ab0	-0.07289636
58	0x3ce3edba	0.027823318
59	0xbd38ca76	-0.045114957
60	0xbd8846b5	-0.06654111
61	0xbd65b14a	-0.05607728
62	0xbdb7c4c8	-0.0897308
63	0x3d8b78ef	0.068101756
64	0x3dad123f	0.08450746
65	0x3ceaa8a1	0.028644862
66	0xbbd8e37c	-0.006618915
67	0xbd168bb2	-0.036754318
68	0x3ca27dda	0.019835401
69	0xbc366656	-0.011132797
70	0x3d019c68	0.0316433
71	0xbca06ecc	-0.019584082
72	0xbcb7a71b	-0.02241855
73	0xbc2dc876	-0.010606876
74	0xbca39d46	-0.019972455
75	0xbd587154	-0.052842453
76	0xbd7a6049	-0.06112698
77	0xbd881782	-0.06645109
78	0xbba0de20	-0.004909292
79	0x3c861d95	0.016371528
80	0x3d933014	0.071869045
81	0xbd7188b8	-0.058968276
82	0x3cc69060	0.024238765
83	0xbc46a21e	-0.012123613
84	0xbbb5684c	-0.005536115
85	0x3c707910	0.014677301
86	0xbd338add	-0.043833602
87	0x3c3a1cde	0.011359422
88	0x3c883257	0.016625566
89	0xbc9c5e9a	-0.019088078
90	0xbc98b0fb	-0.018639078
91	0xbcacb290	-0.021081239
92	0xbd0a3ea9	-0.033751164
93	0x3b82abe8	0.003987778
94	0xbd9810de	-0.07425092
95	0xbd226c5e	-0.03965413
96	0x3ccfd234	0.025368787
97	0xbcc82aea	-0.024434526
98	0xbd85273a	-0.065016225
99	0xbd9b63fc	-0.0758743
100	0xbdacc4b7	-0.08435958
101	0xbda84679	-0.082165666
102	0xbc91dad0	-0.017804533
103	0xbdad0c8e	-0.0844966
104	0xbd84a316	-0.06476419
105	0xbcf4102b	-0.029792866
106	0xbaf9bc60	-0.0019053333
107	0xbcddce24	-0.027075835
108	0xbb1f8a40	-0.0024343878
109	0xbc128816	-0.008943578
110	0xbd5267fc	-0.0513687
111	0xbd39c18c	-0.045350596
112	0x3cf206bb	0.029544225
113	0xbc851637	-0.016245944
114	0xbdb9158a	-0.090373114
115	0xbd9511c0	-0.07278776
116	0x3c6d479a	0.014482403
117	0xbd04e828	-0.032447964
118	0xbcbda524	-0.023150034
119	0xbb647af0	-0.0034863316
120	0xbd5030da	-0.05082784
121	0xbd4e767e	-0.05040597
122	0xbd81bbe0	-0.063346624
123	0xbda34d8c	-0.07973775
124	0xbd692160	-0.056916595
125	0x3b73f4e0	0.0037224814
126	0x3ce79b58	0.028272316
127	0xbcde09b0	-0.027104229
128	0xbbffb480	-0.0078034997
129	0xbd01b246	-0.031664155
130	0x3c16df22	0.009208472
131	0x3ceaf301	0.028680326
132	0x3cac1339	0.02100526
133	0xbd74fde8	-0.059812456
134	0xbc4677da	-0.012113536
135	0xbd4092ee	-0.047015123
136	0xbdaebe39	-0.08532376
137	0x3cc28341	0.023744227
138	0xbd4c2cc4	-0.04984738
139	0x3c87f786	0.01659752
140	0x3c76377a	0.015027875
141	0xbd557565	-0.05211391
142	0x3ccd5f6e	0.025069918
143	0xbd21ffe6	-0.039550684
144	0xbcba8d6f	-0.022772519
145	0xbd421029	-0.047378693
146	0x3cb222c9	0.021745102
147	0x3c959ea0	0.018264115
148	0xbc4474ce	-0.011990739
149	0xbd18fb34	-0.03734894
150	0xbdbbda67	-0.09172516
151	0x3c37d04a	0.011219094
152	0xbd8f16ef	-0.06986796
153	0x3c839634	0.016062833
154	0xbbbde518	-0.0057951324
155	0xbdb829a0	-0.08992314
156	0xbd25f1dc	-0.04051386
157	0x3cb4f205	0.02208806
158	0xbd598c03	-0.05311204
159	0x3ccb62f2	0.024827454
160	0x3c8034ec	0.015650235
161	0xbd83a45b	-0.06427833
162	0xbd544780	-0.051826
163	0xbc913331	-0.017724605
164	0x3d9a53d9	0.07535524
165	0xbdac5a80	-0.08415699
166	0x3c3f3ff4	0.011672962
167	0xbca9a55a	-0.020708729
168	0x3cb11fa5	0.021621535
169	0x3bf27f08	0.007400397
170	0xbdbcde88	-0.09222132
171	0xbcd609e0	-0.026127756
172	0xbd2334a8	-0.03984514
173	0x3cd0677d	0.025439972
174	0xbc39b5b4	-0.011334825
175	0xbd72ecbe	-0.059307806
176	0x3c3a38d0	0.011366084
177	0xbcef6739	-0.029224025
178	0x3bde6ca4	0.0067878533
179	0xbdaec85d	-0.0853431
180	0x3c7b76f2	0.015348183
181	0xbd55e375	-0.052218873
182	0xbd34a03a	-0.044098116
183	0xbd18874e	-0.03723841
184	0xbc81733a	-0.015802015
185	0xbd0fc9d4	-0.035104588
186	0x3ca1f433	0.019769764
187	0xbce3a0fe	-0.027786728
188	0xbd43c5b8	-0.04779598
189	0xbd91b63d	-0.07114837
190	0xbd468884	-0.048470035
191	0x3cff373d	0.03115427
192	0xbd122664	-0.035681143
193	0x3c106260	0.008812517
194	0xbd85c39a	-0.06531449
195	0xbd8e1810	-0.06938183
196	0xbd34e563	-0.044164073
197	0x3d839dd6	0.06426589
198	0x3c76d99c	0.015066531
199	0xbcd602c7	-0.026124371
200	0xbc860221	-0.016358437
201	0x3d973e04	0.073848754
202	0xbd987957	-0.07445019
203	0x3c19b6ea	0.009381989
204	0xbbb8624c	-0.0056269523
205	0x3d48ba59	0.04900584
206	0xbcd2a5f8	-0.025713906
207	0xbbf815d8	-0.0075709634
208	0xbc54e1c0	-0.012993276
209	0x3caf80f6	0.021423798
210	0x3c855aad	0.01627859
211	0xbd649712	-0.055808134
212	0xbd36df39	-0.044646475
213	0xbc713446	-0.014721936
214	0x3cc961b5	0.024582723
215	0xbc8c1e39	-0.017104255
216	0xbac34580	-0.0014898032
217	0xbb8bc110	-0.004264958
218	0x3cc0b3c1	0.023523213
219	0xbc53eff4	-0.012935627
220	0xbd31b333	-0.04338379
221	0x3aac26c0	0.0013134107
222	0xbd7d26d0	-0.061804593
223	0xbce9c679	-0.028537022
224	0xbda37ec0	-0.0798316
225	0x3d0633de	0.03276431
226	0xbab0b970	-0.0013482999
227	0xbdb507c2	-0.0883937
228	0xbd883c24	-0.06652096
229	0xbd856552	-0.06513466
230	0x3c2c3320	0.010510236
231	0xbd8b1bd2	-0.06792416
232	0x3cb90610	0.022585899
233	0xbd4494d1	-0.047993485
234	0xbdb6b02c	-0.08920321
235	0xbd86ddeb	-0.06585296
236	0xbd0d1b3c	-0.0344498
237	0xba8006f0	-0.0009767693
238	0xbda0da4b	-0.07854136
239	0xbc4d43f8	-0.012528412
240	0xbd0d0ee4	-0.03443803
241	0xbd8fb036	-0.070160314
242	0xbc0f20e0	-0.008735865
243	0xbd578368	-0.052615553
244	0x3d5f34d6	0.054493748
245	0x3b25c108	0.0025292058
246	0xbd88e826	-0.06684904
247	0xbce482cf	-0.027894406
248	0xbda339cb	-0.079700075
249	0xbcb29c1c	-0.021802954
250	0x3cf02451	0.029314192
251	0xbd7b2cce	-0.061322026
252	0xbc9e9876	-0.019359808
253	0xbd590b41	-0.05298925
254	0xbdb56e5c	-0.0885894
255	0xbcf3c0f9	-0.029755102

bias f4 [256]
0	0x3c3bee84	0.011470441
1	0x3d0e8ef4	0.0348043
2	0x3d9bd4ca	0.07608946
3	0x3cb1e9b5	0.021717886
4	0x3cc9f68f	0.024653701
5	0x3d129292	0.03578431
6	0xbd82b8f9	-0.06382937
7	0x3cba0f9f	0.022712527
8	0x3bbcb230	0.0057585463
9	0xbb74d538	-0.0037358534
10	0x3cb4de65	0.022078702
11	0xbb4dff58	-0.0031432714
12	0xbd7c8f57	-0.061660137
13	0x3d24200a	0.040069617
14	0xbd8099b8	-0.062793195
15	0xbcb2176c	-0.021739684
16	0x3c96205a	0.018325973
17	0xbd97e136	-0.074160025
18	0xbcf0f681	-0.029414417
19	0x3c76e374	0.0150688775
20	0x3c88571e	0.016643103
21	0x3c0a4204	0.008438591
22	0xbd61841a	-0.055057622
23	0xbdbb9d3e	-0.09160851
24	0x3cf07a1d	0.029355103
25	0xbbe153a0	-0.006876424
26	0x3bd8a170	0.0066110417
27	0x3d23b323	0.03996576
28	0x3d4132a7	0.047167446
29	0x3c202124	0.009773526
30	0xbd32aef0	-0.043623865
31	0xbd838c51	-0.064232476
32	0xbdb5ac1a	-0.088707164
33	0xbd4b232e	-0.049594097
34	0xbd552f4b	-0.052047055
35	0x3c70aaa0	0.014689118
36	0xbd703c81	-0.05865145
37	0xbdb41873	-0.08793726
38	0x3c4c3ff2	0.012466418
39	0xbd23a074	-0.039947942
40	0x3cf9afc0	0.030479312
41	0x3d017774	0.03160806
42	0x3d19dfd5	0.03756698
43	0x3c756110	0.014976755
44	0xbdb156ac	-0.086591095
45	0xbd259db7	-0.04043361
46	0x3cb8ccab	0.02255853
47	0xbd5686a8	-0.052374512
48	0x3b9742c0	0.0046161115
49	0x3cc6b8b8	0.024258003
50	0xbd8e4490	-0.06946671
51	0xbc86dbb2	-0.01646218
52	0x3d51d3ea	0.051227488
53	0x3c806051	0.015670927
54	0x3d1de5e6	0.038549326
55	0xbccc82f0	-0.02496478
56	0xbca8d248	-0.020608082
57	0x3d8ed33f	0.06973886
58	0xbc636da6	-0.013881123
59	0x3cf1921e	0.02948862
60	0xbcf3f011	-0.029777559
61	0x3d8b6141	0.06805659
62	0xbca77fa5	-0.020446608
63	0x3bb6a458	0.0055737905
64	0x3d9fec52	0.078087464
65	0xbd86bf16	-0.065794155
66	0xbca6d3c8	-0.020364657
67	0x3c1d6f64	0.009609077
68	0x3c8cdff8	0.01719664
69	0xbcf5e560	-0.030016601
70	0x3d3a5a4d	0.045496274
71	0x3d6737d9	0.056449745
72	0x3cba752f	0.022760956
73	0x3d735586	0.059407733
74	0x3bf93ea4	0.0076063443
75	0xbd96572b	-0.07340845
76	0x3d86dec1	0.06585456
77	0xbc4fda3a	-0.012686307
78	0x3ca5271b	0.020160249
79	0x3c9fb5c4	0.019495852
80	0xbd01cbb4	-0.031688407
81	0x3cd1272d	0.025531376
82	0xbd6dd251	-0.0580619
83	0x3cb9f381	0.02269912
84	0xbd7577cb	-0.059928697
85	0x3d737686	0.059439205
86	0xbc9d56f3	-0.0192065
87	0x3c8eb3ea	0.017419774
88	0x3d3a5816	0.04549416
89	0x3badaee0	0.0053003877
90	0xbd7f8fee	-0.06239312
91	0xbbd7099c	-0.006562425
92	0x3aeb4190	0.0017948616
93	0x3c80ef47	0.015739096
94	0xbd5fa2b3	-0.05459852
95	0xbc8f326f	-0.017480103
96	0xbd5f7cec	-0.054562494
97	0x3d81e4c6	0.06342463
98	0x3cc367f9	0.023853289
99	0x3cf5f4fa	0.03002404
100	0x3c6134ea	0.013745526
101	0xbc6504c8	-0.013978191
102	0xbc725246	-0.014790123
103	0x3a663440	0.00087815896
104	0xb98e6040	-0.00027156062
105	0xbceba6fc	-0.028766148
106	0x3d3ee8da	0.046608783
107	0x3cdbf176	0.026848536
108	0x3d073aca	0.03301505
109	0xbdb1a35f	-0.08673739
110	0x3cc5e70d	0.024158025
111	0xbd20c290	-0.03924805
112	0x3c45ff5c	0.012084808
113	0xbd2dd9de	-0.042444102
114	0x3ca0a2d9	0.019608902
115	0x3cf1423a	0.029450525
116	0x3db0a3a7	0.08624964
117	0xbcc52562	-0.024065677
118	0xbd635546	-0.055501245
119	0xbc877392	-0.0165346
120	0xbc984b61	-0.018590631
121	0xbcfaf8f1	-0.030636283
122	0xbced5589	-0.02897145
123	0x3d4a1c9a	0.049343683
124	0xbd3f7bac	-0.046748802
125	0x3cdc0390	0.026857167
126	0x3d8f93df	0.07010626
127	0xbcccfc07	-0.02502252
128	0xbc4d7cb8	-0.012541942
129	0xbcc9786a	-0.02459355
130	0xbdaeec26	-0.085411355
131	0x3c14434e	0.00904925
132	0xbb988870	-0.0046549365
133	0x3dbbbae3	0.09166505
134	0x3cf504f1	0.029909583
135	0x3bcd7ac0	0.0062707365
136	0xbc2d63e8	-0.010582902
137	0x3d7d986f	0.06191295
138	0xbd60480d	-0.054756213
139	0x3d5549f0	0.052072465
140	0x3c9e95b7	0.019358499
141	0xbb35ad00	-0.0027721524
142	0x3da78482	0.08179571
143	0xbd89c28f	-0.06726562
144	0xbbf4eed0	-0.0074747577
145	0xbc22487e	-0.009904979
146	0x3bf9e434	0.007626081
147	0xbd0a6ab4	-0.033793166
148	0x3d882085	0.066468276
149	0x3ced07d0	0.02893439
150	0xbd98afd0	-0.074554086
151	0xbd99d418	-0.07511157
152	0xbd58c462	-0.05292166
153	0x3ba08b84	0.004899444
154	0xbcf8eb47	-0.030385626
155	0x3c11a31a	0.008888984
156	0xbc18da6a	-0.009329418
157	0x3b31a730	0.0027107708
158	0xbcf63cf1	-0.030058356
159	0xbd53fe80	-0.051756382
160	0x3cc21941	0.023693683
161	0x3d214fb8	0.039382666
162	0x3ced096a	0.028935153
163	0xbd22a3a6	-0.03970685
164	0x3d124849	0.035713468
165	0x3d1669b7	0.03672191
166	0x3bb0e870	0.0053988025
167	0x3d299b1d	0.041407693
168	0x3c53eb4c	0.012934517
169	0xbd5b338b	-0.053515952
170	0x3c0ce28a	0.008598933
171	0xbd713944	-0.058892503
172	0xbcb0375c	-0.021510772
173	0xbca97985	-0.020687828
174	0xbc22e730	-0.009942815
175	0x3c8e9f6e	0.017410006
176	0x3da71c70	0.08159721
177	0xbc707f9c	-0.014678862
178	0x3d5c7090	0.053818285
179	0x3c1cf344	0.009579483
180	0xbdb60737	-0.08888095
181	0xbd49b600	-0.049245834
182	0x3db4c2e5	0.08826236
183	0xbb7c7328	-0.0038520787
184	0xbbd70dac	-0.006562909
185	0xbc870205	-0.016480455
186	0x3cbe2fee	0.023216214
187	0x3c96d01f	0.018409787
188	0xbdbbe7f2	-0.091750994
189	0xbd204e5a	-0.039137222
190	0xbdb201c4	-0.08691743
191	0x3bb88a60	0.00563173
192	0x3c493c5c	0.012282457
193	0xbca93658	-0.020655796
194	0xbcd416b9	-0.025889741
195	0xb94e2800	-0.00019660592
196	0x3d79f29e	0.061022393
197	0xbcd21430	-0.025644392
198	0xbdbbf636	-0.091778204
199	0xbcb03323	-0.021508759
200	0xbdb0b2de	-0.08627866
201	0x3d1907d0	0.037360966
202	0xbce2898d	-0.02765348
203	0x3d39f3b2	0.04539842
204	0x3a106420	0.0005508084
205	0x3d99b5cc	0.07505378
206	0xbc79c036	-0.015243581
207	0x3d929ae4	0.07158449
208	0x3c9c6ce7	0.019094897
209	0xbdb2fc52	-0.087395325
210	0x3c756ec4	0.014980022
211	0x3d4c4909	0.04987434
212	0x3c60f594	0.013730425
213	0xbdb9909f	-0.090607874
214	0x3d120340	0.03564763
215	0x3d020f4d	0.031752873
216	0x3c01170e	0.007879032
217	0xbc9ac781	-0.018893959
218	0x3d6365ac	0.055516884
219	0xbd851b66	-0.064993665
220	0xbc4c546e	-0.0124713015
221	0xbd994452	-0.07483734
222	0x3db65344	0.089026004
223	0xbc79d90a	-0.0152495
224	0x3d617008	0.055038482
225	0x3d07b1ea	0.033128656
226	0xbcb658b2	-0.02225909
227	0x3daa695d	0.08320878
228	0x3d026191	0.031831328
229	0xbd770e62	-0.06031645
230	0x3c973fe5	0.018463084
231	0xbc0d141e	-0.008610753
232	0xbbeab1bc	-0.007162301
233	0x3d9d7dcd	0.0769001
234	0xbd3ad702	-0.045615204
235	0xbda3f8be	-0.08006428
236	0xbcfacdc6	-0.030615699
237	0xbda385c1	-0.07984496
238	0xbdad9b54	-0.08476892
239	0x3da91f99	0.0825798
240	0xbc933c8e	-0.01797321
241	0xbd4ad5ac	-0.04952018
242	0x3b5879f0	0.0033031665
243	0x3c8f39c7	0.017483605
244	0xbc8764d6	-0.016527575
245	0x3c69e9d8	0.014276944
246	0xbba34bbc	-0.0049833935
247	0x3d5539ca	0.052057065
248	0x3d29ec1c	0.041484937
249	0x3c0cf09a	0.008602286
250	0x3dae0f80	0.0849905
251	0xbd85b323	-0.06528308
252	0xbdaa7ccc	-0.08324584
253	0x3cdcf412	0.02697185
254	0x3d28bf25	0.041197915
255	0xbd3cd4af	-0.04610127

weight f4 [4, 256]
0	0x3da7d089	0.08194072
1	0x3d9a1045	0.075226344
2	0xbc55d5cc	-0.013051461
3	0x3d2e86d8	0.042609066
4	0x3c7fb158	0.015606247
5	0x3d9f1330	0.077673316
6	0x3c8113b3	0.015756464
7	0x3d936a1b	0.071979724
8	0x3d9bca59	0.07606954
9	0xbba5da38	-0.005061414
10	0x3b2be060	0.0026226267
11	0xbb8e8800	-0.0043497086
12	0xbc77faa2	-0.015135439
13	0x3c2bdddc	0.010489907
14	0x3d2abf46	0.04168632
15	0x3c00dcf8	0.007865183
16	0x3ce422f7	0.027848704
17	0x3c5a554c	0.013326
18	0x3b2a8bf8	0.002602337
19	0xbcbe1cff	-0.023207186
20	0x3d8f9f8c	0.07012853
21	0xbbecfb98	-0.0072321407
22	0xba833290	-0.0010009576
23	0x3cc47497	0.023981376
24	0x3cd9c190	0.026581556
25	0x3d63510a	0.055497207
26	0x3cddbd97	0.027067943
27	0x3c9c2974	0.019062735
28	0x3cc0ab2f	0.023519127
29	0x3db5e17e	0.088809
30	0xbce980f6	-0.028503876
31	0xbc94a838	-0.01814662
32	0xbcec42b1	-0.028840395
33	0xbbbdd040	-0.0057926476
34	0x3a4b0ec0	0.00077460334
35	0x3b59aa60	0.0033213124
36	0x3cc85b3e	0.02445757
37	0xbc5fcbca	-0.013659427
38	0xbcdff5ff	-0.02733898
39	0x3d5b355a	0.053517677
40	0x3d07a0fb	0.033112507
41	0x3d3b4734	0.0457222
42	0x3cf4113b	0.029793372
43	0x3d633acc	0.055475995
44	0x3cd8e597	0.026476664
45	0x3d8dc8ff	0.069231026
46	0x3da96876	0.082718775
47	0xbca493ac	-0.020089947
48	0x3daa5faa	0.08319028
49	0x3ce3b33b	0.027795425
50	0x3d0f9948	0.03505829
51	0xbd01d862	-0.0317005
52	0xbcf49849	-0.029857771
53	0xbcd05bea	-0.025434453
54	0x3bbd103c	0.0057697576
55	0x3d0c41d2	0.03424246
56	0x3d1546d8	0.036444515
57	0xbc51fb08	-0.012816198
58	0x3d8f848e	0.07007705
59	0x3d1ec2ce	0.03876
60	0x3d8cc588	0.068736136
61	0x3c204cf2	0.00978397
62	0x3d9f957c	0.07792184
63	0x3cc6cc13	0.024267232
64	0x3da85a1d	0.08220313
65	0x3c6260d0	0.013817027
66	0xbd7beeca	-0.061507024
67	0xbca633b6	-0.02028833
68	0xbcd78fef	-0.02631375
69	0xbbe73b84	-0.0070566554
70	0x3d9589f4	0.07301703
71	0x3d962bf9	0.07332606
72	0xbc26d148	-0.0101817325
73	0xbc4f7248	-0.012661524
74	0xbc8086b8	-0.015689239
75	0x3cb6539e	0.022256669
76	0xbd31a686	-0.0433717
77	0x3d2cbd5b	0.04217277
78	0x3c042758	0.008066021
79	0x3d2ff7fa	0.0429611
80	0x3cfa2ad6	0.030538004
81	0xbc81f002	-0.015861515
82	0x3b7c68e8	0.0038514677
83	0xbc4a90a0	-0.012363583
84	0xbcc7b425	-0.024377892
85	0x3d83da1c	0.064380854
86	0x3db5f59f	0.08884739
87	0x3cf49c8d	0.029859805
88	0x3d4c8030	0.049926937
89	0x3dba2122	0.09088351
90	0xbc9a564d	-0.01883998
91	0x3d66124e	0.0561698
92	0x3d6acbc2	0.057323225
93	0x3c94fbca	0.018186469
94	0xbcdfe3bf	-0.027330277
95	0x3b43a5d0	0.002985347
96	0x3d12e5e2	0.035863765
97	0x3da8429a	0.08215828
98	0x3d1d1261	0.038347606
99	0x3cb4c384	0.022065885
100	0xbbc3782c	-0.0059652533
101	0x3d81b799	0.063338466
102	0x3da72974	0.081622034
103	0x3d8298b1	0.0637678
104	0x3bdcd160	0.0067388266
105	0x3d2c12e8	0.042010218
106	0x3d8ecb3e	0.06972359
107	0x3cb4b65b	0.02205961
108	0x3d27a1fd	0.04092597
109	0xbbbcd3e4	-0.005762564
110	0x3d7f40bd	0.0623176
111	0x3da9c185	0.08288864
112	0xbd017bee	-0.03161233
113	0x3d5e667e	0.054296963
114	0x3da28254	0.07935014
115	0x3db3512a	0.08755715
116	0x3d1c89bf	0.038217302
117	0x3c3bb6cc	0.011457156
118	0x3c6b791e	0.014372138
119	0xbcad8eb2	-0.021186206
120	0x3d735946	0.05941131
121	0x3cf32f4e	0.029685643
122	0x3d2b76cd	0.041861344
123	0x3c91853d	0.017763728
124	0x3d57faa4	0.052729264
125	0x3d440b92	0.047862597
126	0x3d7cbce8	0.061703593
127	0x3d138982	0.03601981
128	0xbc9b834f	-0.018983511
129	0x3d876a4c	0.066120714
130	0xbca63e0c	-0.020293258
131	0xbcbe88af	-0.023258535
132	0xbcca69e0	-0.024708688
133	0x3c612bc8	0.013743348
134	0xbc8d2009	-0.01722719
135	0xbcb7ff21	-0.022460522
136	0x3bc1e4ac	0.0059171524
137	0x3d904ba8	0.0704568
138	0x3d762954	0.060098007
139	0x3d1423a6	0.03616681
140	0x3d5c7c90	0.05382973
141	0x3c6ab428	0.014325179
142	0x3ccef882	0.025264982
143	0x3d9e67d6	0.07734649
144	0xbc57239a	-0.013131047
145	0x3bb254c0	0.005442232
146	0x3cd4d53a	0.02598058
147	0xbc380f08	-0.0112340525
148	0x3d79bd92	0.060971804
149	0xbc7b7d92	-0.0153497625
150	0x3c23be96	0.00999417
151	0xbcdffb16	-0.027341407
152	0xbc82c8e0	-0.015964925
153	0x3d8e18f8	0.06938356
154	0x3c697e1e	0.01425126
155	0xbcf4d44d	-0.02988639
156	0x3da96eee	0.08273111
157	0x3c03f4e6	0.008053994
158	0xbbfa69d8	-0.007642012
159	0xbd07ea72	-0.03318257
160	0xbcc8aaf9	-0.024495589
161	0x3d3c4e46	0.045973085
162	0x3d813863	0.06309583
163	0x3c834631	0.01602468
164	0xbc51ed84	-0.012812976
165	0x3d9c16be	0.07621525
166	0x3d3d0a82	0.0461526
167	0x3db014f8	0.085977495
168	0x3d97168d	0.07377348
169	0x3d48a1d4	0.048982456
170	0xbc6867f0	-0.014184937
171	0x3d5c934e	0.05385142
172	0x3ca6aa94	0.02034501
173	0x3d46d0b9	0.048538897
174	0xbc7dcb3a	-0.0154903475
175	0xbc07df62	-0.008293005
176	0x3d97a659	0.07404775
177	0xba9199e0	-0.001110848
178	0x3d9bb8f3	0.07603636
179	0xbc256adc	-0.010096278
180	0x3c61eaa4	0.013788853
181	0x3bf0fc00	0.0073542595
182	0x3d228258	0.039675087
183	0x3da68d5e	0.081324324
184	0x3da66350	0.08124411
185	0x3d187948	0.037225038
186	0x3da5bd3b	0.080927335
187	0x3cf4b88a	0.029873151
188	0xbcf17a0c	-0.029477142
189	0xbcdddfb1	-0.027084203
190	0x3d54489c	0.05182706
191	0x3b533a18	0.0032230671
192	0xbce5eb05	-0.028066168
193	0xbcfd36e5	-0.030909965
194	0xbcba68f6	-0.022755127
195	0x3cf1facc	0.029538535
196	0x3d5e6b98	0.05430183
197	0xbcc2849d	-0.023744876
198	0x3ae8b9a0	0.0017755516
199	0xbcddaea5	-0.027060816
200	0x3dae638c	0.08515081
201	0xbc69d48a	-0.014271865
202	0xbcb94799	-0.022617148
203	0x3d35ef51	0.044417683
204	0xbcc8d067	-0.024513436
205	0x3ba488ec	0.005021205
206	0x3c492c14	0.012278575
207	0x3d94fd88	0.0727492
208	0xbbbb8b88	-0.0057234205
209	0x3d3ee538	0.04660532
210	0xbcaa9540	-0.020823121
211	0x3db9bee2	0.09069611
212	0xbab5e6c0	-0.0013877973
213	0x3d3b2c3f	0.045696493
214	0x3d5eae5e	0.05436551
215	0x3d3ea8e7	0.046547797
216	0xbc6c18ca	-0.014410207
217	0x3daf1a22	0.08549906
218	0x3cdc60a5	0.026901552
219	0xbcdf3859	-0.027248548
220	0x3cabe003	0.02098084
221	0xbc0a810a	-0.008453617
222	0xbca820de	-0.020523485
223	0x3d2d75bc	0.04234861
224	0x3d5b2c68	0.053509146
225	0xbb8fc758	-0.0043877773
226	0xbc61c86c	-0.013780694
227	0xbce4a19e	-0.027909096
228	0x3b98fcec	0.0046688225
229	0xbc9ef925	-0.01940591
230	0x3d8dcb3c	0.069235295
231	0xbd021c6a	-0.03176538
232	0x3c951d97	0.018202586
233	0x3d6afc6c	0.057369635
234	0xbc345bd8	-0.011008225
235	0x3a0c06e0	0.00053416006
236	0xbcd6896d	-0.026188577
237	0x3d1d2962	0.038369544
238	0xbc304544	-0.010758702
239	0x3cd5e353	0.026109373
240	0x3d21237e	0.03934049
241	0xbcea6c5e	-0.028616127
242	0x3d51b532	0.051198192
243	0x3d1af02a	0.037826695
244	0x3da7b9f3	0.08189764
245	0x3c8c4e34	0.017127134
246	0x3d1772f9	0.03697488
247	0x3cc9ddde	0.024641927
248	0x3d4f42f0	0.050600946
249	0x3ce35940	0.027752519
250	0x3dab3a23	0.08360698
251	0xbb8b37c0	-0.0042485893
252	0x3d56ca3a	0.052438952
253	0xbd03e73d	-0.032202948
254	0x3d604a7a	0.054758526
255	0x3d178c7c	0.03699921

bias f4 [4]
0	0xbbb2bb24	-0.005454438
1	0xbce43ea3	-0.027861899
2	0x3a91c4b0	0.001112124
3	0x3be30790	0.0069283918

exp_avg f4 [256, 16]
0	0x3ce1326f	0.027489869
1	0x3d7df69d	0.062002767
2	0x3d1dc9f0	0.03852266
3	0x3cf5c9fb	0.030003538
4	0x3d79a76a	0.060950674
5	0x3ed9e520	0.4255762
6	0x401e53f7	2.4738748
7	0x3d071f69	0.03298894
8	0x3de47043	0.11154225
9	0x3eb125d7	0.34599182
10	0x3f9e27ff	1.2355956
11	0xbe859542	-0.26090437
12	0x3d646045	0.055755872
13	0x3d9e2c0f	0.07723247
14	0x3d5c0deb	0.05372421
15	0x3cd6465a	0.026156593
16	0xbcfdf3ed	-0.031000102
17	0xbdec7727	-0.11546164
18	0xbd94bb3b	-0.07262274
19	0xbd8394f3	-0.06424894
20	0xbdafe9ad	-0.08589492
21	0xbe4773cb	-0.19477765
22	0xc0a240f5	-5.0704293
23	0xbdaeada2	-0.085292116
24	0xbdcd90a3	-0.10037353
25	0xbfecdeba	-1.8505471
26	0xbf4d2ae3	-0.80143565
27	0xbe0ecf9b	-0.13946383
28	0xbdd44fbb	-0.1036677
29	0xbde84feb	-0.11343368
30	0xbdf46fc7	-0.11935382
31	0xbd2fd0e0	-0.042923808
32	0x3b0cae40	0.0021466166
33	0xbc51e03a	-0.012809807
34	0x3e417422	0.18891957
35	0xbc9c68af	-0.019092886
36	0x3a284f33	0.0006420493
37	0x3ea84402	0.32864386
38	0xc0346a43	-2.8189857
39	0x3d9f58b9	0.077805944
40	0x3e22f0f0	0.15912223
41	0xbebab07c	-0.36462772
42	0xbe98abd3	-0.2981859
43	0xbdebb913	-0.115099095
44	0xbd0e14b9	-0.03468773
45	0xbd1edf3f	-0.038787123
46	0x3cd364d7	0.02580492
47	0xbc9e4466	-0.019319724
48	0x3c83d83b	0.016094318
49	0x3d4d9957	0.050195064
50	0x3dfbda0b	0.12297448
51	0x3cf8075b	0.030276945
52	0x3d6bb6aa	0.05754725
53	0x3dc394af	0.095498435
54	0x3f0b9685	0.5452655
55	0x3d2e9143	0.042619
56	0x3e34d557	0.17659508
57	0x3f9ea080	1.2392731
58	0x3f1c28e0	0.6099987
59	0x3dd01468	0.10160142
60	0x3d45c365	0.048282046
61	0x3d1e6b26	0.038676403
62	0x3d22eff6	0.039779626
63	0x3c6e69c2	0.014551582
64	0xbc6d3783	-0.014478567
65	0xbca0782f	-0.019588558
66	0xbd6e9d30	-0.058255374
67	0xbc01fd17	-0.0079338765
68	0xbcc34efe	-0.023841377
69	0xbeb8589f	-0.36005113
70	0xbd4cad25	-0.04996981
71	0xbd0f338b	-0.034961265
72	0xbef5f0d8	-0.48035312
73	0xbe8a149a	-0.26968843
74	0xbe82a026	-0.2551281
75	0xbea784cc	-0.32718503
76	0xbc1c28bd	-0.009531197
77	0xbcfb932b	-0.030709824
78	0xbd4f94d0	-0.050679028
79	0xbc2511a1	-0.010075004
80	0xbca1c746	-0.019748341
81	0xbd690420	-0.0568887
82	0xbcb73448	-0.022363797
83	0xbcb1f0d7	-0.021721287
84	0xbd0d66db	-0.03452192
85	0xbdd958ed	-0.10612664
86	0xbfef3598	-1.868823
87	0xbcfc08cd	-0.030765915
88	0xbe3da2fb	-0.18519203
89	0xbf038dcb	-0.51388234
90	0xbe42ef5d	-0.19036622
91	0x3e2e1951	0.17001845
92	0xbd21805d	-0.039429057
93	0xbf089f25	-0.53367835
94	0xbd7ca7da	-0.061683513
95	0xbc8df41e	-0.017328318
96	0x3ca8578f	0.020549564
97	0x3d87d407	0.06632238
98	0x3e8a3597	0.2699401
99	0x3ce53ee0	0.027984083
100	0x3d2f7fdb	0.04284654
101	0x3e505d47	0.20348082
102	0x3ff441a3	1.9082531
103	0x3e2d9a5d	0.16953416
104	0x3e01b9c4	0.1266852
105	0x3eacd08d	0.33752862
106	0x3eb6d1dd	0.35706988
107	0x3dc9de98	0.098569095
108	0x3d22b235	0.039720733
109	0x3ef9afea	0.48767024
110	0x3e104b38	0.14091194
111	0x3cde0dd8	0.02710621
112	0x3bf468a5	0.0074587637
113	0xbb68ad1b	-0.003550357
114	0xba5f3c30	-0.00085157435
115	0xbc205c20	-0.009787589
116	0xbcde6082	-0.027145628
117	0x3d90764c	0.07053813
118	0xbf509ae3	-0.8148634
119	0x3c4ae1a4	0.0123828985
120	0x3eabd80d	0.3356327
121	0xbe100ea2	-0.14068082
122	0xbeebef9a	-0.4608124
123	0xbd8d76a4	-0.069073945
124	0xbcad995d	-0.021191293
125	0xbbbb57d0	-0.005717255
126	0xbbeea023	-0.0072822734
127	0xbb8f6d9c	-0.00437708
128	0xbad564b0	-0.0016280618
129	0xbb14d8b7	-0.002271218
130	0xbbdc7253	-0.0067274957
131	0xbb41e907	-0.0029588358
132	0x3bf70c0f	0.0075392793
133	0xbb9c8527	-0.004776615
134	0xbb90a577	-0.004414256
135	0xbd3b3267	-0.045702364
136	0xbbdf2112	-0.006809362
137	0xbdd50de3	-0.10403039
138	0x3e6a368a	0.22872368
139	0xbcbf085a	-0.023319412
140	0xba0dd61b	-0.00054106273
141	0xbe1d6455	-0.15370305
142	0xbabe61dc	-0.0014525014
143	0xbb0a02b0	-0.002105873
144	0x3c2d5d01	0.010581256
145	0x3d4ee48a	0.05051092
146	0x3cca274e	0.024676945
147	0x3ceb53cd	0.028726483
148	0x3c52a028	0.012855567
149	0x3d8a957f	0.06766795
150	0x406645ff	3.5980222
151	0x3b9f3857	0.004859011
152	0xbf355498	-0.70832205
153	0x3e8db700	0.2767868
154	0xbec16fb1	-0.37780526
155	0xbea43073	-0.32068214
156	0x3d25af5f	0.04045045
157	0x3d988a61	0.07448269
158	0xbd29d70f	-0.04146486
159	0x3c5fedc8	0.013667531
160	0xbc90ed52	-0.017691288
161	0xbd372935	-0.044717032
162	0xbc2b3393	-0.010449308
163	0xbc3a2f63	-0.011363837
164	0xbdac2090	-0.08404648
165	0xbe371f78	-0.17883098
166	0x3e87af93	0.2650114
167	0xbcaf3565	-0.021387765
168	0xbf312457	-0.69196075
169	0xbeb7f01a	-0.3592537
170	0xbfba98b6	-1.4577854
171	0xbe9c6c3b	-0.30551323
172	0xbcdc0fe3	-0.026863044
173	0xbec1b8cf	-0.3783631
174	0xbe18a8e3	-0.14908175
175	0xbca32af2	-0.019917939
176	0x3cc46a42	0.023976449
177	0x3d5e90c0	0.054337263
178	0x3edd7ccd	0.43259278
179	0x3cf3e23d	0.029770965
180	0x3cf4a36d	0.029863084
181	0x3e6aa11a	0.22913018
182	0x3e8841f8	0.2661283
183	0x3dc036f2	0.0938548
184	0x3dd477b3	0.10374393
185	0x3fc2da53	1.5222877
186	0x3eea6aa5	0.45784488
187	0x3d8d7637	0.06907313
188	0x3d24f3f1	0.040271703
189	0xbdd66cfd	-0.104700066
190	0x3cc42f86	0.023948442
191	0x3c4e11cd	0.012577486
192	0x3d44249d	0.04788648
193	0x3dc9472b	0.09828027
194	0x3dd3da28	0.103443444
195	0x3cffe5ef	0.03123757
196	0x3dbc337d	0.09189508
197	0x3e5c9d1f	0.21544312
198	0x3e60ca73	0.21952228
199	0x3d35e29b	0.04440556
200	0x3f3dc5c3	0.74129885
201	0x3ed98695	0.4248549
202	0x40461605	3.095094
203	0x3eb1e6a5	0.3474628
204	0x3d2d9d43	0.042386305
205	0x3eb59044	0.35461628
206	0x3dc6096f	0.09669768
207	0x3cfa1b80	0.030530691
208	0x3db6efc3	0.0893245
209	0x3e3de6c9	0.18545069
210	0x3df3e925	0.11909703
211	0x3da0c033	0.07849159
212	0x3decdb03	0.11565211
213	0x3ef0efb3	0.47057876
214	0x404d04f2	3.2034268
215	0x3e1cccc8	0.15312493
216	0x3fa3267a	1.2746117
217	0x3fd13022	1.6342814
218	0x40834bf1	4.10302
219	0x3fa00eca	1.2504513
220	0x3de9ccba	0.114160016
221	0x3f118370	0.5684118
222	0x3e826781	0.25469592
223	0x3dae03a2	0.08496787
224	0x3c4fd873	0.012685883
225	0x3cf9e2fa	0.030503739
226	0x3c3065d3	0.010766464
227	0x3ba5e588	0.0050627626
228	0x3cb10896	0.02161054
229	0x3ef22cb2	0.47299725
230	0x3c98e558	0.018664047
231	0x3cdd81c5	0.027039418
232	0x3d586f63	0.0528406
233	0x3d800b43	0.06252148
234	0x3d5d4277	0.054018464
235	0x3cbcf577	0.023066266
236	0x3bfaf1d8	0.0076582246
237	0x3c31aaa0	0.010843903
238	0x3e3b45e3	0.18288378
239	0x3bee4f50	0.0072726384
240	0xbbc79b1a	-0.0060914876
241	0xbcb70e6b	-0.022345742
242	0xbcda124a	-0.026620049
243	0xbc15f49a	-0.009152556
244	0x3d064c15	0.0327874
245	0xbd3d8975	-0.046273667
246	0xbd81476a	-0.06312449
247	0xbd4c70fe	-0.049912445
248	0xbe19673f	-0.14980792
249	0xbe8472ea	-0.25868922
250	0xbe960c00	-0.2930603
251	0xbd01033b	-0.03149722
252	0xbbf8f8d3	-0.0075980215
253	0xbc754343	-0.01496965
254	0x3c3dacc4	0.011576835
255	0xbbbb2ab6	-0.0057118786

exp_avg_sq f4 [256, 16]
0	0x389e7af4	7.556929e-05
1	0x39c98de7	0.00038443433
2	0x391b9bb3	0.00014839954
3	0x38bcc9c9	9.002124e-05
4	0x39c2c5ae	0.00037149846
5	0x3c945e98	0.018111512
6	0x3f1cac68	0.6120057
7	0x38e43a0f	0.000108827015
8	0x3aa31355	0.0012441674
9	0x3c442227	0.011971033
10	0x3e1c556d	0.15266962
11	0x3bdf0e2a	0.0068071084
12	0x39a2fc7f	0.00031087172
13	0x3a1c5d76	0.00059648545
14	0x39975325	0.00028862912
15	0x388f7af4	6.841673e-05
16	0x38c989a2	9.610063e-05
17	0x3aaebcb8	0.0013331389
18	0x3a0a41a2	0.0005274062
19	0x39d86c19	0.0004127927
20	0x3a416880	0.00073779374
21	0x3b78a1f6	0.0037938333
22	0x40248a0a	2.5709252
23	0x3a3eb3fc	0.00072747446
24	0x3a840d93	0.0010074846
25	0x3eaf55ed	0.34245244
26	0x3d838af9	0.06422991
27	0x3afeefe8	0.001945016
28	0x3a8cdcec	0.0010746992
29	0x3aa8a72a	0.0012867202
30	0x3abab769	0.0014245334
31	0x394131fb	0.00018424533
32	0x34f7635c	4.607963e-07
33	0x3789a64f	1.6409116e-05
34	0x3b69e6e6	0.0035690605
35	0x3818e5ff	3.6453825e-05
36	0x33310ce0	4.1222734e-08
37	0x3c30f554	0.010800678
38	0x3f4b6f5e	0.7946681
39	0x3a1eb221	0.0006053765
40	0x3b25efb8	0.0025319885
41	0x3c59d4b0	0.013295338
42	0x3c11ad97	0.008891485
43	0x3aada440	0.0013247803
44	0x38fc5663	0.00012032387
45	0x391dc088	0.0001504441
46	0x388ba5e8	6.658939e-05
47	0x381c8d9a	3.7325175e-05
48	0x37d949a5	2.590271e-05
49	0x398418c0	0.00025195442
50	0x3ac63771	0.0015122724
51	0x38c03e9b	9.1669346e-05
52	0x39ada0b2	0.0003311686
53	0x3a6f12f4	0.00091199507
54	0x3cf38f5d	0.029731447
55	0x393e760e	0.00018163791
56	0x3b4c6120	0.003118582
57	0x3e1d4405	0.15357979
58	0x3d186959	0.037209842
59	0x3a874dbc	0.0010322849
60	0x3974707e	0.0002331156
61	0x391cda4c	0.00014958641
62	0x3925edb9	0.00015824185
63	0x37b1a0a7	2.1174854e-05
64	0x37afd978	2.0962892e-05
65	0x3820f0b9	3.8371163e-05
66	0x39b1ed52	0.00033936888
67	0x36d3368a	6.294639e-06
68	0x386e68b2	5.6841127e-05
69	0x3c54659e	0.012963681
70	0x3982e9ed	0.0002496982
71	0x39002a99	0.000122229
72	0x3cbd0580	0.023073912
73	0x3bee53e5	0.0072731846
74	0x3bd549bc	0.006509034
75	0x3c2f640c	0.010705005
76	0x37186915	9.084372e-06
77	0x38c5c7f0	9.430933e-05
78	0x3986a7ff	0.00025683639
79	0x372a4c5e	1.015057e-05
80	0x3823939b	3.8999697e-05
81	0x39a9ad36	0.00032363244
82	0x3851c610	5.0013943e-05
83	0x3845e4ac	4.7181427e-05
84	0x38f9ee4a	0.0001191763
85	0x3a939fe8	0.0011262866
86	0x3eb2d0e5	0.34925
87	0x38c68110	9.4654155e-05
88	0x3b60c34a	0.003429609
89	0x3cd8548f	0.026407508
90	0x3b6d7f75	0.00362393
91	0x3b3d70ae	0.0028906274
92	0x39230455	0.00015546505
93	0x3ce95188	0.02848126
94	0x39c77be9	0.00038048558
95	0x37fbe29f	3.002706e-05
96	0x38311e75	4.2228454e-05
97	0x39e69dc9	0.00043986578
98	0x3beec5d2	0.0072867656
99	0x38a43ad7	7.831089e-05
100	0x39408017	0.00018358264
101	0x3b87ac91	0.0041404446
102	0x3eba70f3	0.36414298
103	0x3b3c5ccb	0.0028741832
104	0x3ad25bfc	0.0016049142
105	0x3c3aa7d9	0.011392557
106	0x3c50e4ea	0.01274989
107	0x3a7eb214	0.0009715867
108	0x3925700b	0.00015777365
109	0x3cc2d2f2	0.023782227
110	0x3b022122	0.0019856174
111	0x389a1669	7.3474665e-05
112	0x36baac84	5.5633154e-06
113	0x35a92e92	1.2605035e-06
114	0x339bbb21	7.2517885e-08
115	0x3720b876	9.579691e-06
116	0x389a8938	7.368851e-05
117	0x3a026ee1	0.00049756287
118	0x3d87fcda	0.066400245
119	0x3780a0b1	1.5333617e-05
120	0x3c38908d	0.011264932
121	0x3b01b3f1	0.0019791091
122	0x3cadf49e	0.021234807
123	0x39fa2619	0.000477121
124	0x383c5a9f	4.490709e-05
125	0x365b5bda	3.2687008e-06
126	0x36b1f1b8	5.303151e-06
127	0x3600929f	1.915883e-06
128	0x348e4d5e	2.6505853e-07
129	0x350a7879	5.1584317e-07
130	0x3697dd5b	4.52592e-06
131	0x356b01e7	8.754709e-07
132	0x36beb9d1	5.684073e-06
133	0x36191dae	2.2816052e-06
134	0x3602c41a	1.9485656e-06
135	0x395b0447	0.00020887061
136	0x369b954e	4.6367413e-06
137	0x3a8dd9b1	0.0010822323
138	0x3bab6c99	0.0052314517
139	0x3864158a	5.4379496e-05
140	0x32fb782a	2.927489e-08
141	0x3b1ad38c	0.0023624627
142	0x346288a8	2.1097605e-07
143	0x34ee1613	4.4347016e-07
144	0x373bd7bc	1.1196298e-05
145	0x3985c3ae	0.0002551353
146	0x387f69af	6.0895163e-05
147	0x38ad0f2c	8.252109e-05
148	0x378aa285	1.6526561e-05
149	0x39f011a6	0.00045789516
150	0x3fa5b4ad	1.2945763
151	0x361e71a6	2.3609987e-06
152	0x3d4d812c	0.050172016
153	0x3bfb09e9	0.0076610935
154	0x3c69dc29	0.014273682
155	0x3c287cfa	0.010283703
156	0x392b9274	0.00016362389
157	0x3a116dca	0.0005547671
158	0x3934490b	0.00017193348
159	0x379cb34c	1.868014e-05
160	0x38034627	3.129817e-05
161	0x3951acb4	0.0001999613
162	0x37372fe8	1.0918804e-05
163	0x3758a7d6	1.2913681e-05
164	0x3a392c70	0.00070638116
165	0x3b519669	0.003198052
166	0x3be62213	0.007023105
167	0x383fdcdf	4.574365e-05
168	0x3d441ed7	0.047880974
169	0x3c53750a	0.012906322
170	0x3e599d38	0.2125138
171	0x3c18ecf0	0.009333834
172	0x389755d9	7.2162315e-05
173	0x3c6a8d17	0.014315865
174	0x3b11a7fc	0.002222537
175	0x382665f2	3.9672428e-05
176	0x38711e35	5.748701e-05
177	0x399acc4c	0.00029525382
178	0x3c994d60	0.018713653
179	0x38b9df6d	8.863104e-05
180	0x38bb065a	8.918038e-05
181	0x3bac08ba	0.0052500637
182	0x3be813b5	0.0070824274
183	0x3a66ea57	0.0008808723
184	0x3a8d11fb	0.0010762805
185	0x3e6d4c34	0.231736
186	0x3cabb8e8	0.020962194
187	0x39fa2499	0.00047710983
188	0x392a0f22	0.00016218101
189	0x3a8faeb7	0.0010962103
190	0x38708e16	5.7352787e-05
191	0x3784b3b9	1.5819316e-05
192	0x39707356	0.0002293115
193	0x3a7d348a	0.0009659013
194	0x3a8c4114	0.0010700547
195	0x38cca31a	9.757858e-05
196	0x3a5d5f76	0.0008444706
197	0x3b981858	0.004641574
198	0x3b9de8bc	0.004819004
199	0x394ec38e	0.0001971854
200	0x3d6115c6	0.054952405
201	0x3c93ddf3	0.01805017
202	0x3f753cea	0.9579607
203	0x3c45ce00	0.01207304
204	0x393c6314	0.00017965987
205	0x3c4e0883	0.012575272
206	0x3a751dc1	0.0009350442
207	0x38c37afb	9.3212315e-05
208	0x3a512944	0.00079788663
209	0x3b616421	0.0034391957
210	0x3ab9e9f3	0.0014184102
211	0x3a21814e	0.00061609305
212	0x3aaf506e	0.001337541
213	0x3cb56841	0.022144439
214	0x3f835a56	1.0261943
215	0x3b19a9f3	0.0023447245
216	0x3e265cd5	0.1624635
217	0x3e88bfb4	0.26708758
218	0x3fd77c30	1.6834774
219	0x3e201d95	0.15636285
220	0x3aaad1d8	0.0013032509
221	0x3d0456a8	0.032309204
222	0x3bd490e9	0.006487001
223	0x3a3d4181	0.00072195387
224	0x3786ffce	1.6093163e-05
225	0x38c322a9	9.3047805e-05
226	0x374279df	1.1591676e-05
227	0x362c02b3	2.5631568e-06
228	0x3843e166	4.670154e-05
229	0x3cb746d4	0.02237264
230	0x38121b70	3.4834666e-05
231	0x38995441	7.311302e-05
232	0x39926354	0.00027921295
233	0x39ccf0d9	0.00039089358
234	0x3998fca8	0.00029179943
235	0x385f28b6	5.3205258e-05
236	0x36c4ca99	5.8648407e-06
237	0x3745489f	1.1759023e-05
238	0x3b5b31e2	0.003344648
239	0x36b17942	5.2891273e-06
240	0x36790401	3.7106222e-06
241	0x38516f64	4.9933224e-05
242	0x38949c1f	7.08627e-05
243	0x370c8aa1	8.376927e-06
244	0x38e1725c	0.00010750137
245	0x396086ce	0.00021412523
246	0x39d0e9c1	0.00039847012
247	0x39829d05	0.0002491252
248	0x3b13141e	0.002244241
249	0x3bdb48a9	0.0066920114
250	0x3c0cb682	0.008588435
251	0x38d00da0	9.920751e-05
252	0x36c1b5a3	5.7729935e-06
253	0x37bbfb0e	2.2409044e-05
254	0x3760da7e	1.3402312e-05
255	0x365af248	3.2625558e-06
